checkpoint_actor.pth (torch_old, 91888 bytes, 14 tensors)

fc1.weight f4 [128, 33]
0	0xbc535e68	-0.012900926
1	0xbddf476d	-0.10902295
2	0x3cc99e2e	0.024611559
3	0xbde885e1	-0.113536604
4	0x3d471009	0.048599277
5	0x3da54242	0.08069278
6	0xbd98eda9	-0.07467205
7	0xbe25a392	-0.16175678
8	0xbd72acd6	-0.05924686
9	0xbe940261	-0.28908065
10	0xbe068858	-0.13137949
11	0xbddf2b48	-0.10896927
12	0x3c5b6870	0.013391599
13	0xbd474f59	-0.048659656
14	0x3dfca661	0.12336422
15	0x3d2f3878	0.042778462
16	0x3d81351b	0.06308957
17	0xbe04c40d	-0.12965412
18	0x3dd80559	0.10547895
19	0xbc4ff999	-0.012693786
20	0x3db3194d	0.0874506
21	0x3e739fdb	0.23791449
22	0x3b60bf23	0.0034293614
23	0x3d13a1bb	0.03604291
24	0x3d01ac2c	0.031658337
25	0x3d17c385	0.037051696
26	0xbdac326c	-0.08408055
27	0xbd363558	-0.044484466
28	0x3df73e8a	0.12072475
29	0x3d0abe56	0.033872925
30	0x3df6e787	0.12055879
31	0xbd9c2bbc	-0.07625529
32	0x3eb1e3a8	0.34744
33	0xbb56ef0e	-0.0032796296
34	0x3dc16355	0.09442774
35	0x3c32524c	0.010883879
36	0xbd526846	-0.051368974
37	0x3dee709b	0.116425715
38	0xbbee3f0e	-0.0072707003
39	0xbdb96664	-0.090527326
40	0xbd7e1f2f	-0.062041458
41	0xbdfa1673	-0.12211313
42	0x3cfcaf2a	0.030845243
43	0xbd9c97dc	-0.076461524
44	0x3e060b46	0.13090238
45	0x3bed3e23	0.0072400733
46	0xbe12b8ee	-0.14328358
47	0x3dd3e6e1	0.10346771
48	0x3dc938b2	0.09825267
49	0x3d5ef1e0	0.05442989
50	0xbc83232a	-0.016007978
51	0xbd7d5051	-0.061844174
52	0x3da83bb8	0.082145154
53	0x3b3b9ae6	0.0028626262
54	0xbdbcd061	-0.092194326
55	0xbc7015c9	-0.0146536315
56	0xbd9f6014	-0.07781997
57	0xbc18e3a8	-0.009331621
58	0x3d6041fb	0.054750424
59	0xbdf263e6	-0.1183546
60	0x3ebb67ff	0.3660278
61	0x3dba4511	0.090952046
62	0x3d6cd02e	0.057815723
63	0xbea3a125	-0.3195888
64	0x3d11fc30	0.035640895
65	0xbd0b45dc	-0.03400217
66	0xbdaf9fac	-0.08575377
67	0xbe3e4b9f	-0.18583535
68	0xbe7ac10d	-0.24487706
69	0x3d738ac1	0.059458498
70	0xbd044b26	-0.03229823
71	0xbdaa4b54	-0.08315149
72	0xbde04a74	-0.10951701
73	0xbde4ee0f	-0.111782186
74	0x3e07df1b	0.13268702
75	0xbd7c6617	-0.061620798
76	0xbd6c798d	-0.057733107
77	0xbd91424e	-0.07092725
78	0xbe03a1e5	-0.12854727
79	0xbdaff334	-0.08591309
80	0x3e4dbae4	0.20090824
81	0x3cb55419	0.022134827
82	0xbdaa76c2	-0.083234325
83	0x3e076fb8	0.13226211
84	0xbe21c4d7	-0.15797745
85	0x3cea1c64	0.02857799
86	0xbd4a0c02	-0.049327858
87	0x3cbbd71a	0.022929717
88	0xbdab8a2a	-0.08375962
89	0x3d0e5fb2	0.03475923
90	0x3d36cdd4	0.044629887
91	0xbd9b10eb	-0.07571586
92	0x3db57f05	0.08862118
93	0x3d0eb259	0.034838054
94	0xbd4c1113	-0.04982097
95	0xbd1daff1	-0.03849787
96	0xbd83cfde	-0.06436132
97	0x3d1d9386	0.038470767
98	0xbeec6d38	-0.46177077
99	0x3e53b323	0.20673804
100	0xbe37db01	-0.17954637
101	0xbe52d499	-0.20588912
102	0x3d5967a0	0.05307734
103	0x3e0a2b59	0.13493098
104	0xbda6786d	-0.08128438
105	0xbc174cf3	-0.009234655
106	0x3d8b6b54	0.068075806
107	0xbe1373b0	-0.143996
108	0x3d963476	0.07334225
109	0x3dc2e7e8	0.09516889
110	0x3c543740	0.012952626
111	0xbdcde26f	-0.100529544
112	0xbd6da095	-0.05801447
113	0x3cf67360	0.030084312
114	0x3e520486	0.20509538
115	0xbd5218cf	-0.05129319
116	0x3d3655a1	0.044515256
117	0x3d152d08	0.0364199
118	0xbcfd05da	-0.03088658
119	0x3c5802df	0.013184278
120	0x3e06b3d9	0.13154544
121	0xbd1638cd	-0.036675263
122	0x3d9b066c	0.07569584
123	0xbc1ebcf1	-0.009688602
124	0x3d7841af	0.060609516
125	0xbd281910	-0.041039526
126	0xbe32cc49	-0.17460741
127	0xbdce4fcf	-0.10073816
128	0x3cd11ce8	0.025526479
129	0x3d34ff43	0.04418875
130	0x3d8a46ad	0.067517616
131	0xbd4f75a3	-0.050649296
132	0x3ca207f3	0.019779181
133	0xbe05ccea	-0.1306645
134	0xbce2796a	-0.027645785
135	0xbba997c9	-0.005175565
136	0x3da10eaf	0.07864129
137	0xbc1a31b8	-0.009411268
138	0x3c3fc81a	0.011705423
139	0xbbd7d1a2	-0.0065862695
140	0xbc23aadf	-0.009989469
141	0x3caf661b	0.021410992
142	0x3c9f780b	0.01946642
143	0xbc230186	-0.009949094
144	0xba04761d	-0.00050530006
145	0xbd0dacbd	-0.034588564
146	0x3d94f8a2	0.072739854
147	0x3d3d4a3e	0.04621338
148	0xbc144a89	-0.009050974
149	0x3ca5f6d2	0.020259295
150	0x3d4414ed	0.04787152
151	0x3d1aa481	0.03775454
152	0xbbd3ba95	-0.0064614513
153	0xbcba7c5c	-0.022764377
154	0x3bc28ffc	0.0059375744
155	0x3b879e93	0.0041387766
156	0x3caf4592	0.021395478
157	0x3c3155a0	0.010823637
158	0x3db3113e	0.08743523
159	0x3e4cc55f	0.19997166
160	0x3dc21ab4	0.094777495
161	0x3d9e8313	0.07739844
162	0xbe8a0cb1	-0.26962808
163	0x3d37e4ca	0.044895925
164	0x3f681328	0.9065423
165	0x3ca7c41d	0.020479256
166	0xbc2e073f	-0.010621845
167	0xbdf2c44e	-0.118538484
168	0x3d1520c3	0.036408197
169	0xbd8af48d	-0.067849256
170	0x3ccfaef1	0.025351973
171	0xbde4a269	-0.1116379
172	0xbd6dafd6	-0.05802902
173	0xbe10338a	-0.1408216
174	0xbe301b27	-0.17197858
175	0xbdabfeb1	-0.08398188
176	0xbdaaa2ad	-0.08331809
177	0x3cb5dfe0	0.022201478
178	0x3e2d7493	0.16939001
179	0xbd93150d	-0.071817495
180	0x3c86b15c	0.016441993
181	0xbdd174dd	-0.10227368
182	0x3e63d167	0.2224785
183	0x3e4fb94b	0.20285527
184	0x3e571ccd	0.2100708
185	0x386e7640	5.685375e-05
186	0xbcb0bc0b	-0.02157404
187	0xbdd1a4ce	-0.10236512
188	0x3da9f989	0.08299548
189	0xbbb10fbb	-0.0054034865
190	0x3e365a0e	0.1780779
191	0x3d91bb78	0.07115835
192	0xbdab3281	-0.08359242
193	0xbe1ddc94	-0.15416175
194	0x3d5335c2	0.05156494
195	0x3e4da743	0.20083337
196	0x3cda2b30	0.026631922
197	0x3dda3800	0.106552124
198	0xbe07aa78	-0.13248622
199	0x3d11bce1	0.03558052
200	0xbcc0a67c	-0.023516886
201	0xbdeaef00	-0.11471367
202	0x3ce5882d	0.028019035
203	0xbd0dbf99	-0.03460655
204	0xbc8c708c	-0.01714351
205	0x3e09baf0	0.13450217
206	0xbdff61b4	-0.12469807
207	0x3d308a13	0.043100428
208	0xbe08281e	-0.13296553
209	0xbe470121	-0.19434024
210	0x3dad82c6	0.08472209
211	0xbc838d5e	-0.01605862
212	0xbcc9d3e7	-0.024637176
213	0x3da1f501	0.07908059
214	0xbd0dc7d2	-0.03461439
215	0x3b2cb080	0.002635032
216	0xbcbe8524	-0.023256846
217	0x3d521e53	0.05129845
218	0xbdd92315	-0.106023945
219	0xbc132697	-0.0089813685
220	0xbd9d0dce	-0.07668649
221	0x39fbe715	0.0004804662
222	0xbe09f597	-0.13472591
223	0xbd477595	-0.04869612
224	0xbe6a30fd	-0.2287025
225	0x3e39f388	0.18159306
226	0xbd892385	-0.06696228
227	0x3b520ba0	0.0032050386
228	0xbe5cff8c	-0.21581858
229	0x3d848ce9	0.06472189
230	0xbebc5057	-0.36780044
231	0x3d8aa615	0.06769959
232	0x3e19a531	0.15004422
233	0xbd99723e	-0.07492493
234	0xb992b901	-0.0002798513
235	0x3cd0d75c	0.025493316
236	0xbd592e73	-0.053022813
237	0x3ca387a9	0.019962149
238	0xbbe2c895	-0.006920884
239	0x3dae7d6e	0.085200176
240	0x3d9678fd	0.073472954
241	0x3dc484ce	0.09595643
242	0x3c18dadf	0.009329527
243	0xbd8a4c4e	-0.06752835
244	0xbdfbab9e	-0.12288593
245	0x3e227347	0.15864287
246	0xbd193485	-0.037403602
247	0x3be5b1b4	0.0070097093
248	0xbc836a27	-0.016041828
249	0x3c48f104	0.012264494
250	0x3b98c73c	0.0046624225
251	0x3c6b2501	0.014352084
252	0xbd289ef4	-0.041167215
253	0xbcd197af	-0.025585024
254	0xbdbd6a33	-0.092487715
255	0xbd3ac45d	-0.045597423

fc1.bias f4 [128]
0	0x3e5151de	0.20441386
1	0xbe3864c8	-0.18007195
2	0xbd82acba	-0.06380601
3	0x3dfe10bc	0.124055356
4	0xbe9e789d	-0.30951396
5	0x3e33dc25	0.17564447
6	0x3c61fd31	0.013793276
7	0xbe928c26	-0.2862255
8	0xbd8ac76f	-0.0677632
9	0x3d156539	0.036473487
10	0x3dbd3f07	0.09240537
11	0xbeadcdce	-0.3394608
12	0x3e093b44	0.13401514
13	0xbe68e58f	-0.2274382
14	0xbea0a0ae	-0.3137259
15	0x3ade10a5	0.0016942216
16	0xbe49688c	-0.19668788
17	0xbe6399de	-0.22226664
18	0xbea8b366	-0.3294937
19	0x3aa03576	0.0012222964
20	0xbe5352c3	-0.2063704
21	0xbeccff1d	-0.40038386
22	0xbe83d31a	-0.25746995
23	0xbe82d6c9	-0.25554493
24	0xbe380bb8	-0.1797322
25	0x3c9b77ea	0.018978078
26	0xbe503bf9	-0.20335378
27	0xbe551a5e	-0.2081084
28	0xbeec7089	-0.46179608
29	0xbd5767da	-0.052589275
30	0x3d6acaac	0.05732219
31	0xbe8902d3	-0.26759967
32	0xbdfa993b	-0.12236258
33	0xbdc0471a	-0.093885615
34	0xbe6b6980	-0.22989464
35	0xbe40adce	-0.18816301
36	0xbdf2cc8d	-0.11855421
37	0x3e26eaa3	0.16300444
38	0xbe0d866a	-0.13820806
39	0xbd63335c	-0.055468902
40	0x3dbfd64c	0.09367046
41	0x3dca0484	0.098641425
42	0xbe568381	-0.20948602
43	0xbd800ccc	-0.06252441
44	0xbe1e2763	-0.15444712
45	0x3de1c299	0.11023445
46	0xbe1e961e	-0.15486953
47	0xbe46af04	-0.194027
48	0xbdef4de5	-0.11684779
49	0xbe0c67c3	-0.13711457
50	0x3db6db9a	0.089286044
51	0x3db216f8	0.08695787
52	0xbd26a855	-0.040687878
53	0xbe89b6af	-0.2689719
54	0xbe238bf8	-0.15971363
55	0xbe1920ae	-0.14953873
56	0xbe4de60f	-0.20107292
57	0xbe36bfae	-0.17846557
58	0x3e4a6bbe	0.19767663
59	0xbd9f8b1c	-0.07790205
60	0x3e0779eb	0.13230102
61	0xbdb946b7	-0.09046691
62	0xbe978073	-0.29590186
63	0xbe58ca3c	-0.21170896
64	0xbeaf64d3	-0.3425661
65	0xbe83d17f	-0.2574577
66	0xbe626da8	-0.22112143
67	0xbe0975a3	-0.13423781
68	0xbe563483	-0.20918469
69	0xbd13ed3b	-0.036114912
70	0xbe2e64db	-0.17030661
71	0xbe80b71f	-0.2513971
72	0x3a5d2f5a	0.0008437537
73	0xbceba3f7	-0.028764708
74	0xbdfd2504	-0.12360576
75	0xbe50503c	-0.20343107
76	0x3dfe4388	0.12415224
77	0xbe412672	-0.18862322
78	0x3dbd6c59	0.09249181
79	0xbce42063	-0.027847474
80	0xbe2c3357	-0.1681646
81	0x3de393f3	0.111122034
82	0x3d863256	0.065525696
83	0x3d93bb55	0.07213465
84	0x3d08c009	0.033386264
85	0xbe535730	-0.20638728
86	0xbe297978	-0.16550243
87	0xbe9f0202	-0.3105622
88	0x3d81bba0	0.06334615
89	0xbe685ffa	-0.22692862
90	0xbe9092cc	-0.28236997
91	0xbd150243	-0.03637911
92	0xbd62a849	-0.05533627
93	0x3de83abb	0.11339327
94	0x3eb49f94	0.35277998
95	0xbeb8b52c	-0.36075723
96	0xbcaf6b78	-0.02141355
97	0xbea80391	-0.3281522
98	0xbd24d394	-0.04024084
99	0xbd098c86	-0.03358128
100	0x3ca2a274	0.019852854
101	0xbdcbed46	-0.09957366
102	0x3daf10d5	0.08548132
103	0xbb55e069	-0.003263498
104	0xbc435c0a	-0.011923799
105	0xbda02c96	-0.07821004
106	0x3dbbe7a2	0.0917504
107	0xbe45a588	-0.19301426
108	0x3b86e5bb	0.0041167415
109	0xbe1dd885	-0.15414627
110	0xbd88f0b3	-0.06686535
111	0xba28eac4	-0.0006443674
112	0xbb0c9010	-0.0021448173
113	0x3e2360f3	0.15954952
114	0xbe06fc52	-0.1318219
115	0xbe06db9a	-0.13169709
116	0xbe71e8fb	-0.23624031
117	0xbe374cfe	-0.17900464
118	0x3dd00563	0.101572774
119	0xbe2bce20	-0.16777849
120	0xbe5bd366	-0.21467361
121	0x3e626973	0.22110538
122	0xbe05850f	-0.13039039
123	0x3cc90fab	0.024543604
124	0xbd48747c	-0.048939213
125	0xbdbd2e70	-0.09237373
126	0x3d6591de	0.056047313
127	0xbe10ee62	-0.14153436

fc2.weight f4 [128, 128]
0	0x3d8141ab	0.06311353
1	0xbe0968d9	-0.13418902
2	0xbda0c3e2	-0.07849862
3	0xbe6335df	-0.22188519
4	0xbeb984f4	-0.36234248
5	0x3ae0d53b	0.0017153391
6	0xbe0a74a5	-0.13521059
7	0x3e60d257	0.21955238
8	0x3e9209c5	0.2852308
9	0x3dbe1140	0.09280634
10	0x3dd4b5b7	0.10386222
11	0xbe13598d	-0.1438963
12	0x3e0d3878	0.13791072
13	0x3d03153b	0.03200267
14	0x3dd57a16	0.10423677
15	0xbdf7cb76	-0.12099354
16	0xbe82ecfd	-0.25571433
17	0x3d57f714	0.052725866
18	0x3e08c400	0.13356018
19	0xbd03b886	-0.032158397
20	0xbde13b15	-0.10997597
21	0xbd970a65	-0.073750295
22	0xbe1baca4	-0.15202576
23	0xbe0683bd	-0.13136192
24	0x3e55c4e1	0.20875885
25	0x3e0161cb	0.12634961
26	0x3cc49ea9	0.024001436
27	0x3dbdb365	0.092627324
28	0x3e3ccc55	0.18437321
29	0xbe62b0a9	-0.22137703
30	0xbd873f9b	-0.06603929
31	0xbcd9cc8a	-0.02658679
32	0xbd36bfa7	-0.044616368
33	0x3e24afdb	0.16082709
34	0xbe3e0389	-0.18556036
35	0xbd3ca934	-0.046059802
36	0xbdd4e929	-0.10396034
37	0xbe30fe89	-0.17284597
38	0x3e35ea6b	0.17765205
39	0x3d852f63	0.06503179
40	0xbdf423fa	-0.119209245
41	0xbd9f046f	-0.077645175
42	0x3e2fd5ce	0.17171404
43	0xbe812ce1	-0.25229552
44	0xbebafee7	-0.365226
45	0x3abf926d	0.0014615782
46	0xbdc95d0c	-0.098322004
47	0xbdc626ce	-0.0967537
48	0xbc947890	-0.018123895
49	0x3c95e4c6	0.018297564
50	0xbe688a21	-0.22708942
51	0x3dab80e8	0.08374196
52	0xbea4afd6	-0.32165402
53	0xbea0a89e	-0.31378645
54	0x3d503b11	0.05083758
55	0x3d470cd9	0.048596237
56	0xbe5e1860	-0.21688986
57	0xbddce460	-0.107857466
58	0xbe0984bf	-0.13429545
59	0xbe095206	-0.13410196
60	0x3dad00ab	0.08447393
61	0xbd602522	-0.054722913
62	0xbed41693	-0.41423473
63	0x3e25965d	0.1617064
64	0x3e452fd0	0.1925652
65	0x3e53e20f	0.20691703
66	0xbe26554c	-0.16243476
67	0x3c3d30eb	0.0115473075
68	0x3d1e478d	0.038642455
69	0xbd413b04	-0.047175422
70	0x3da2d05a	0.07949896
71	0x3e418d4b	0.18901555
72	0xbdd3a762	-0.1033466
73	0xbe3e107a	-0.18560973
74	0xbaf29acb	-0.0018509267
75	0x3ce7762a	0.028254587
76	0x3d6f6ccf	0.058453377
77	0xbe7733b4	-0.24140817
78	0x3e23b55b	0.1598715
79	0x3e20b85e	0.1569533
80	0x3d6ec068	0.05828896
81	0x3e171b03	0.14756398
82	0x3e80561b	0.25065693
83	0xbca0d853	-0.019634401
84	0xbe19d4e7	-0.15022622
85	0xbe9615f7	-0.29313633
86	0xbdcecd25	-0.10097722
87	0x3ddd797b	0.10814186
88	0x3e9006a5	0.2813007
89	0x3e8379fe	0.2567901
90	0x3e30cb90	0.17265153
91	0xbde166e7	-0.11005955
92	0x3e082107	0.13293849
93	0xbdfff4b1	-0.12497843
94	0x3dd1ddae	0.1024736
95	0x3defaf0c	0.117033094
96	0xbdd496de	-0.10380338
97	0x3dbf0378	0.093268335
98	0x3bc59cae	0.0060306406
99	0x3e3eb513	0.18623762
100	0x3ead20f8	0.33814216
101	0x3cdef08f	0.027214317
102	0x3dbc0cec	0.09182152
103	0xbcb19f06	-0.021682274
104	0xbcae188c	-0.02125194
105	0xbe5aa6ff	-0.21352766
106	0xbda2e167	-0.07953148
107	0x3dfa1dd3	0.1221272
108	0xbe50d88f	-0.2039511
109	0xbe5c3ad6	-0.21506819
110	0x3d82810d	0.06372271
111	0xbdc508a8	-0.09620792
112	0x3cc9d62d	0.02463826
113	0xbe0ef2fe	-0.13959882
114	0xbea342d6	-0.3188693
115	0xbe3744d3	-0.17897348
116	0x3e16d76f	0.14730619
117	0x3e85be0c	0.26121557
118	0xbdfc0f5b	-0.12307616
119	0xbd81b88a	-0.06334026
120	0x3c62a1e1	0.01383254
121	0x3e36ee8e	0.17864439
122	0x3dd15591	0.102213986
123	0x3da5bcc0	0.08092642
124	0xbe358002	-0.17724612
125	0xbeaba18d	-0.3352169
126	0x3b752eb5	0.0037411873
127	0xbda8579f	-0.082198374
128	0xbe44937c	-0.19196886
129	0xbe1ce5bd	-0.15322013
130	0xbd852d07	-0.06502729
131	0x3d95571b	0.07292005
132	0x3e5d602e	0.21618721
133	0xbdc803cc	-0.09766349
134	0xbdeb091e	-0.11476348
135	0x3ec29f5d	0.3801221
136	0x3d5d628a	0.054049052
137	0x3d94ab1c	0.07259199
138	0xbea9f240	-0.33192635
139	0x3e020ea5	0.12700899
140	0xbe19c918	-0.15018117
141	0xbe13d4ab	-0.14436595
142	0xbc5c14bb	-0.013432677
143	0xbd3f00aa	-0.046631493
144	0xbcfde8e4	-0.03099484
145	0xbd7ce006	-0.061737083
146	0xbe399a61	-0.18125297
147	0xbda590d7	-0.08084267
148	0xbdc8239b	-0.09772416
149	0x3d9fae4c	0.07796916
150	0xbcadb79d	-0.021205718
151	0x3e375606	0.17903909
152	0xbd45f661	-0.04833067
153	0x3cbbfcb6	0.02294765
154	0x3d68bdd3	0.056821655
155	0xbe466a25	-0.19376428
156	0x3deae1dd	0.11468861
157	0x3e23d0f3	0.15997677
158	0x3e0c5984	0.13706023
159	0xbe57b5f8	-0.2106551
160	0xbca11f00	-0.019668102
161	0x3d2cfd85	0.042233963
162	0x3ea9de94	0.33177626
163	0xbd97e367	-0.074164204
164	0x3d8d4a47	0.06898933
165	0x3d4c1871	0.049827997
166	0x3d78bfa8	0.060729653
167	0xbe514f5a	-0.20440426
168	0x3cc84508	0.02444698
169	0xbd79849b	-0.060917478
170	0xbba4d16b	-0.0050298474
171	0x3e523715	0.20528825
172	0xbe485f18	-0.19567525
173	0xbe8310da	-0.25598794
174	0xbde08464	-0.109627515
175	0x3dba4396	0.09094922
176	0x3d9c458e	0.07630454
177	0x3dc12256	0.09430377
178	0x3e6bcb8f	0.2302687
179	0x3e951aaa	0.29121906
180	0xbc688607	-0.014192111
181	0x3e110e67	0.1416565
182	0x3c3f2e25	0.011668717
183	0x3ba568d8	0.0050478987
184	0x3e3dd4f0	0.1853826
185	0xbcb3e339	-0.021958934
186	0xbe96a8c2	-0.29425627
187	0x3e5f9f4e	0.21838114
188	0x3e3182ca	0.17335048
189	0x3de0db9d	0.10979388
190	0x3c2cb206	0.010540491
191	0xbe3f9f13	-0.18713026
192	0x3e2032af	0.15644334
193	0x3e7cfd8a	0.24706092
194	0xbe23fbd0	-0.16014028
195	0x3e9970c0	0.29968834
196	0xbd848a06	-0.064716384
197	0xbd61bb11	-0.05511004
198	0xbe781046	-0.24224958
199	0x3e57b90e	0.21066687
200	0xbe4d785d	-0.20065446
201	0xbd000c52	-0.03126175
202	0x3e6c5f9a	0.23083344
203	0xbde18fc9	-0.11013753
204	0xbe66cfc6	-0.22540197
205	0xbc0ab14b	-0.0084651215
206	0x3dbf4f01	0.09341241
207	0xbd67e4ed	-0.056614805
208	0xbd6eae43	-0.058271658
209	0x3c48aec8	0.012248702
210	0xbde0f3a0	-0.10983968
211	0x3da77959	0.08177442
212	0x3d4945b3	0.049138736
213	0x3eb2e1bc	0.34937847
214	0xbd004975	-0.031320054
215	0x3c795a62	0.015219303
216	0x3c16976e	0.009191377
217	0x3e7fd557	0.24983726
218	0xbdd0c49a	-0.10193749
219	0xbeb2342d	-0.34805432
220	0x3d56e6b9	0.052466128
221	0xbe8c6db9	-0.27427462
222	0xbe894f75	-0.26818433
223	0x3e5a2a20	0.21305132
224	0xbdbe2a1d	-0.09285376
225	0x3e4d12f3	0.2002676
226	0xbd7273f4	-0.059192613
227	0xbd2479e3	-0.040155303
228	0x3d40a6fa	0.04703424
229	0x3e075c58	0.1321882
230	0xbd83c482	-0.06433965
231	0xbed0f915	-0.40815035
232	0x3d48d6dc	0.04903303
233	0xbdc47c0b	-0.09593972
234	0xbe0ff218	-0.14057195
235	0x3db0fa92	0.086415425
236	0xbddd48fa	-0.10804935
237	0xbdcb0dfc	-0.09914777
238	0xbc9cb28f	-0.019128112
239	0x3dde7e56	0.108639404
240	0x3e9d0af3	0.30672416
241	0xbe37712a	-0.17914262
242	0xbe554bf2	-0.20829752
243	0xbe3484ff	-0.17628859
244	0x3dfd991e	0.123827204
245	0x3ea70fa1	0.3262911
246	0xbdb54402	-0.08850862
247	0xbdade634	-0.084911734
248	0x3e463f38	0.19360054
249	0xbcba7389	-0.02276017
250	0x3e2d2f82	0.16912654
251	0xbe2efb00	-0.17087936
252	0xbe897781	-0.26848987
253	0x3e2907b4	0.16506845
254	0xbd1810bb	-0.03712533
255	0xbe1a1667	-0.15047608

fc2.bias f4 [128]
0	0x3d1f462c	0.03888528
1	0xbd09acde	-0.033612125
2	0x3e14ffb6	0.14550671
3	0xbddbbac3	-0.10728981
4	0x3dbd255c	0.09235641
5	0xbec92853	-0.39288577
6	0xbddef8b7	-0.10887282
7	0xbe7a19f3	-0.24423961
8	0xbd8a3c91	-0.067498334
9	0xbdf79fe4	-0.120910436
10	0xbd4dfb9c	-0.05028878
11	0x3e424113	0.18970136
12	0x3a335fe9	0.00068426
13	0x3e317688	0.17330372
14	0xbc977024	-0.01848609
15	0xbd6b1be6	-0.057399653
16	0x3ccdfb25	0.02514417
17	0x3d3b8464	0.045780554
18	0xbdba0ed9	-0.09084863
19	0xbe6bdf1e	-0.23034331
20	0xbdd0e470	-0.10199821
21	0xbd94329a	-0.07236214
22	0xbd978cd6	-0.07399909
23	0xbdad4a35	-0.084614195
24	0xbca642bb	-0.020295491
25	0x3db11449	0.08646447
26	0x3dd3ced5	0.103421845
27	0xbe81f75d	-0.25384036
28	0xbdb344fb	-0.08753391
29	0x3e32cb51	0.17460372
30	0x3dd238c7	0.10264736
31	0xbdc5c086	-0.096558616
32	0x3d2a0cc9	0.0415161
33	0xbe21a8f5	-0.15787108
34	0xbe08700d	-0.13323994
35	0xbdca8cb7	-0.098901205
36	0xbd9333aa	-0.071875885
37	0xbd698d75	-0.05701967
38	0xbe3f299f	-0.18668221
39	0x3d7f90ef	0.06239408
40	0xbce50275	-0.027955273
41	0xbe657b1b	-0.22410242
42	0xbd4b3c11	-0.04961783
43	0xbd9733bc	-0.073829144
44	0x3dcae54b	0.099070154
45	0xbe1691f0	-0.14704108
46	0xbd263f3d	-0.040587652
47	0xbd2d814e	-0.042359643
48	0x3bb67f9e	0.0055694124
49	0xbe99c789	-0.30035046
50	0x3c5219a9	0.012823501
51	0xbd3603b9	-0.044437144
52	0x3cdb1801	0.026744844
53	0x3d164e90	0.036696017
54	0xbdd2551b	-0.10270139
55	0xbcdbbb4d	-0.02682271
56	0xbe4348f0	-0.19070792
57	0x3c0639eb	0.00819252
58	0xbe540f72	-0.20709017
59	0x3e082d0e	0.13298437
60	0x3d8dcbda	0.06923647
61	0x3def5972	0.11686982
62	0xbd982ad3	-0.07430043
63	0x3dd2e784	0.10298064
64	0x3cfcfda5	0.030882666
65	0xbca012a7	-0.019540144
66	0xbe9e7714	-0.30950224
67	0xbd98166c	-0.07426152
68	0xbe1f0dd5	-0.1553262
69	0xbd01fdb9	-0.03173611
70	0xbde3f3cf	-0.11130487
71	0xbe2adcf6	-0.16685852
72	0x3d8aed1c	0.06783506
73	0xbe8918d0	-0.26776743
74	0xbc7cd17f	-0.015430807
75	0x3c2429db	0.010019745
76	0x3e08eeee	0.13372394
77	0xbd85d8c2	-0.06535484
78	0xbe14da35	-0.14536364
79	0xbd512801	-0.05106354
80	0xbe0c419a	-0.136969
81	0x3e14b21b	0.14521067
82	0xbd44b3cb	-0.048023026
83	0xbec59ae7	-0.38594744
84	0xbeb4c324	-0.3530513
85	0xbe5452d2	-0.20734718
86	0x3e4f841b	0.20265238
87	0xbc1999e0	-0.009375066
88	0xbec2dc33	-0.38058624
89	0xbece4a03	-0.4029084
90	0xbd8e425d	-0.069462515
91	0xbbf4385a	-0.0074530067
92	0xbe8aee3d	-0.27134886
93	0xbd90ab54	-0.07063928
94	0x3dbd7d63	0.09252431
95	0x3e1d0bdc	0.15336555
96	0x3d87cd7e	0.066309914
97	0x3de0d8bd	0.109788395
98	0x3e6e31fe	0.23261258
99	0xbc07787f	-0.008268475
100	0xbc614369	-0.013748982
101	0xbdcf6f14	-0.10128608
102	0xbd0484d2	-0.03235323
103	0xbe7a976c	-0.24471825
104	0xbe1db803	-0.15402226
105	0x3ca129d7	0.019673271
106	0xbe7dcaaa	-0.24784341
107	0xbdcf3f8e	-0.10119544
108	0xbd77e83a	-0.060524203
109	0x3e857b63	0.260707
110	0xbd195643	-0.03743578
111	0x3d9cc870	0.07655418
112	0xbe05fa14	-0.13083678
113	0xbde4ee04	-0.111782104
114	0x3cd1a34c	0.025590561
115	0x3e058db5	0.13042338
116	0x3cc15775	0.023601273
117	0x3d96aeae	0.07357536
118	0x3d0721da	0.032991268
119	0x3db11405	0.086463965
120	0x3d88c0ec	0.06677422
121	0xbd999dea	-0.07500823
122	0xbe087e9b	-0.13329546
123	0xbe112f1e	-0.1417813
124	0x3d9c3458	0.07627171
125	0xbd4e7b6b	-0.05041067
126	0xbdff0e35	-0.12453882
127	0xbdefdaf6	-0.11711685

fc3.weight f4 [4, 128]
0	0xbe897e66	-0.26854247
1	0xbe2c99c5	-0.16855533
2	0x3e943813	0.2894903
3	0x3f06c375	0.52641994
4	0xbcd2bd59	-0.025725054
5	0x3e0c6bfd	0.1371307
6	0xbe97ccc5	-0.29648414
7	0xbdae37f1	-0.08506764
8	0x3d9bf6c4	0.07615426
9	0xbebc56c6	-0.36784953
10	0xbe993657	-0.2992427
11	0xbe0c2ecc	-0.13689727
12	0x3db7d77d	0.08976648
13	0x3d85c25a	0.0653121
14	0xbec20ea9	-0.3790181
15	0x3dc7e68b	0.097607695
16	0xbec36270	-0.3816104
17	0xbdbc4b71	-0.09194077
18	0x3ef42893	0.47687206
19	0x3f0b642e	0.5444974
20	0x3e4893ea	0.19587675
21	0x3e32e965	0.17471845
22	0xbcbf79de	-0.02337354
23	0x3d4dd4f9	0.050251935
24	0x3e46ec82	0.19426158
25	0x3e0237e6	0.12716636
26	0xbe062451	-0.13099791
27	0xbe1a6874	-0.15078908
28	0x3dc178f2	0.094468966
29	0x3ce9601f	0.028488217
30	0xbef63925	-0.48090473
31	0xbf1a8a8a	-0.60367644
32	0xbce06f37	-0.027396781
33	0xbec6b44b	-0.38809428
34	0x3e567ac4	0.20945269
35	0xbd1846e9	-0.037177
36	0xbc570831	-0.013124512
37	0x3eb2ddaa	0.3493474
38	0x3de0e4dd	0.10981152
39	0x3f21d8aa	0.6322123
40	0x3e466590	0.1937468
41	0x3c062ff2	0.008190142
42	0xbee39129	-0.44446686
43	0xbe942dca	-0.28941184
44	0xbf0062ee	-0.50150955
45	0x3d43173b	0.047629576
46	0xbe82fdd1	-0.25584272
47	0x3edf5232	0.43617398
48	0x3e6a1608	0.22859967
49	0xbac25ce2	-0.0014828707
50	0xbe0baa73	-0.1363924
51	0xbd26fac1	-0.04076648
52	0x3e1ef883	0.15524487
53	0x3d5e7df3	0.054319333
54	0xbf0c3f27	-0.5478386
55	0x3d95cd1e	0.073145136
56	0x3cf216fe	0.02955198
57	0xbe0ba901	-0.13638689
58	0xbdb1d3af	-0.086829536
59	0x3ec5e9c7	0.3865492
60	0x3ee87390	0.45400667
61	0xbcdf9fb3	-0.02729783
62	0x3c7d1626	0.015447175
63	0xbd8352f0	-0.064123034
64	0xbd3a3ced	-0.04546826
65	0xbe8479a3	-0.2587405
66	0x3db5038d	0.08838568
67	0x3d0c5bfd	0.034267414
68	0x3e075812	0.1321719
69	0xbede7adf	-0.43453118
70	0xbf303b84	-0.68840814
71	0xbdb53ba5	-0.08849267
72	0x3e01c09e	0.12671134
73	0x3ebc15ac	0.36735284
74	0x3d19a66d	0.03751223
75	0x3d4a703d	0.049423445
76	0x3e88b271	0.2669864
77	0xbeff2f11	-0.49840596
78	0xbe2f8316	-0.17139849
79	0xbe636c21	-0.22209217
80	0xbe0dfc10	-0.13865685
81	0xbe50f1a7	-0.20404683
82	0xbcad17a8	-0.021129444
83	0xbea9ceff	-0.33165738
84	0x3f1e5df3	0.61862105
85	0x3dd77023	0.10519435
86	0x3e18a5f6	0.14907059
87	0x3e94b604	0.29045117
88	0x3ee7ce54	0.45274603
89	0xbdc1b74b	-0.094587885
90	0x3e345733	0.17611389
91	0xbecbe4ac	-0.398229
92	0x3d099184	0.03358604
93	0xbd42f049	-0.047592435
94	0xbd929255	-0.07156817
95	0xbe227ea3	-0.1586862
96	0x3ea34503	0.3188859
97	0x3e9b7c93	0.3036848
98	0xbe015096	-0.12628397
99	0xbd81106f	-0.063019626
100	0xbe9c36ca	-0.3051055
101	0xbcb92370	-0.022599906
102	0x3de1f40e	0.11032878
103	0xbebe2a50	-0.37141657
104	0xbe40e08f	-0.18835662
105	0x3e62ca9e	0.22147605
106	0x3e935c07	0.2878115
107	0xbeb133fb	-0.3460997
108	0xbe316b35	-0.17326052
109	0xbef05eb5	-0.46947256
110	0x3d9e15ee	0.077190265
111	0x3d41051c	0.047124013
112	0x3e26c62d	0.16286536
113	0x3ef0535c	0.46938598
114	0x3e32ef07	0.17473994
115	0xbe06ee3c	-0.13176817
116	0x3eb19848	0.34686494
117	0x3ea43020	0.32067966
118	0xbd68f7db	-0.056877
119	0x3d6774be	0.05650782
120	0xbe4789f0	-0.19486213
121	0xbe9c2311	-0.30495504
122	0xbe5c7d27	-0.21532117
123	0xbf00b891	-0.50281626
124	0xbe6a07a3	-0.22854476
125	0xbd4f2451	-0.050571743
126	0x3eba60b5	0.36401907
127	0x3c8e1adc	0.017346792
128	0x3e3144fd	0.17311473
129	0xbd00c49e	-0.03143751
130	0xbd281371	-0.041034166
131	0x3e6bad5d	0.23015352
132	0x3e1e0b8f	0.15434097
133	0xbe542f78	-0.20721233
134	0xbe4371cc	-0.19086379
135	0xbd2f4104	-0.042786613
136	0xbcc15716	-0.023601096
137	0xbc9dc86e	-0.019260611
138	0xbe166216	-0.14685854
139	0xbe2b7bf6	-0.16746506
140	0xbe10b9fd	-0.14133449
141	0x3db84f7a	0.08999534
142	0x3ca3dc15	0.020002404
143	0xbdfa11dc	-0.12210438
144	0x3e0c63ee	0.13709995
145	0x3d8673b0	0.065650344
146	0x3d5ed78a	0.054404773
147	0xbe91dd23	-0.28489026
148	0xbe232009	-0.15930189
149	0x3e822736	0.2542054
150	0x3dd25959	0.10270948
151	0x3c8f3cc9	0.01748504
152	0x3bdccdca	0.006738399
153	0xbec3b69d	-0.3822526
154	0x3d48e81c	0.04904948
155	0x3df8e169	0.121523686
156	0xbddd9b28	-0.10820609
157	0xbea3c5ba	-0.3198679
158	0x3de3cfdc	0.111236304
159	0xbd9a3e83	-0.075314544
160	0x3dfd0461	0.12354351
161	0xbe0ad5f9	-0.13558187
162	0x3e84360b	0.25822482
163	0xbcc40efb	-0.023932924
164	0x3e381038	0.17974937
165	0x3e86b14d	0.26307145
166	0x3defb3f5	0.11704246
167	0x3defe4bf	0.11713552
168	0x3e28fb78	0.16502178
169	0x3d2ad32a	0.041705288
170	0xbdef5704	-0.11686519
171	0x3e4e4c01	0.2014618
172	0xbdda7cb2	-0.10668315
173	0xbe693bd9	-0.22776736
174	0xbd8f47e2	-0.069961324
175	0x3e15a1da	0.14612523
176	0x3e5aa37e	0.2135143
177	0x3d4fd94d	0.050744344
178	0x3ddb5858	0.107102096
179	0x3d4272bb	0.047472697
180	0x3e67f6b9	0.22652711
181	0x3d8863d7	0.06659668
182	0x3eb42136	0.35181588
183	0xbe1cecd0	-0.15324712
184	0xbd227909	-0.03966621
185	0xbc667fda	-0.014068568
186	0x3d834275	0.0640916
187	0xbde1943e	-0.11014603
188	0x3cb3d733	0.0219532
189	0xbeb003af	-0.3437781
190	0xbb97a05a	-0.0046272697
191	0x3e4910f3	0.19635372
192	0x3e980886	0.29694003
193	0xbd81a0fc	-0.063295335
194	0x3ed08992	0.40729958
195	0x3adb07a7	0.0016710655
196	0xbdda2473	-0.106514834
197	0xbe8ac1e7	-0.2710106
198	0xbdb3e67b	-0.08784195
199	0xbea10cc3	-0.3145505
200	0x3ba0250f	0.00488723
201	0x3c1c121d	0.009525803
202	0xbd06cf8a	-0.03291277
203	0x3ded0edb	0.11575099
204	0x3ea9c2df	0.33156487
205	0x3e6a465e	0.22878405
206	0x3e03e36e	0.12879726
207	0xbe828c42	-0.25497633
208	0xbe5a97c1	-0.21346952
209	0x3e40281e	0.18765303
210	0xbdcc3c1b	-0.09972402
211	0x3df17e68	0.11791688
212	0x3dd47467	0.103737645
213	0xbe1a96a4	-0.15096527
214	0x3ee993a8	0.45620465
215	0xbe803960	-0.25043774
216	0xbe8fa19b	-0.28052983
217	0xbd299ce4	-0.04140939
218	0x3ebaa55c	0.36454284
219	0xbdd8d666	-0.10587768
220	0x3badd137	0.0053044814
221	0xbe473fac	-0.19457883
222	0x3b1864c0	0.002325341
223	0xbd1ee03c	-0.038788065
224	0xbe3c7e65	-0.1840759
225	0x3d116b9b	0.03550301
226	0xbccfb7a8	-0.025356129
227	0x3ce0065b	0.02734678
228	0xbe5d73fa	-0.21626273
229	0xbd0e5cf3	-0.034756612
230	0xbe84c434	-0.2593094
231	0x3e4cc757	0.19997917
232	0xbc919bb6	-0.017774444
233	0x3e50e834	0.20401078
234	0xbe8a734a	-0.27041084
235	0x3d92079b	0.07130357
236	0x3e455f17	0.19274555
237	0x3d436783	0.04770614
238	0x3d22d889	0.039757285
239	0xbabfa30e	-0.0014620738
240	0x3ec7169b	0.38884434
241	0x3d8db7d1	0.06919826
242	0xbe25b6da	-0.16183034
243	0x3d887728	0.06663352
244	0x3dbed706	0.09318356
245	0x3d951b11	0.07280553
246	0xbd325f61	-0.04354799
247	0x3dc98bd5	0.09841124
248	0xbddfc6d2	-0.10926594
249	0x3ea994cb	0.33121333
250	0x3e2fcf0d	0.17168827
251	0x3dec29aa	0.11531384
252	0x3da27b93	0.07933726
253	0xbe5afb3a	-0.21384898
254	0xbd963890	-0.07335007
255	0x3c46b3dc	0.012127843

fc3.bias f4 [4]
0	0xbc825854	-0.015911259
1	0x3dfc9b99	0.123343654
2	0x3cb6d912	0.022320304
3	0x3cfa59bd	0.030560369

bn1.weight f4 [128]
0	0x3f1fc59d	0.6241091
1	0x3f4158d1	0.7552615
2	0x3f52968d	0.8226097
3	0x3f5de6c8	0.8668027
4	0x3fa2d6d8	1.2721815
5	0x3ee1fa84	0.4413644
6	0x3f72c5d7	0.9483313
7	0x3e877f18	0.26464152
8	0x3f962042	1.1728594
9	0x3f258eca	0.64671004
10	0x3f48961b	0.7835404
11	0x3ea5235c	0.3225354
12	0x3f7cee45	0.9880107
13	0x3f5a4153	0.85255927
14	0x3f285892	0.6576015
15	0x3f52627b	0.8218152
16	0x3f4da50b	0.8032996
17	0x3f792fa5	0.97338325
18	0x3f1f014a	0.6211134
19	0x3f4d0ac2	0.8009454
20	0x3f4197ab	0.7562205
21	0x3f7aa380	0.9790573
22	0x3efee29c	0.49782264
23	0x3f848c71	1.0355359
24	0x3f613435	0.87970287
25	0x3f064760	0.5245266
26	0x3f8a2c62	1.0794795
27	0x3f4daf84	0.8034594
28	0x3f27fef3	0.65623397
29	0x3f943aea	1.1580479
30	0x3f0b39cf	0.54385084
31	0x3f15be6f	0.58493704
32	0x3f0a804d	0.5410202
33	0x3f2c1516	0.67219675
34	0x3f0470f1	0.51734835
35	0x3ec80314	0.39064848
36	0x3f7a794b	0.9784133
37	0x3f69b462	0.9129087
38	0x3f751bc3	0.95745486
39	0x3f4a199d	0.7894533
40	0x3f3e28f6	0.7428125
41	0x3ed61221	0.41810706
42	0x3f470840	0.77746964
43	0x3f2f439b	0.6846253
44	0x3f319a6e	0.69376266
45	0x3f6e1b6e	0.93010604
46	0x3f69c8ee	0.9132222
47	0x3f1ab7a1	0.60436445
48	0x3f05c40b	0.5225226
49	0x3f08db90	0.53460026
50	0x3f038302	0.5137178
51	0x3f6a6110	0.91554356
52	0x3f05fadc	0.52335906
53	0x3f8ad35a	1.0845749
54	0x3f3e1b72	0.7426063
55	0x3f0fb14f	0.56129926
56	0x3efce6b8	0.49394774
57	0x3f264b21	0.6495839
58	0x3f486fe5	0.7829574
59	0x3f0b2f2d	0.5436886
60	0x3f29db18	0.66349936
61	0x3ef96456	0.48709363
62	0x3eead4f0	0.45865583
63	0x3f1bf906	0.60926855
64	0x3f83aae8	1.0286531
65	0x3f6a11f5	0.9143365
66	0x3f3d62c1	0.7397881
67	0x3f51dd72	0.81978524
68	0x3f64d598	0.8938842
69	0x3f3400da	0.703138
70	0x3f3996dc	0.7249582
71	0x3f8f5ed5	1.1200815
72	0x3f1348a5	0.5753272
73	0x3f04caff	0.5187225
74	0x3f3f07d7	0.7462134
75	0x3f3407ca	0.70324385
76	0x3f84ab93	1.036486
77	0x3f9504d6	1.1642101
78	0x3f5af089	0.8552328
79	0x3f1a8911	0.60365397
80	0x3f874569	1.0568057
81	0x3f5e6fc7	0.8688931
82	0x3f5bb0f6	0.85816896
83	0x3f8461ce	1.0342348
84	0x3eb56244	0.35426533
85	0x3f026da6	0.5094856
86	0x3f99ea4e	1.2024629
87	0x3f8179b3	1.0115265
88	0x3f54275d	0.82872564
89	0x3f1184b6	0.56843126
90	0x3ef4d776	0.47820634
91	0x3f34b0cc	0.7058227
92	0x3f24497b	0.6417462
93	0x3f843c10	1.033083
94	0x3f0e4512	0.5557414
95	0x3f579544	0.84212136
96	0x3f0d6516	0.5523237
97	0x3f47dcc3	0.7807123
98	0x3f4ddfdb	0.804197
99	0x3f9d69ba	1.229789
100	0x3f4b7de3	0.7948896
101	0x3f15b1f2	0.5847465
102	0x3f87634d	1.0577179
103	0x3ee7ead6	0.45296353
104	0x3f5b3988	0.8563466
105	0x3f249f14	0.64305234
106	0x3f02bb9b	0.51067513
107	0x3f4d5bed	0.8021839
108	0x3f3d5657	0.7395987
109	0x3f6302d3	0.88676184
110	0x3f15e873	0.58557814
111	0x3f422022	0.7583028
112	0x3f3011de	0.68777263
113	0x3f48d5da	0.7845131
114	0x3f8080d4	1.0039315
115	0x3f24ec85	0.644234
116	0x3f05b336	0.5222658
117	0x3f0e6e29	0.5563684
118	0x3f888394	1.0665154
119	0x3f279948	0.65468264
120	0x3f349833	0.7054474
121	0x3f69a603	0.9126894
122	0x3f71caae	0.9444989
123	0x3f82ba6e	1.0213144
124	0x3f3e07ba	0.7423054
125	0x3f18aaaf	0.5963544
126	0x3f47fb9f	0.7811832
127	0x3f99c062	1.2011836

bn1.bias f4 [128]
0	0x3da946bc	0.08265445
1	0xbdac1b14	-0.08403602
2	0xbd0a367b	-0.033743363
3	0x3e64f0c6	0.22357473
4	0x3e87e67d	0.26543036
5	0xbc9e7941	-0.019344928
6	0xbd9a2e8a	-0.07528408
7	0xbd348bf3	-0.04407878
8	0x3e09b689	0.13448538
9	0x3d9482e8	0.07251531
10	0xbe9b76d1	-0.30364087
11	0x3ea94eb2	0.33067852
12	0xbe8c9d48	-0.27463746
13	0x3dfd7a44	0.12376836
14	0x3de289b8	0.11061424
15	0x3de3365e	0.11094354
16	0xbdb9665a	-0.09052725
17	0x3f10b0a7	0.5651955
18	0xbe68aab9	-0.22721376
19	0xbda9ce94	-0.08291355
20	0x3c0a1177	0.0084270155
21	0x3dcdf15c	0.10055801
22	0xbd80ed14	-0.06295219
23	0x3cc1cf5e	0.02365845
24	0xbcc8b9ed	-0.024502719
25	0x3c219d90	0.009864226
26	0x3dde62d6	0.10858695
27	0xbe4bf89f	-0.1991906
28	0xbe03205e	-0.12805316
29	0x3de3a882	0.11116125
30	0x3d5f462a	0.054510273
31	0xbc629090	-0.013828412
32	0xbc1c27e5	-0.009530996
33	0x3e548fc3	0.20757966
34	0x3e3d9c1b	0.18516581
35	0xbab584e5	-0.001384881
36	0xbe720906	-0.23636255
37	0x3e036d3f	0.12834643
38	0xbd20a917	-0.039223757
39	0xbc9ea942	-0.019367818
40	0x3e42168b	0.18953912
41	0xbea171b3	-0.31532058
42	0x3c48215c	0.012214985
43	0x3d6cd52f	0.057820495
44	0x3eb8e76e	0.36114067
45	0x3e1dd3ea	0.1541287
46	0x3e87854d	0.26468888
47	0xbe24d83d	-0.16098113
48	0x3d6d91e0	0.058000445
49	0x3c2fd8a9	0.010732808
50	0xbd3f338f	-0.04668003
51	0xbdfaca46	-0.12245612
52	0x3e252751	0.1612828
53	0x3ec76d60	0.38950634
54	0x3d94c5ed	0.07264314
55	0xbd42913a	-0.04750178
56	0xbd512ff8	-0.051071137
57	0xbd733f64	-0.059386626
58	0x3d9a6d14	0.07540336
59	0xbe4ceafd	-0.20011516
60	0xbe0e2042	-0.13879493
61	0x3e18cd41	0.14922048
62	0x3d872da5	0.06600503
63	0xbe53eb60	-0.20695257
64	0x3eb3ffbf	0.35156056
65	0x3e382233	0.17981796
66	0x3d919135	0.07107774
67	0x3e26aa43	0.16275887
68	0xbd418087	-0.047241714
69	0xbcd7b8d8	-0.026333258
70	0x3d916936	0.071001455
71	0xbd8d8830	-0.06910741
72	0xbcfd4a59	-0.03091924
73	0x3d4589eb	0.048227232
74	0xbdbebb25	-0.09313039
75	0xbc88a8ac	-0.016681992
76	0x3dfbcdd2	0.122951165
77	0xbd95ffc6	-0.073241755
78	0xba397768	-0.0007074983
79	0x3dd161e2	0.10223748
80	0x3d1370db	0.0359963
81	0x3eb5726f	0.35438868
82	0xbe02cd58	-0.12773645
83	0x3dcd1e54	0.1001555
84	0x3e8bae47	0.272814
85	0x3d5c9191	0.05384976
86	0xbec92c06	-0.392914
87	0xbd0fdcf5	-0.03512283
88	0x3e1c146b	0.15242164
89	0x3d7827eb	0.060584944
90	0xbd82aeba	-0.06380983
91	0x3e878310	0.2646718
92	0x3e6b95c0	0.23006344
93	0xbbbe9943	-0.00581661
94	0x3e7a87b8	0.24465835
95	0x3e146198	0.14490354
96	0x3edefd35	0.43552557
97	0x3ca778e9	0.020443397
98	0xbe47ed68	-0.19524157
99	0xbe78ab78	-0.2428416
100	0x3e4fccfe	0.20293042
101	0xbaf7d398	-0.0018907664
102	0xbdb40142	-0.087893024
103	0xbd7e6322	-0.06210626
104	0xbe6d53e4	-0.23176533
105	0x3e2290f0	0.15875602
106	0x3cd3c256	0.025849503
107	0xbe3cadf8	-0.18425739
108	0xbce2b219	-0.027672814
109	0x3b81ca23	0.003960864
110	0xbbfd4442	-0.007729084
111	0xbe046d17	-0.1293224
112	0x3e2811ff	0.16413115
113	0x3d629f88	0.055327922
114	0x3d0c8878	0.034309834
115	0x3e6850fa	0.2268714
116	0xbe9407fa	-0.28912336
117	0x3d3e1742	0.0464089
118	0x3e7be052	0.2459729
119	0x3d7f89d0	0.062387288
120	0xbc557f57	-0.0130308485
121	0x3dbe64c3	0.092965625
122	0xbe140dc3	-0.14458375
123	0x3c3c5de2	0.011496993
124	0x3e28f3de	0.16499278
125	0xbd309302	-0.043108948
126	0x3deffce8	0.1171816
127	0x3ca304b9	0.019899713

bn1.running_mean f4 [128]
0	0x3f271d05	0.65278655
1	0x3e25f52c	0.16206807
2	0x3e6ae841	0.2294016
3	0x3f570674	0.8399422
4	0x3e07f827	0.13278256
5	0x3f8f326a	1.118726
6	0x3f000580	0.5000839
7	0x3cca9e44	0.02473367
8	0x3e4568fc	0.1927833
9	0x3ea8d360	0.32973766
10	0x3f8dc8f5	1.1076952
11	0x00000008	1.1e-44
12	0x3e13e96f	0.14444517
13	0x3dcecc13	0.10097518
14	0x3e295f24	0.165402
15	0x3e0c7ea2	0.13720182
16	0x3da1be69	0.07897646
17	0x3f0c2380	0.5474167
18	0x3c97c70d	0.018527532
19	0x3d11c912	0.035592146
20	0x3d89763d	0.06712005
21	0x3ea14987	0.3150141
22	0x3dc46cb8	0.09591049
23	0x3e587645	0.21138866
24	0x3e9213e7	0.2853081
25	0x3ea3f9ae	0.32026428
26	0x3ea4a8cf	0.3216004
27	0x3daeb30c	0.08530244
28	0x3d04bf7c	0.032409176
29	0x3e29ce9f	0.16582726
30	0x3e4e6618	0.20156133
31	0x3f31c693	0.69443625
32	0x3e0d1c76	0.13780388
33	0x3e9e62ff	0.30934903
34	0x3f4836d3	0.78208655
35	0x3e16d305	0.14728935
36	0x3f12bffe	0.57324207
37	0x3ee847e8	0.4536736
38	0x3eeceeaf	0.4627585
39	0x3f33a062	0.701666
40	0x3eb2cfeb	0.34924254
41	0x3f345aad	0.7045086
42	0x3e4ec62a	0.20192781
43	0x3db82c56	0.089928314
44	0x3f1cedd3	0.6130039
45	0x3e77e4b2	0.24208334
46	0x3f38d731	0.72203356
47	0x3d439e7d	0.047758568
48	0x3d6f7ba3	0.05846752
49	0x3d9c5550	0.076334596
50	0x3f7e98f7	0.99452156
51	0x3cb9f247	0.022698535
52	0x3edfdb16	0.43721837
53	0x3ecf22c7	0.4045622
54	0x3d3dd4be	0.046345465
55	0x3e8336c2	0.25627714
56	0x3d30d425	0.043171067
57	0x3e5cfa6a	0.215799
58	0x3f21f615	0.63266116
59	0x3f2a198a	0.6644522
60	0x3f4e9ffa	0.80712855
61	0x3d4b0e28	0.049574047
62	0x3ea35b49	0.31905583
63	0x3e91f2df	0.28505608
64	0x3d93777a	0.07200523
65	0x3e262459	0.16224803
66	0x3d4dc255	0.050234158
67	0x3eab2549	0.33426884
68	0x3e80dba1	0.25167564
69	0x3ed16a15	0.40901247
70	0x3e000b0e	0.12504217
71	0x3d1fea73	0.039041948
72	0x3e7976cc	0.24361724
73	0x3dc9d196	0.098544285
74	0x3dfc49d4	0.12318769
75	0x3d1d0e7e	0.0383439
76	0x3e2e66b7	0.1703137
77	0x3ee338a0	0.4437914
78	0x3e9bc8e7	0.30426714
79	0x3eb35af3	0.35030326
80	0x3db38701	0.08765984
81	0x3e00e985	0.1258908
82	0x3e7a033d	0.24415298
83	0x3d991baa	0.074759796
84	0x3f554f62	0.83324254
85	0x3eb2268f	0.34795043
86	0x3d9c271d	0.07624648
87	0x3e4d85b1	0.2007053
88	0x3e707a3a	0.23484126
89	0x3e7d8496	0.24757609
90	0x3dcca6fa	0.09992786
91	0x3d8fb44e	0.07016812
92	0x3f174210	0.5908518
93	0x3f3180fc	0.6933744
94	0x3f417754	0.75572705
95	0x3caf2705	0.02138091
96	0x3f406bbf	0.7516441
97	0x3da01f5b	0.078184806
98	0x3db545b3	0.08851185
99	0x3e1d765b	0.1537718
100	0x3f648cca	0.8927733
101	0x3ed33890	0.4125409
102	0x3f2342da	0.6377388
103	0x3f039d77	0.5141215
104	0x3e9665fc	0.29374683
105	0x3e233ff8	0.15942371
106	0x3f1396d4	0.5765202
107	0x3e65e5f3	0.22451
108	0x3f2a8c7b	0.66620606
109	0x3d55b257	0.05217203
110	0x3e0ad444	0.13557535
111	0x3fa32c42	1.2747881
112	0x3e7ad084	0.24493605
113	0x3ea9aaeb	0.33138213
114	0x3e77152e	0.24129173
115	0x3f09ef41	0.538807
116	0x3e8182b9	0.25295046
117	0x3cc9f256	0.024651688
118	0x3f502b33	0.81315917
119	0x3ea27f05	0.31737533
120	0x3e35ac7d	0.1774158
121	0x3ec3a8f0	0.38214827
122	0x3d0e6e0f	0.03477293
123	0x3e205699	0.15658034
124	0x3efe0c94	0.4961897
125	0x3dca77f0	0.098861575
126	0x3f8fd78f	1.1237658
127	0x3e46ac93	0.1940177

bn1.running_var f4 [128]
0	0x3f181060	0.59399986
1	0x3def5020	0.116852045
2	0x3e157824	0.14596611
3	0x3e69fef7	0.22851168
4	0x3da6a905	0.08137707
5	0x3fbd44b8	1.4786596
6	0x3f121ced	0.5707539
7	0x3ca1bd27	0.019743515
8	0x3d8e80f8	0.069581926
9	0x3ea48ab9	0.32137087
10	0x3f9d39df	1.2283286
11	0x00000004	6e-45
12	0x3dd22d8f	0.10262596
13	0x3d763414	0.06010826
14	0x3de7527d	0.1129503
15	0x3dbc9eab	0.09209951
16	0x3d0c93e2	0.03432072
17	0x3f0864a2	0.53278553
18	0x3bf79177	0.0075551826
19	0x3c968e05	0.018378267
20	0x3c9511b9	0.018196927
21	0x3e9345b1	0.28764108
22	0x3d2e2f9a	0.042525865
23	0x3e0bff3f	0.13671587
24	0x3e14d492	0.14534214
25	0x3e88d53e	0.2672519
26	0x3e53ced7	0.20684372
27	0x3d93413f	0.07190179
28	0x3c9851bd	0.018593663
29	0x3d8359ee	0.06413637
30	0x3ddc4bc2	0.10756637
31	0x3f45543e	0.7708167
32	0x3dfcaeaa	0.12338002
33	0x3ebfa618	0.37431407
34	0x3f8cca84	1.0999303
35	0x3e199138	0.14996803
36	0x3ebdd445	0.3707601
37	0x3ea499b8	0.32148528
38	0x3e7a86b0	0.24465442
39	0x3f481c62	0.7816831
40	0x3e14f271	0.14545609
41	0x3f6a54d7	0.91535705
42	0x3e26ee86	0.16301927
43	0x3d2b0bd4	0.041759327
44	0x3ee5c82f	0.4487929
45	0x3ed1ab67	0.40951082
46	0x3f5b91cd	0.8576935
47	0x3c86df11	0.016463788
48	0x3c9cea2a	0.019154627
49	0x3d855e9f	0.06512188
50	0x3fc1e960	1.5149345
51	0x3c10714a	0.008816073
52	0x3e81eff0	0.2537837
53	0x3f0068dc	0.5016
54	0x3c8fe986	0.017567407
55	0x3e49f171	0.19721009
56	0x3c69a13e	0.014259635
57	0x3e0828f8	0.13296878
58	0x3ef0f4e1	0.47061828
59	0x3f3c55af	0.7356824
60	0x3f537079	0.82593495
61	0x3c98128e	0.018563535
62	0x3e882d66	0.26597136
63	0x3e2200bd	0.15820594
64	0x3d1462c2	0.036226995
65	0x3db24ebf	0.08706426
66	0x3c935711	0.017985852
67	0x3ea0d0e6	0.31409377
68	0x3e37c555	0.1794637
69	0x3d8ed432	0.06974067
70	0x3d84152d	0.064493515
71	0x3c45c859	0.012071692
72	0x3dc40293	0.095708035
73	0x3d67dcd9	0.0566071
74	0x3df5566f	0.119793765
75	0x3c884f79	0.016639458
76	0x3e116398	0.14198148
77	0x3e480458	0.19532907
78	0x3e51f791	0.20504595
79	0x3e35446c	0.17701882
80	0x3d2b95fa	0.041891076
81	0x3d68b47b	0.056812745
82	0x3e168f75	0.14703162
83	0x3d1d2a54	0.038370445
84	0x3f8aafe3	1.0834926
85	0x3e838775	0.25689283
86	0x3d203207	0.03911021
87	0x3de4c892	0.11171068
88	0x3e19cc1c	0.15019268
89	0x3e723be6	0.23655662
90	0x3d8433b3	0.06455173
91	0x3d10ba03	0.035333645
92	0x3e3e56d6	0.18587813
93	0x3eae08a2	0.3399096
94	0x3eb9780b	0.36224398
95	0x3c0623c0	0.008187234
96	0x3ebfce31	0.37462
97	0x3d49f07f	0.04930162
98	0x3d3ca784	0.046058193
99	0x3d93d167	0.07217675
100	0x3e3813f8	0.17976367
101	0x3eb50deb	0.3536218
102	0x3e804bd9	0.25057867
103	0x3eac0811	0.33599904
104	0x3e578ff9	0.21051015
105	0x3d989caa	0.07451756
106	0x3f02926b	0.51004666
107	0x3e3e0b21	0.18558933
108	0x3f2747aa	0.65343726
109	0x3c9bcb10	0.019017726
110	0x3d7eb3b8	0.062183112
111	0x3f0a8f72	0.5412513
112	0x3e42f49f	0.19038628
113	0x3ebc3376	0.36758012
114	0x3dddbd5a	0.108271316
115	0x3f0cffe9	0.5507799
116	0x3e703042	0.23455909
117	0x3c92053b	0.01782476
118	0x3e62295c	0.2208609
119	0x3e9d7537	0.3075349
120	0x3e29c1ee	0.16577885
121	0x3e488cc9	0.19584955
122	0x3c458785	0.012056236
123	0x3d864343	0.06555798
124	0x3ee286d0	0.4424348
125	0x3d752203	0.05984689
126	0x3f305dba	0.68893015
127	0x3de5f15e	0.11227678

bn2.weight f4 [128]
0	0x3f5373b0	0.825984
1	0x3f17cd1b	0.5929734
2	0x3ec3bf1e	0.38231748
3	0x3e20dc2c	0.15708989
4	0x3d028400	0.031864166
5	0x3e07d5d0	0.13265157
6	0x3f7b7809	0.98230034
7	0x3f114e38	0.5675998
8	0x3f4000aa	0.75001013
9	0x3f2e39bf	0.68056864
10	0x3f09b0e8	0.5378556
11	0x3f513649	0.8172346
12	0x3f3f7d39	0.7480045
13	0x3d24b4e0	0.04021156
14	0x3f3930fb	0.72340363
15	0x3ebb7602	0.3661347
16	0x3e91f7a2	0.2850924
17	0x3f110e97	0.5666289
18	0x3f755ee4	0.95847917
19	0x3e3e5350	0.18586469
20	0x3ebc9c48	0.36837983
21	0x3f6d02a3	0.9258215
22	0x3deb6180	0.11493206
23	0x3f504608	0.8135686
24	0x3f017998	0.5057616
25	0x3e6f5da8	0.23375571
26	0x3f49fca5	0.7890113
27	0x3f1cab29	0.6119867
28	0x3ee60186	0.44923037
29	0x3f73d35e	0.95244396
30	0x3e443218	0.19159734
31	0x3db6a3a8	0.08917934
32	0x3ec99182	0.39368826
33	0x3ecdf742	0.40227705
34	0x3f0b5cdb	0.5443856
35	0x3f4963d3	0.78667945
36	0x3f7df8c5	0.9920772
37	0x3e6de380	0.23231316
38	0x3f27c0b2	0.65528405
39	0x3f6b6266	0.9194702
40	0x3f054039	0.5205112
41	0x3e4b6190	0.19861436
42	0x3f4a9718	0.791368
43	0x3ea2402c	0.31689584
44	0x3f1497b2	0.5804397
45	0x3f0f8373	0.5605995
46	0x3e8b7a20	0.2724161
47	0x3e96191c	0.29316032
48	0x3f385a53	0.72012824
49	0x3e889948	0.26679444
50	0x3f66a472	0.90094674
51	0x3f19bb69	0.6005159
52	0x3eacddb0	0.33762884
53	0x3ee5d0b6	0.44885796
54	0x3d963f70	0.073363185
55	0x3f5a4e14	0.8527539
56	0x3eabe6b8	0.33574462
57	0x3f7bbb7c	0.98332953
58	0x3f1e31a4	0.61794496
59	0x3eee03b0	0.46487188
60	0x3ea881d2	0.32911545
61	0x3f51d5a0	0.8196659
62	0x3e7c16c0	0.24618053
63	0x3f2dba0a	0.67862
64	0x3e827ad8	0.25484347
65	0x3eff4cca	0.49863273
66	0x3e762a80	0.2403965
67	0x3f0b037d	0.543022
68	0x3f354ffc	0.7082517
69	0x3ec2ab0a	0.38021117
70	0x3ed63134	0.41834414
71	0x3f43db30	0.7650633
72	0x3e6a4c50	0.22880673
73	0x3dd7dd38	0.10540241
74	0x3ea2e814	0.31817687
75	0x3f0b42b0	0.5439863
76	0x3f2e8d92	0.6818477
77	0x3f68f449	0.9099775
78	0x3d440b20	0.047862172
79	0x3da5bed0	0.08093035
80	0x3f205b07	0.62638897
81	0x3d8658c0	0.065598965
82	0x3f29d30b	0.6633765
83	0x3ed5fd4e	0.4179482
84	0x3f2e8fd6	0.68188226
85	0x3f5242a4	0.82132936
86	0x3e75e570	0.24013305
87	0x3f04cf70	0.51879025
88	0x3f47283a	0.77795756
89	0x3e65d87c	0.22445863
90	0x3f649389	0.8928762
91	0x3f38d026	0.7219261
92	0x3f4892f1	0.78349215
93	0x3ede7c02	0.43453985
94	0x3eebdaf4	0.46065485
95	0x3f6b056a	0.91805136
96	0x3f25b278	0.64725447
97	0x3e231650	0.1592648
98	0x3dd50b18	0.104025066
99	0x3e9e9a30	0.3097701
100	0x3f35901d	0.70923024
101	0x3d10dce0	0.035366893
102	0x3f6816fb	0.90660065
103	0x3f1ea2d5	0.6196721
104	0x3dc33e70	0.095333934
105	0x3c7e8980	0.015535712
106	0x3f6568c2	0.8961297
107	0x3ea1485e	0.31500524
108	0x3e9bbc12	0.30416924
109	0x3e8c55b6	0.27409142
110	0x3dc3f760	0.095686674
111	0x3f2caa5b	0.6744744
112	0x3f09d873	0.538459
113	0x3eb92be8	0.3616631
114	0x3f28dc9b	0.6596162
115	0x3e9ba80c	0.30401647
116	0x3f2d099e	0.675928
117	0x3db18380	0.0866766
118	0x3e38ea2c	0.1805808
119	0x3e62d0e0	0.22149992
120	0x3f3eb634	0.7449677
121	0x3f50cf48	0.81566286
122	0x3e798048	0.24365342
123	0x3e698528	0.22804701
124	0x3f5fda1b	0.8744218
125	0x3ec5097a	0.38483793
126	0x3de73560	0.11289477
127	0x3f55ccd5	0.83515674

bn2.bias f4 [128]
0	0x00000000	0.0
1	0x00000000	0.0
2	0x00000000	0.0
3	0x00000000	0.0
4	0x00000000	0.0
5	0x00000000	0.0
6	0x00000000	0.0
7	0x00000000	0.0
8	0x00000000	0.0
9	0x00000000	0.0
10	0x00000000	0.0
11	0x00000000	0.0
12	0x00000000	0.0
13	0x00000000	0.0
14	0x00000000	0.0
15	0x00000000	0.0
16	0x00000000	0.0
17	0x00000000	0.0
18	0x00000000	0.0
19	0x00000000	0.0
20	0x00000000	0.0
21	0x00000000	0.0
22	0x00000000	0.0
23	0x00000000	0.0
24	0x00000000	0.0
25	0x00000000	0.0
26	0x00000000	0.0
27	0x00000000	0.0
28	0x00000000	0.0
29	0x00000000	0.0
30	0x00000000	0.0
31	0x00000000	0.0
32	0x00000000	0.0
33	0x00000000	0.0
34	0x00000000	0.0
35	0x00000000	0.0
36	0x00000000	0.0
37	0x00000000	0.0
38	0x00000000	0.0
39	0x00000000	0.0
40	0x00000000	0.0
41	0x00000000	0.0
42	0x00000000	0.0
43	0x00000000	0.0
44	0x00000000	0.0
45	0x00000000	0.0
46	0x00000000	0.0
47	0x00000000	0.0
48	0x00000000	0.0
49	0x00000000	0.0
50	0x00000000	0.0
51	0x00000000	0.0
52	0x00000000	0.0
53	0x00000000	0.0
54	0x00000000	0.0
55	0x00000000	0.0
56	0x00000000	0.0
57	0x00000000	0.0
58	0x00000000	0.0
59	0x00000000	0.0
60	0x00000000	0.0
61	0x00000000	0.0
62	0x00000000	0.0
63	0x00000000	0.0
64	0x00000000	0.0
65	0x00000000	0.0
66	0x00000000	0.0
67	0x00000000	0.0
68	0x00000000	0.0
69	0x00000000	0.0
70	0x00000000	0.0
71	0x00000000	0.0
72	0x00000000	0.0
73	0x00000000	0.0
74	0x00000000	0.0
75	0x00000000	0.0
76	0x00000000	0.0
77	0x00000000	0.0
78	0x00000000	0.0
79	0x00000000	0.0
80	0x00000000	0.0
81	0x00000000	0.0
82	0x00000000	0.0
83	0x00000000	0.0
84	0x00000000	0.0
85	0x00000000	0.0
86	0x00000000	0.0
87	0x00000000	0.0
88	0x00000000	0.0
89	0x00000000	0.0
90	0x00000000	0.0
91	0x00000000	0.0
92	0x00000000	0.0
93	0x00000000	0.0
94	0x00000000	0.0
95	0x00000000	0.0
96	0x00000000	0.0
97	0x00000000	0.0
98	0x00000000	0.0
99	0x00000000	0.0
100	0x00000000	0.0
101	0x00000000	0.0
102	0x00000000	0.0
103	0x00000000	0.0
104	0x00000000	0.0
105	0x00000000	0.0
106	0x00000000	0.0
107	0x00000000	0.0
108	0x00000000	0.0
109	0x00000000	0.0
110	0x00000000	0.0
111	0x00000000	0.0
112	0x00000000	0.0
113	0x00000000	0.0
114	0x00000000	0.0
115	0x00000000	0.0
116	0x00000000	0.0
117	0x00000000	0.0
118	0x00000000	0.0
119	0x00000000	0.0
120	0x00000000	0.0
121	0x00000000	0.0
122	0x00000000	0.0
123	0x00000000	0.0
124	0x00000000	0.0
125	0x00000000	0.0
126	0x00000000	0.0
127	0x00000000	0.0

bn2.running_mean f4 [128]
0	0x00000000	0.0
1	0x00000000	0.0
2	0x00000000	0.0
3	0x00000000	0.0
4	0x00000000	0.0
5	0x00000000	0.0
6	0x00000000	0.0
7	0x00000000	0.0
8	0x00000000	0.0
9	0x00000000	0.0
10	0x00000000	0.0
11	0x00000000	0.0
12	0x00000000	0.0
13	0x00000000	0.0
14	0x00000000	0.0
15	0x00000000	0.0
16	0x00000000	0.0
17	0x00000000	0.0
18	0x00000000	0.0
19	0x00000000	0.0
20	0x00000000	0.0
21	0x00000000	0.0
22	0x00000000	0.0
23	0x00000000	0.0
24	0x00000000	0.0
25	0x00000000	0.0
26	0x00000000	0.0
27	0x00000000	0.0
28	0x00000000	0.0
29	0x00000000	0.0
30	0x00000000	0.0
31	0x00000000	0.0
32	0x00000000	0.0
33	0x00000000	0.0
34	0x00000000	0.0
35	0x00000000	0.0
36	0x00000000	0.0
37	0x00000000	0.0
38	0x00000000	0.0
39	0x00000000	0.0
40	0x00000000	0.0
41	0x00000000	0.0
42	0x00000000	0.0
43	0x00000000	0.0
44	0x00000000	0.0
45	0x00000000	0.0
46	0x00000000	0.0
47	0x00000000	0.0
48	0x00000000	0.0
49	0x00000000	0.0
50	0x00000000	0.0
51	0x00000000	0.0
52	0x00000000	0.0
53	0x00000000	0.0
54	0x00000000	0.0
55	0x00000000	0.0
56	0x00000000	0.0
57	0x00000000	0.0
58	0x00000000	0.0
59	0x00000000	0.0
60	0x00000000	0.0
61	0x00000000	0.0
62	0x00000000	0.0
63	0x00000000	0.0
64	0x00000000	0.0
65	0x00000000	0.0
66	0x00000000	0.0
67	0x00000000	0.0
68	0x00000000	0.0
69	0x00000000	0.0
70	0x00000000	0.0
71	0x00000000	0.0
72	0x00000000	0.0
73	0x00000000	0.0
74	0x00000000	0.0
75	0x00000000	0.0
76	0x00000000	0.0
77	0x00000000	0.0
78	0x00000000	0.0
79	0x00000000	0.0
80	0x00000000	0.0
81	0x00000000	0.0
82	0x00000000	0.0
83	0x00000000	0.0
84	0x00000000	0.0
85	0x00000000	0.0
86	0x00000000	0.0
87	0x00000000	0.0
88	0x00000000	0.0
89	0x00000000	0.0
90	0x00000000	0.0
91	0x00000000	0.0
92	0x00000000	0.0
93	0x00000000	0.0
94	0x00000000	0.0
95	0x00000000	0.0
96	0x00000000	0.0
97	0x00000000	0.0
98	0x00000000	0.0
99	0x00000000	0.0
100	0x00000000	0.0
101	0x00000000	0.0
102	0x00000000	0.0
103	0x00000000	0.0
104	0x00000000	0.0
105	0x00000000	0.0
106	0x00000000	0.0
107	0x00000000	0.0
108	0x00000000	0.0
109	0x00000000	0.0
110	0x00000000	0.0
111	0x00000000	0.0
112	0x00000000	0.0
113	0x00000000	0.0
114	0x00000000	0.0
115	0x00000000	0.0
116	0x00000000	0.0
117	0x00000000	0.0
118	0x00000000	0.0
119	0x00000000	0.0
120	0x00000000	0.0
121	0x00000000	0.0
122	0x00000000	0.0
123	0x00000000	0.0
124	0x00000000	0.0
125	0x00000000	0.0
126	0x00000000	0.0
127	0x00000000	0.0

bn2.running_var f4 [128]
0	0x3f800000	1.0
1	0x3f800000	1.0
2	0x3f800000	1.0
3	0x3f800000	1.0
4	0x3f800000	1.0
5	0x3f800000	1.0
6	0x3f800000	1.0
7	0x3f800000	1.0
8	0x3f800000	1.0
9	0x3f800000	1.0
10	0x3f800000	1.0
11	0x3f800000	1.0
12	0x3f800000	1.0
13	0x3f800000	1.0
14	0x3f800000	1.0
15	0x3f800000	1.0
16	0x3f800000	1.0
17	0x3f800000	1.0
18	0x3f800000	1.0
19	0x3f800000	1.0
20	0x3f800000	1.0
21	0x3f800000	1.0
22	0x3f800000	1.0
23	0x3f800000	1.0
24	0x3f800000	1.0
25	0x3f800000	1.0
26	0x3f800000	1.0
27	0x3f800000	1.0
28	0x3f800000	1.0
29	0x3f800000	1.0
30	0x3f800000	1.0
31	0x3f800000	1.0
32	0x3f800000	1.0
33	0x3f800000	1.0
34	0x3f800000	1.0
35	0x3f800000	1.0
36	0x3f800000	1.0
37	0x3f800000	1.0
38	0x3f800000	1.0
39	0x3f800000	1.0
40	0x3f800000	1.0
41	0x3f800000	1.0
42	0x3f800000	1.0
43	0x3f800000	1.0
44	0x3f800000	1.0
45	0x3f800000	1.0
46	0x3f800000	1.0
47	0x3f800000	1.0
48	0x3f800000	1.0
49	0x3f800000	1.0
50	0x3f800000	1.0
51	0x3f800000	1.0
52	0x3f800000	1.0
53	0x3f800000	1.0
54	0x3f800000	1.0
55	0x3f800000	1.0
56	0x3f800000	1.0
57	0x3f800000	1.0
58	0x3f800000	1.0
59	0x3f800000	1.0
60	0x3f800000	1.0
61	0x3f800000	1.0
62	0x3f800000	1.0
63	0x3f800000	1.0
64	0x3f800000	1.0
65	0x3f800000	1.0
66	0x3f800000	1.0
67	0x3f800000	1.0
68	0x3f800000	1.0
69	0x3f800000	1.0
70	0x3f800000	1.0
71	0x3f800000	1.0
72	0x3f800000	1.0
73	0x3f800000	1.0
74	0x3f800000	1.0
75	0x3f800000	1.0
76	0x3f800000	1.0
77	0x3f800000	1.0
78	0x3f800000	1.0
79	0x3f800000	1.0
80	0x3f800000	1.0
81	0x3f800000	1.0
82	0x3f800000	1.0
83	0x3f800000	1.0
84	0x3f800000	1.0
85	0x3f800000	1.0
86	0x3f800000	1.0
87	0x3f800000	1.0
88	0x3f800000	1.0
89	0x3f800000	1.0
90	0x3f800000	1.0
91	0x3f800000	1.0
92	0x3f800000	1.0
93	0x3f800000	1.0
94	0x3f800000	1.0
95	0x3f800000	1.0
96	0x3f800000	1.0
97	0x3f800000	1.0
98	0x3f800000	1.0
99	0x3f800000	1.0
100	0x3f800000	1.0
101	0x3f800000	1.0
102	0x3f800000	1.0
103	0x3f800000	1.0
104	0x3f800000	1.0
105	0x3f800000	1.0
106	0x3f800000	1.0
107	0x3f800000	1.0
108	0x3f800000	1.0
109	0x3f800000	1.0
110	0x3f800000	1.0
111	0x3f800000	1.0
112	0x3f800000	1.0
113	0x3f800000	1.0
114	0x3f800000	1.0
115	0x3f800000	1.0
116	0x3f800000	1.0
117	0x3f800000	1.0
118	0x3f800000	1.0
119	0x3f800000	1.0
120	0x3f800000	1.0
121	0x3f800000	1.0
122	0x3f800000	1.0
123	0x3f800000	1.0
124	0x3f800000	1.0
125	0x3f800000	1.0
126	0x3f800000	1.0
127	0x3f800000	1.0
