checkpoint_critic.pth (torch_old, 92390 bytes, 13 tensors)

fcs1.weight f4 [128, 33]
0	0x3e0b4317	0.13599811
1	0xbe1df824	-0.1542669
2	0xbc19b7b7	-0.00938218
3	0x3c2e08b2	0.01062219
4	0xbd4fa0f6	-0.050690614
5	0x3d9b4d1b	0.07583066
6	0xbd483d21	-0.048886422
7	0xbc9b197a	-0.018933047
8	0x3d55bef5	0.052184064
9	0x3e1d5a52	0.15366486
10	0xbc9abf17	-0.018889947
11	0xbc21def0	-0.009879813
12	0x3d1dfaa9	0.038569126
13	0xbe48a68b	-0.19594781
14	0x3d7d0cad	0.061779667
15	0x3b5a7b4a	0.0033337646
16	0x3c1f5de0	0.009726971
17	0x3d121f25	0.035674233
18	0xbb0d7fc6	-0.0021591051
19	0x3d23e7c4	0.04001595
20	0xbcfd4803	-0.030918127
21	0xbca51795	-0.020152846
22	0xbb13cba1	-0.0022551792
23	0x3c95eac8	0.018300429
24	0x3c5f0a80	0.013613343
25	0x3d573099	0.05253658
26	0x3e476760	0.19473028
27	0x3d8c50f0	0.06851375
28	0x3cc8c6d2	0.024508867
29	0x3d52af1e	0.051436536
30	0xbe2dee9f	-0.16985558
31	0x3d3401e2	0.043947108
32	0x3e67702e	0.22601387
33	0xbdf99d84	-0.12188247
34	0x3cb2089e	0.021732625
35	0x3cd92a29	0.026509361
36	0x3e0d3f2c	0.1379363
37	0xbcd397b6	-0.025829177
38	0x3b109277	0.0022059956
39	0xbdf89c20	-0.121391535
40	0xbd0e115f	-0.034684535
41	0x3b6018c1	0.0034194442
42	0x3b8d73a4	0.004316764
43	0xbd1a7aad	-0.03771465
44	0x3bce662c	0.006298801
45	0xbd687602	-0.056753166
46	0x3e401947	0.18759643
47	0xbcf1f74e	-0.02953687
48	0xbe0626e9	-0.1310078
49	0x3c89bc42	0.016813401
50	0x3cbf5dd5	0.023360172
51	0xbddbd526	-0.10734014
52	0x3d15b7c4	0.036552206
53	0x3b1bdc36	0.002378238
54	0x3cf2cf21	0.029639782
55	0x3c8b0de8	0.016974404
56	0x3dd42995	0.10359494
57	0xbb4ab22b	-0.003092895
58	0xbcc0969b	-0.023509314
59	0xbe0cdd33	-0.13756256
60	0x3e00d1f0	0.12580085
61	0x3d330768	0.043708235
62	0xbbcd03e0	-0.0062565655
63	0xbdb4f146	-0.08835082
64	0x3d827e3d	0.06371734
65	0xbe8f6c55	-0.28012338
66	0x3e3051cc	0.17218703
67	0x3dd26dcd	0.10274849
68	0x3d947014	0.0724794
69	0x3c8b89b3	0.017033434
70	0x3c4779f8	0.012175076
71	0xbd867448	-0.06565148
72	0xbbfcec86	-0.0077186255
73	0x3c97eed5	0.018546501
74	0xbdff8675	-0.124768175
75	0x3dc6ab76	0.09700672
76	0x3d8b75f3	0.068096064
77	0x3db5abf2	0.088706866
78	0xba2acc7d	-0.00065154565
79	0x3c5e3219	0.013561749
80	0x3e27c000	0.16381836
81	0xbde97837	-0.11399882
82	0x3db23456	0.087013885
83	0xbdfbf626	-0.123028085
84	0x3cda1a1b	0.026623776
85	0xbb32d3cf	-0.0027286892
86	0xbcdedfa1	-0.027206244
87	0x3ca5c902	0.02023745
88	0x3d26ba1d	0.040704835
89	0x3d974dfe	0.07387923
90	0x3dd42472	0.10358514
91	0xbda2b7cb	-0.07945212
92	0xbde2046e	-0.11036001
93	0x3dcd0940	0.1001153
94	0xbdfa8e15	-0.12234131
95	0x3d90b89d	0.07066462
96	0xbce33ba4	-0.0277384
97	0x3c9e5180	0.019325972
98	0xbe18fa19	-0.14939155
99	0x3b9e8a6c	0.0048382785
100	0x3daf5263	0.08560636
101	0x3e1ba603	0.15200047
102	0xbd137c78	-0.036007375
103	0x3e01bb4e	0.12669107
104	0xbceaeeff	-0.028678415
105	0x3d42fb83	0.04760314
106	0xbbb1dde7	-0.005428064
107	0x3ded016f	0.11572539
108	0x3e60312d	0.21893759
109	0xbd4aa317	-0.04947194
110	0x3da979c2	0.082751766
111	0x3c8cd555	0.017191568
112	0xbe0000dc	-0.12500328
113	0x3d34b4ad	0.04411762
114	0xbd0ad80c	-0.033897445
115	0x3db5ea88	0.08882624
116	0x3d355b87	0.04427674
117	0xbd8d760a	-0.0690728
118	0xbd5de59d	-0.054174054
119	0xbc99d674	-0.018779017
120	0xbd5b1bad	-0.05349319
121	0xbc8db417	-0.017297788
122	0x3d108f25	0.035292763
123	0x3cbf8cb6	0.023382526
124	0x3e0005b6	0.12502179
125	0x3df8e8cc	0.121537775
126	0xb94d7172	-0.00019592585
127	0xbdbb6fa9	-0.09152157
128	0x3cb8f364	0.022576995
129	0x3d4b1673	0.049581956
130	0x3ca6d244	0.020363934
131	0xbe8df8f0	-0.27728987
132	0x3bfa9083	0.0076466217
133	0x3dd92b48	0.10603958
134	0x3e122d1f	0.14275025
135	0xbdab542d	-0.08365665
136	0xbd0634ee	-0.03276532
137	0xbc1b1b3f	-0.009466945
138	0xbdce86e8	-0.10084325
139	0xbcb4eeac	-0.022086464
140	0xbcecf14e	-0.028923657
141	0xbd93f4bc	-0.07224414
142	0xbbfa8f0a	-0.007646446
143	0xbca3577b	-0.019939175
144	0x3c8f826f	0.01751825
145	0xbd6c6556	-0.05771383
146	0xbdc8820f	-0.09790432
147	0xbd50c326	-0.050967358
148	0xbd1f98a8	-0.038963944
149	0xbd9199f9	-0.07109446
150	0xbbf731c7	-0.0075437757
151	0x3d190d64	0.037366286
152	0xbc735d84	-0.014853839
153	0xbc343f40	-0.011001408
154	0xbc299cfd	-0.01035237
155	0x3bb35cc3	0.0054737045
156	0x3abefccf	0.0014571192
157	0xbd00d54d	-0.03145342
158	0xbd0f9d92	-0.03506238
159	0x3d8d6f46	0.06905989
160	0xbccb87b5	-0.024844984
161	0x3d9e5c53	0.07732453
162	0x3b6673bd	0.00351642
163	0xbca0eb8c	-0.019643568
164	0xbf66daa6	-0.9017738
165	0x3cd69d82	0.026198152
166	0x3aba0cdf	0.001419451
167	0xbe5d0aa3	-0.21586089
168	0x3d3b3889	0.045708213
169	0x3ae0ff43	0.0017165918
170	0xbdf2c8de	-0.118547186
171	0x3ddae240	0.10687685
172	0xbc223569	-0.009900429
173	0x3c2fbd70	0.010726318
174	0xbc42f4d4	-0.011899192
175	0x3cf10a06	0.029423725
176	0xba845709	-0.0010096739
177	0xbc8ed494	-0.01743535
178	0xbd572655	-0.05252679
179	0xbd528021	-0.051391724
180	0x3d852b5b	0.0650241
181	0xbc05cafc	-0.008166071
182	0x3ba8fe32	0.0051572556
183	0x3be24809	0.00690556
184	0x3be484cb	0.006973838
185	0x3c3b3e9e	0.011428503
186	0xbbe92aff	-0.0071157212
187	0x3ca3d8bd	0.02000081
188	0x3c3b4dce	0.011432124
189	0x3be1bab8	0.0068887137
190	0x3cad42f6	0.021150094
191	0xbb6e99d8	-0.0036407616
192	0x3e1c179c	0.15243381
193	0x3d7c17c5	0.061546106
194	0x3daa3561	0.083109625
195	0xbe0e8f36	-0.13921818
196	0x3d6b3666	0.057424925
197	0x3f55bf11	0.8349467
198	0x3c2e81da	0.010651076
199	0x3e160f1a	0.14654198
200	0x3e16ee4f	0.14739345
201	0xbd5fad91	-0.054608885
202	0x3d791925	0.060814995
203	0x3df0a01a	0.11749287
204	0xbe2af3cc	-0.16694564
205	0x3d8b6e2c	0.06808123
206	0xba33303d	-0.0006835496
207	0xbccfdcf1	-0.025373908
208	0xbd53ca16	-0.051706396
209	0xbe199857	-0.1499952
210	0x3e39c8f8	0.1814307
211	0xbd7ae53e	-0.06125378
212	0x3d6fcb79	0.058543656
213	0xbd7abd67	-0.061215784
214	0xbdf0accc	-0.117517084
215	0xbdd25002	-0.102691665
216	0x3dfa949c	0.12235376
217	0x398a3c1e	0.00026366202
218	0x3c5135b8	0.012769155
219	0xbd19231c	-0.037387
220	0x3d809469	0.06278307
221	0xbc30e4b2	-0.010796713
222	0xbd47981f	-0.04872906
223	0xbdc2b5ef	-0.09507357
224	0xbd90583b	-0.070480786
225	0x3e0cff99	0.13769378
226	0x3e19886f	0.14993452
227	0xbd7cbc50	-0.061703026
228	0xbe242b77	-0.16032206
229	0xbb1de3e0	-0.0024092123
230	0x3e01caf2	0.12675074
231	0xbe4a08a2	-0.19729856
232	0x3dc94342	0.098272815
233	0xbd39f23a	-0.04539702
234	0xbcd37fef	-0.02581784
235	0xbcb88f54	-0.022529282
236	0xbad16e31	-0.0015978274
237	0xbbe507bb	-0.006989447
238	0xbd47c4bf	-0.048771616
239	0xbabca0ec	-0.001439122
240	0x392aacc6	0.00016276826
241	0xbd156c5e	-0.0364803
242	0x3ba81fb4	0.0051307324
243	0x3befcacf	0.007317878
244	0x3e6dc0ab	0.23218028
245	0xbdbd6c43	-0.09249165
246	0x3d30b581	0.043141846
247	0xbbe40fd1	-0.0069598933
248	0x3b75cbb6	0.0037505454
249	0xbcd819fd	-0.02637958
250	0x3c927a41	0.01788056
251	0x3c51b064	0.012798402
252	0xbc1290eb	-0.008945684
253	0x3ac4050b	0.0014955116
254	0x3cd21bc7	0.02564801
255	0xbc8a1213	-0.016854322

fcs1.bias f4 [128]
0	0x3c68a84c	0.014200281
1	0xbbff738d	-0.007795757
2	0xbe2615c3	-0.16219239
3	0x3d205ceb	0.039151113
4	0xbdca4a06	-0.098774
5	0xbd26d9c2	-0.040735014
6	0x3c67297f	0.0141090145
7	0xbe397949	-0.18112673
8	0xbe8ab266	-0.27089232
9	0xbd3970e5	-0.04527368
10	0xbe8344a3	-0.25638303
11	0x3d78dda9	0.060758267
12	0xbdc39297	-0.09549444
13	0xbe5256e9	-0.20540966
14	0xbe5767a2	-0.21035627
15	0x3dbee6f3	0.09321394
16	0xbe6e1fdd	-0.23254342
17	0x3d31d986	0.043420337
18	0xbe0bdf24	-0.1365934
19	0xbd833e6c	-0.064083904
20	0xbe4f0048	-0.20214951
21	0xbdf6c31b	-0.12048932
22	0xbe1b36e5	-0.1515766
23	0xbe36fe78	-0.1787051
24	0xbcd1d338	-0.025613412
25	0xbdc17f7d	-0.094481446
26	0xbd869880	-0.06572056
27	0xbe82d790	-0.25555086
28	0xbe51e018	-0.20495641
29	0xbc7c26aa	-0.015390078
30	0x3dbfb2af	0.09360253
31	0xbe47c87e	-0.19510075
32	0x3d615f6f	0.055022653
33	0xbdca02ab	-0.0986379
34	0xbe15487d	-0.14578433
35	0x3d3848e6	0.044991396
36	0xbe362143	-0.17786126
37	0x3dbb0578	0.091319025
38	0xbe44cba7	-0.19218312
39	0xbd894df2	-0.0670432
40	0xbe332d6c	-0.17497796
41	0x3db4714d	0.08810673
42	0xbe79bd9a	-0.24388734
43	0x3d03b069	0.03215066
44	0xbe03bb9e	-0.12864539
45	0x3e947c8b	0.2900127
46	0xbe4b04ab	-0.19826
47	0xbcbea626	-0.023272585
48	0x3de11040	0.109894276
49	0xbcc3d8b3	-0.023907041
50	0x3d8cfc66	0.06884079
51	0x3ce74cdd	0.028234893
52	0x3cc47a08	0.02398397
53	0xbc6d5577	-0.014485708
54	0x3d276204	0.04086496
55	0xbdd0e06d	-0.10199056
56	0xb9b61d28	-0.00034735468
57	0xbd693ba8	-0.05694166
58	0xbda39f2f	-0.07989346
59	0xbe38c975	-0.180456
60	0x3e245b98	0.16050565
61	0x3db682a5	0.08911637
62	0xbe0ebd3d	-0.13939376
63	0xbe569465	-0.20955046
64	0xbe0d8664	-0.13820797
65	0xbd30ccb0	-0.043163955
66	0x3d74e9a2	0.059793122
67	0xbdfd94df	-0.123819105
68	0xbd7214a6	-0.059101723
69	0xbe4cafc0	-0.19988918
70	0xbe3d6b98	-0.18498075
71	0xbe22d84a	-0.1590282
72	0x3d546c22	0.051860936
73	0xbd58ec13	-0.052959513
74	0xbc8a91dd	-0.016915256
75	0xbd3686fd	-0.04456233
76	0xbddd6c32	-0.10811652
77	0xbe48e286	-0.19617662
78	0x3d2edfc0	0.042693853
79	0xbe8c5471	-0.27408174
80	0xbe49427a	-0.19654265
81	0xbd834ad2	-0.06410755
82	0xbcd03737	-0.025416953
83	0x3d45f79e	0.04833185
84	0xbb942c09	-0.004521851
85	0xbe637478	-0.22212398
86	0x3d7a7550	0.061147034
87	0xbe4049fe	-0.18778226
88	0xbd11df97	-0.035613623
89	0xbe41269c	-0.18862385
90	0xbe2c187b	-0.16806214
91	0x3e32241c	0.17396587
92	0xbe120e48	-0.1426326
93	0x3b51232a	0.0031911829
94	0x3dfb7486	0.122780845
95	0xbe0a3da7	-0.13500081
96	0xbd2f8d64	-0.04285945
97	0xbdfbcdde	-0.122951254
98	0x3e0af842	0.13571265
99	0xbe587613	-0.21138792
100	0xbdd6d868	-0.10490495
101	0x3d03f1df	0.032213088
102	0xbe252afc	-0.16129678
103	0xbcf10beb	-0.029424628
104	0xbd0b42ea	-0.03399936
105	0xbe120035	-0.14257891
106	0xbe114de9	-0.14189877
107	0xbe3fce61	-0.18731071
108	0xbe30ce77	-0.1726626
109	0xbdcd0650	-0.1001097
110	0xbe03b9fe	-0.12863919
111	0xbd49a1e0	-0.04922664
112	0x3e09a722	0.13442662
113	0xbcaba9da	-0.020955015
114	0xbded1a04	-0.11577228
115	0xbe62d41f	-0.2215123
116	0x3dd8c14b	0.10583743
117	0xbd2d080b	-0.042244
118	0xbe38b7e2	-0.18038896
119	0xbdffc05f	-0.12487864
120	0xbea6692a	-0.3250211
121	0xbd0a9523	-0.033833634
122	0x3d681e29	0.056669388
123	0x3ccc44f2	0.02493522
124	0x3d08399b	0.03325806
125	0xbdd84d3b	-0.105616055
126	0xbd8be549	-0.06830842
127	0x3c44db1a	0.0120151285

fc2.weight f4 [128, 132]
0	0xbdecbca0	-0.11559415
1	0xbdd333ed	-0.103126384
2	0xbdab905a	-0.08377142
3	0xbd57be8c	-0.052671954
4	0xbdda0ffb	-0.10647579
5	0x3d09fb3a	0.033686854
6	0xbd40a747	-0.047034528
7	0x3d3187f6	0.043342553
8	0xbd74e330	-0.059786975
9	0xbd86330c	-0.06552705
10	0x3df11d82	0.11773206
11	0xbcb30661	-0.021853628
12	0x3d939fd0	0.07208216
13	0xbe17b482	-0.14814952
14	0xbad91f17	-0.0016565052
15	0x3d2c9302	0.042132385
16	0x3daa84ce	0.08326112
17	0xbd80400d	-0.06262217
18	0x3df96cc2	0.12178947
19	0xbe76b152	-0.2409108
20	0x3b653105	0.0034971845
21	0x3a3f3b78	0.00072949333
22	0xbda8a7ab	-0.08235105
23	0xbde93aec	-0.113881916
24	0x3c1a8e94	0.009433407
25	0x3d9cc86c	0.07655415
26	0x3b1f8566	0.0024340986
27	0x3d30eea9	0.043196354
28	0x3da1beef	0.07897746
29	0xbcc784d8	-0.024355337
30	0xbb229417	-0.0024807507
31	0x3d0cc3cd	0.034366418
32	0x3da3d3b5	0.07999364
33	0xbe174c8a	-0.14775291
34	0x3d693974	0.056939557
35	0xbc5dafea	-0.013530711
36	0xbcb5b4f9	-0.022181021
37	0x3cd58542	0.026064519
38	0xbd1acc7a	-0.03779266
39	0xbd1c94ea	-0.038227953
40	0xbdc0f86d	-0.094223835
41	0x3cc7a0a5	0.024368593
42	0xbca737c3	-0.020412331
43	0x3d6996df	0.057028648
44	0xbc7fd455	-0.015614589
45	0xbcbd4e97	-0.023108764
46	0xbe53c4cd	-0.20680542
47	0xbdfc7bda	-0.1232831
48	0xbe343bd4	-0.17600948
49	0xbce6a755	-0.028155962
50	0x3d06787e	0.032829754
51	0x3d29f8bf	0.04149699
52	0xbd1e3119	-0.038621042
53	0xbda9a237	-0.08282893
54	0x3dbdadde	0.09261678
55	0xbdba4f40	-0.09097147
56	0x3cbb8bd5	0.022893826
57	0xbe142da5	-0.14470537
58	0xbd367206	-0.044542335
59	0x39be43e0	0.00036290195
60	0xbc3a2e62	-0.011363598
61	0xbd9ef512	-0.07761587
62	0xbe150b3b	-0.14555065
63	0xbe61b792	-0.22042683
64	0xbdf41e6f	-0.11919867
65	0x3d0ae25b	0.033907276
66	0xbd6a20b1	-0.057160083
67	0x3ccb3374	0.024804808
68	0x3daf1a38	0.08549923
69	0xbe29b237	-0.1657189
70	0x3c356f85	0.011073952
71	0xbca05a3d	-0.019574279
72	0xbb9b9609	-0.00474811
73	0xbd6fbd8b	-0.05853037
74	0x3d8312f1	0.06400097
75	0xbdcd97a9	-0.100386925
76	0xbe24291a	-0.16031304
77	0x3e142ad1	0.14469458
78	0xbd880963	-0.066424154
79	0xbdfd3608	-0.12363821
80	0x3d87e693	0.066357754
81	0xbd962764	-0.07331732
82	0xbd6f8255	-0.058473904
83	0xbd2d7602	-0.04234887
84	0xbdc3a109	-0.095521994
85	0x3d53ffab	0.051757496
86	0xbe0e2526	-0.13881359
87	0xbbf743e3	-0.0075459345
88	0xbd2432d9	-0.040087555
89	0xbe33c9bf	-0.17557429
90	0xbd38643c	-0.045017466
91	0x3aab380c	0.0013062968
92	0x3df30f7f	0.1186819
93	0xbd0a3692	-0.03374345
94	0xbe06f201	-0.13178255
95	0xbc46136e	-0.012089593
96	0x3d2bd039	0.041946623
97	0xbde1dbc6	-0.110282466
98	0x3da304b1	0.07959879
99	0xbe1db487	-0.15400897
100	0xbe48d784	-0.19613463
101	0x3cd220ad	0.025650347
102	0x3d5a340e	0.0532723
103	0x3d58ae26	0.052900456
104	0x3e4132da	0.18867055
105	0x3dd25ead	0.10271964
106	0xbe048eb1	-0.12945057
107	0xba298800	-0.0006467104
108	0xbd2db16e	-0.04240554
109	0x3dadb885	0.0848246
110	0x3e08f800	0.13375854
111	0x3e1808d2	0.14847115
112	0xbc5a3cd6	-0.0133201685
113	0x3d574593	0.052556586
114	0xbc45c7fc	-0.012071606
115	0x3dd4145a	0.10355444
116	0xbd59e074	-0.05319257
117	0x3bc754f4	0.0060831252
118	0xbcb41250	-0.021981388
119	0x3d6005d6	0.054693066
120	0xbe051e93	-0.12999944
121	0x3ddab742	0.10679485
122	0xbdb44bf2	-0.08803548
123	0xbccdda2b	-0.025128445
124	0x3d82966f	0.06376349
125	0x3de849d1	0.11342204
126	0x3ca9750e	0.020685699
127	0xbd01138a	-0.031512775
128	0x3be607d6	0.007019977
129	0x3ca448ea	0.0200543
130	0xbc8a0062	-0.016845886
131	0xbe0da121	-0.13830997
132	0xbdfd31bb	-0.12363001
133	0x3d9f68c3	0.077836536
134	0xbb8f772e	-0.004378221
135	0x3e0a6b5d	0.13517518
136	0xbdcaa3c6	-0.098945186
137	0xbe386fe9	-0.1801144
138	0xbd059117	-0.03260907
139	0xba0260de	-0.0004973541
140	0xbcb168fa	-0.021656502
141	0x3d33dd8e	0.043912463
142	0x3c4e05db	0.012574638
143	0x3e122c26	0.14274654
144	0x3d56fc58	0.052486748
145	0x3e176a48	0.14786637
146	0xbc49b11b	-0.012310292
147	0x3c212c71	0.009837256
148	0x3cf6ea54	0.030141033
149	0x3d53cfbf	0.051711794
150	0x3e0dbaeb	0.13840835
151	0xbe0530fc	-0.13006967
152	0x3d71ec8b	0.059063476
153	0x3db758d7	0.08952492
154	0x3e445a55	0.19175084
155	0xbe4c58bb	-0.19955723
156	0xbd818962	-0.06325032
157	0x3ddd58ba	0.10807939
158	0xbdd4cc7e	-0.10390566
159	0x3d1b406d	0.037903238
160	0xbaf204b7	-0.001846454
161	0x3dd43d66	0.10363273
162	0x3bf9af1e	0.0076197525
163	0x3cb4ea9c	0.022084527
164	0x3daea338	0.08527225
165	0x3bca6efd	0.0061777816
166	0xbd994358	-0.07483548
167	0xbd13d385	-0.036090393
168	0x3d7de594	0.06198652
169	0x3da3c693	0.079968594
170	0xbd0dbf76	-0.03460642
171	0x3c264a66	0.010149574
172	0x3dc9d205	0.09854511
173	0x3de26490	0.11054337
174	0xbd317681	-0.043325905
175	0x3cc7beb7	0.024382932
176	0xbd1b45ee	-0.037908487
177	0x3caa791e	0.020809706
178	0x3c8ab3c9	0.016931431
179	0xbe249c8f	-0.16075347
180	0xbe31dca8	-0.1736933
181	0x3e4a0a7e	0.19730565
182	0xbd1003e4	-0.03515996
183	0xbddc9e76	-0.107724115
184	0xbe308628	-0.17238677
185	0x3d5b39d8	0.05352196
186	0x3c08b225	0.008343254
187	0xbef77c8d	-0.48337212
188	0x3e1c78cd	0.15280457
189	0xbce2314c	-0.027611397
190	0xbd284a35	-0.041086394
191	0x3b3b3353	0.0028564527
192	0x3c6e8104	0.014557127
193	0xbcdb3aca	-0.026761431
194	0xbd17bd49	-0.03704575
195	0xbaebbdf1	-0.0017985684
196	0xbd78ca89	-0.060740028
197	0x3db7a823	0.089676164
198	0x3d305b5f	0.04305589
199	0x3e04d570	0.12972045
200	0xbd6bc1d6	-0.057557903
201	0x3d83b678	0.064312875
202	0x3d39083e	0.045173876
203	0xbcacbbf8	-0.021085724
204	0xbc4b20a2	-0.012397917
205	0xbb4673b5	-0.003028137
206	0xbc40f291	-0.011776582
207	0xbe726b7a	-0.23673812
208	0xbee0a935	-0.43879095
209	0xbb80dfb5	-0.003932918
210	0x3da14cbc	0.07875964
211	0x3d515777	0.051108804
212	0xbd8ea969	-0.06965906
213	0xbd5e44d2	-0.05426485
214	0xbd0c5775	-0.034263093
215	0xb99566b0	-0.00028496003
216	0x3ded43ad	0.11585174
217	0xbc21f336	-0.009884646
218	0xbe215ff2	-0.15759256
219	0x3de2bb80	0.11070919
220	0x3d145798	0.03621635
221	0xbd541b59	-0.051783893
222	0xbc0643f3	-0.008194911
223	0x3c8bca76	0.017064314
224	0x3e0ced68	0.13762438
225	0x3d6c4c30	0.057689846
226	0x3e1b3989	0.15158667
227	0xbc411903	-0.011785748
228	0x3d7c36b7	0.061575618
229	0xbcce8bf2	-0.025213216
230	0x3d96d26b	0.07364353
231	0xbdf1d95f	-0.11809038
232	0x3c8c3d79	0.017119156
233	0xbd214cde	-0.039379947
234	0x3c39ce78	0.01134073
235	0x3d4b8e61	0.04969633
236	0x3e916a3c	0.28401363
237	0xbc97e910	-0.01854375
238	0x3d4ea3fa	0.05044935
239	0x3e1f6f9f	0.15569924
240	0xbd536d80	-0.0516181
241	0x3bdef1c6	0.006803724
242	0x3de56b73	0.11202135
243	0xbdade258	-0.08490437
244	0x3e3de9e1	0.18546249
245	0x3ded3b8b	0.115836225
246	0xbdabe9a8	-0.08394176
247	0x3e3cf80b	0.18453996
248	0x3e1f35cf	0.1554787
249	0x3dc5ff20	0.09667802
250	0x3e128f3d	0.14312454
251	0xbcf1fa90	-0.029538423
252	0x3cab4cc7	0.020910634
253	0xbd39b701	-0.04534054
254	0xbc9b9b3a	-0.018994916
255	0x3e01921b	0.12653391

fc2.bias f4 [128]
0	0xbe48a73d	-0.19595046
1	0xbe6c187d	-0.23056217
2	0x3ba535c9	0.005041812
3	0xbe7b83c7	-0.24561988
4	0x3e133bbe	0.14378259
5	0xbdd77a3f	-0.105213635
6	0xbda9cbec	-0.08290848
7	0xbe981feb	-0.2971185
8	0x3d1ebfb6	0.03875705
9	0xbdc08a4c	-0.09401378
10	0x3c3e2ef6	0.011607876
11	0xbe6e3878	-0.23263729
12	0xbe1af9dd	-0.15134378
13	0x3c80f7af	0.015743105
14	0xbe5ade4f	-0.21373866
15	0xbe7bdfad	-0.24597044
16	0xbe829bd6	-0.25509518
17	0xbe586816	-0.21133456
18	0xbbe59da4	-0.0070073176
19	0xbe765369	-0.24055256
20	0xbe8763c8	-0.26443315
21	0x3d9f64fa	0.077829316
22	0xbe02a541	-0.12758352
23	0xbe9bda30	-0.304399
24	0xbcd875c6	-0.026423346
25	0xbcb0509c	-0.021522813
26	0xbe6b9e93	-0.2300971
27	0xbc467d95	-0.012114902
28	0xbca658ba	-0.02030598
29	0xbe2f7f41	-0.17138387
30	0xbd2ab855	-0.0416797
31	0xbe4be309	-0.19910826
32	0xbe8c16d8	-0.27361178
33	0xbe289b9c	-0.1646561
34	0xbd240811	-0.040046755
35	0xbe2b600a	-0.16735855
36	0xbc670e3a	-0.014102513
37	0x3e1177c1	0.14205839
38	0xbd2a2379	-0.041537736
39	0xbe0e8f6c	-0.13921899
40	0xbdd61264	-0.104527265
41	0xbe73858d	-0.23781414
42	0x3d28f2ca	0.041247167
43	0xbe793a27	-0.2433859
44	0x3e352a8f	0.17692016
45	0x3d9901a6	0.074710175
46	0xbe395480	-0.1809864
47	0x3d87f866	0.06639175
48	0x3e305dd1	0.17223288
49	0xbde2d976	-0.11076634
50	0x3c152cd2	0.009104924
51	0x3d7b607f	0.061371323
52	0xbe86aef5	-0.26305357
53	0x3c986f72	0.018607829
54	0xbe6165fe	-0.22011563
55	0xbe3f1d7b	-0.1866359
56	0xbe4bc76a	-0.19900289
57	0x3dca2ddf	0.098720305
58	0xbe2c0ff7	-0.16802965
59	0x3e6d74a3	0.23189025
60	0x3e4f1703	0.20223622
61	0x3e823993	0.2543455
62	0xbe7770e4	-0.24164158
63	0xbe5e6b45	-0.21720608
64	0xbe6677c7	-0.22506629
65	0xbdf15fa2	-0.11785819
66	0xbe386177	-0.1800593
67	0xbe4a1495	-0.19734414
68	0xbe3b336a	-0.18281332
69	0x3d93d5b1	0.07218493
70	0xbe9376eb	-0.28801665
71	0x3deeb943	0.116564296
72	0xbde0c9bc	-0.10975978
73	0x3e73583f	0.23764132
74	0xbe25a548	-0.16176331
75	0x3d5e89f1	0.05433077
76	0x3e853cec	0.26023042
77	0xbc60459e	-0.013688473
78	0xbc818053	-0.01580826
79	0x3d467655	0.048452694
80	0x3e29caaa	0.16581216
81	0xbe1dd8a7	-0.15414678
82	0xbe14ca47	-0.14530288
83	0x3e0a2ec3	0.134944
84	0xbc62c604	-0.013841156
85	0xbe8e435c	-0.27785766
86	0x3e8699a3	0.2628909
87	0x3e90138f	0.28139922
88	0x3d855218	0.06509799
89	0x3cbcf4c7	0.023065938
90	0xbe702b69	-0.2345406
91	0x3e3262d0	0.17420506
92	0x3e3e32ae	0.1857402
93	0x3e8f758f	0.28019378
94	0x3e0483ab	0.12940852
95	0xbe3cfe5d	-0.18456407
96	0xbe55e366	-0.20887527
97	0x3da38f0e	0.0798627
98	0x3dcff43d	0.10154007
99	0xbe2c2cd8	-0.16813982
100	0xbe4f4ca0	-0.20244074
101	0x3e82e757	0.25567123
102	0xbe64d2de	-0.22346064
103	0x3d7599a6	0.059960984
104	0x3c804da7	0.015662028
105	0xbe673764	-0.22579724
106	0xbe1f38c5	-0.15549
107	0xbe5965c4	-0.21230227
108	0xbe5ed729	-0.21761765
109	0xbe8c9e0f	-0.2746434
110	0x3da30018	0.07959002
111	0x3e62b034	0.22137529
112	0x3e7c50a2	0.24640134
113	0xbe2466cc	-0.16054839
114	0xbe92e8ab	-0.28693137
115	0x3df3d568	0.119059384
116	0xbdcc171d	-0.09965346
117	0x3e3be135	0.18347628
118	0x3e841a7f	0.25801465
119	0xbdd3657d	-0.10322092
120	0xbe598e45	-0.21245678
121	0x3dbbb415	0.09165207
122	0x3e58ac92	0.2115958
123	0xbad954b2	-0.0016581027
124	0xbe4f3342	-0.20234397
125	0x3e5f63e9	0.21815456
126	0xbe5b1c21	-0.21397449
127	0xbe2afd74	-0.16698247

fc3.weight f4 [1, 128]
0	0xbdb18c0a	-0.086692885
1	0xbdc70d77	-0.09719365
2	0x3d3eccd4	0.046582058
3	0xbe324f37	-0.1741303
4	0x3daff9de	0.0859258
5	0x3da60917	0.081072025
6	0xbdafcb73	-0.08583727
7	0xbe2c952b	-0.16853778
8	0x3d8f74f1	0.07004727
9	0xbd7ef079	-0.06224105
10	0x3d531866	0.05153694
11	0xbdc3ae5e	-0.09554742
12	0xbdef1d8d	-0.11675558
13	0x3d7ce322	0.06174005
14	0xbdcd7095	-0.10031239
15	0xbe1ddf60	-0.15417242
16	0xbe053600	-0.1300888
17	0xbe2b22ea	-0.16712537
18	0x3db9d25b	0.09073325
19	0xbdb7c3f2	-0.089729205
20	0xbd89b010	-0.067230344
21	0x3d8bfc1a	0.06835194
22	0x3dc23932	0.094835654
23	0xbdeb1bfc	-0.11479947
24	0x3dec5eae	0.11541496
25	0x3d8c91c9	0.06863744
26	0xbe0393a2	-0.12849286
27	0x3d2f7ebf	0.042845484
28	0x3d4f2ba9	0.050578747
29	0xbdd11c4e	-0.10210477
30	0x3db6582c	0.08903536
31	0xbe01a6a4	-0.12661225
32	0xbdf1fa77	-0.118153505
33	0xbd7ead3d	-0.06217693
34	0xbd9b8e6c	-0.07595524
35	0xbe0c07b0	-0.13674808
36	0x3d6150ea	0.055008806
37	0x3d99bccb	0.075067125
38	0x3d9a978a	0.07548435
39	0x3dd0aeb1	0.1018957
40	0xbd494ed4	-0.049147442
41	0xbdc6e225	-0.097111024
42	0x3d8e256b	0.06940731
43	0xbe0c92ce	-0.13727877
44	0x3dd1c931	0.10243452
45	0x3d92651c	0.07148191
46	0xbde51808	-0.11186224
47	0x3d90f0c7	0.07077175
48	0x3d889971	0.066698916
49	0xbd96b0d7	-0.07357948
50	0x3d9cd300	0.076574326
51	0x3d5d8838	0.054084986
52	0xbdda30cd	-0.10653839
53	0x3d80774d	0.06272755
54	0xbd8cdae3	-0.06877687
55	0xbdd1e2d7	-0.102483444
56	0xbd993e66	-0.07482605
57	0x3e0a8c94	0.13530189
58	0xbd71d9e7	-0.0590457
59	0x3dc4f458	0.09616917
60	0x3dc00e3d	0.09377716
61	0x3dbc27dc	0.0918729
62	0xbdad999d	-0.08476565
63	0xbd93b850	-0.07212889
64	0xbdf06d0d	-0.1173955
65	0xbd9a163b	-0.075237714
66	0xbde3a734	-0.11115876
67	0xbd905e14	-0.07049194
68	0xbe57feb7	-0.2109326
69	0x3dc57736	0.09641878
70	0xbe66f663	-0.22554927
71	0x3db33023	0.08749416
72	0x3d55291e	0.052041166
73	0x3da576f3	0.080793284
74	0xbdbac3ea	-0.09119399
75	0x3d662a75	0.056192834
76	0x3dc08187	0.093997054
77	0x3ce96864	0.02849216
78	0x3d92dfe8	0.07171613
79	0x3d8c460e	0.06849299
80	0x3e10aa38	0.14127433
81	0x3dd9d7cc	0.10636863
82	0xbd866c53	-0.0656363
83	0x3d6aa7f2	0.05728907
84	0x3d9d117f	0.07669353
85	0xbdee0034	-0.116211325
86	0x3dd05bda	0.10173769
87	0x3dbfc868	0.09364396
88	0x3dc01ccc	0.093804926
89	0x3d9034c9	0.07041318
90	0xbe1e0e96	-0.15435252
91	0x3d90abb5	0.070640005
92	0x3da9c495	0.08289448
93	0x3dcd64e4	0.10029009
94	0x3db28981	0.08717633
95	0x3e11735e	0.14204165
96	0xbd9877b9	-0.0744471
97	0x3db85a7e	0.09001635
98	0x3df5eb27	0.120077424
99	0xbdb9f3c1	-0.090796955
100	0xbd911f92	-0.070861
101	0x3dcace15	0.09902588
102	0xbdec4a83	-0.115376495
103	0x3da62242	0.08112003
104	0x3d7bd148	0.061478883
105	0xbe34dd54	-0.17662555
106	0xbd8bf300	-0.06833458
107	0xbdb1370d	-0.08653078
108	0xbd98a678	-0.074536264
109	0xbdd17e4f	-0.102291696
110	0x3d54ee1e	0.0519849
111	0x3d93ca71	0.07216347
112	0x3dbfe54d	0.093699075
113	0xbd90577f	-0.070479386
114	0xbde6da10	-0.11272061
115	0x3dab0467	0.08350449
116	0x3df80aa2	0.12111403
117	0x3dc0d7b4	0.09416142
118	0x3da7d408	0.081947386
119	0x3d6c7844	0.05773188
120	0x3dd4372e	0.10362087
121	0x3dad5640	0.084637165
122	0x3dcbc79d	0.099501826
123	0x3d2266af	0.039648708
124	0xbd93591b	-0.0719473
125	0x3d9c53e9	0.07633192
126	0xbdb7fcf2	-0.08983792
127	0xbde405f8	-0.11133951

bn1.weight f4 [128]
0	0x3eb570e3	0.35437688
1	0x3efe2458	0.49637103
2	0x3f320594	0.6953976
3	0x3efc041a	0.4922188
4	0x3f1ad6ef	0.6048421
5	0x3eef7d16	0.4677512
6	0x3e2fe9c1	0.17179014
7	0x3e986af1	0.2976909
8	0x3e2f7394	0.17133933
9	0x3f0958d1	0.5365115
10	0x3f25d34d	0.64775544
11	0x3f42cf57	0.76097625
12	0x3eea2c00	0.45736694
13	0x3f059f5b	0.5219628
14	0x3f0e4159	0.5556846
15	0x3ecb1169	0.3966172
16	0x3ec24c92	0.37949044
17	0x3f073325	0.52812415
18	0x3e9cbbdd	0.30612078
19	0x3f30f8c1	0.6912957
20	0x3eadba8c	0.33931386
21	0x3f204c1e	0.62616146
22	0x3e2ba950	0.16763806
23	0x3f39ca49	0.7257429
24	0x3f43cdd4	0.76485944
25	0x3e0b2406	0.1358796
26	0x3f0ca457	0.5493826
27	0x3e801fef	0.25024363
28	0x3e753e7c	0.23949617
29	0x3ec72516	0.38895482
30	0x3f099b35	0.5375245
31	0x3ebfe113	0.37476406
32	0x3f9ae40f	1.2100848
33	0x3e61959b	0.22029726
34	0x3d9e24f7	0.07721894
35	0x3ea3f815	0.3202521
36	0x3ed6fa36	0.4198777
37	0x3f1401a9	0.57815033
38	0x3f15b750	0.5848284
39	0x3f1eb6b1	0.61997515
40	0x3e5555a8	0.20833457
41	0x3ed8f9bb	0.4237803
42	0x3f077dbd	0.52926236
43	0x3f407e6b	0.751929
44	0x3e1172ee	0.14203998
45	0x3ed99d3e	0.4250278
46	0x3e9ffd6c	0.31248033
47	0x3f0645e7	0.5245041
48	0x3f52f77c	0.8240888
49	0x3e3ff6cc	0.1874649
50	0x3e8ec2da	0.27883035
51	0x3f2faccd	0.6862305
52	0x3eb57d1e	0.3544702
53	0x3f124ed6	0.57151544
54	0x3f1a485d	0.6026667
55	0x3ebcec3d	0.36898986
56	0x3ed5ee76	0.41783494
57	0x3e327679	0.17428006
58	0x3f13bf53	0.5771381
59	0x3eb1434b	0.34621653
60	0x3f60d2b7	0.87821525
61	0x3f07fd78	0.5312114
62	0x3f5463fb	0.8296506
63	0x3ed33bc8	0.41256547
64	0x3f160c51	0.58612543
65	0x3e435132	0.19073942
66	0x3f03de50	0.51511097
67	0x3f01bc2c	0.5067775
68	0x3ece0c67	0.40243837
69	0x3f129664	0.5726073
70	0x3efd28c8	0.49445176
71	0x3f25a22c	0.6470058
72	0x3ecf2a50	0.4046197
73	0x3ec3f29b	0.3827103
74	0x3f0d2a54	0.5514271
75	0x3e882400	0.26589966
76	0x3eaaf9c7	0.3339369
77	0x3effa5a6	0.49931067
78	0x3ee12bf1	0.43978837
79	0x3f2054f1	0.6262961
80	0x3f1dad66	0.6159271
81	0x3cf91694	0.030406274
82	0x3e5a390b	0.21310823
83	0x3f36f340	0.7146492
84	0x3e1d4ce4	0.15361363
85	0x3ec11894	0.37714064
86	0x3ed2f4a1	0.41202262
87	0x3f1610dc	0.58619475
88	0x3f012b35	0.50456554
89	0x3e89531d	0.26821223
90	0x3eeb693e	0.4597873
91	0x3f0d7961	0.55263335
92	0x3e51fdc4	0.2050696
93	0x3f313046	0.69214284
94	0x3f1482f7	0.58012336
95	0x3f18501d	0.59497243
96	0x3e6cc6ad	0.23122664
97	0x3ee7bd78	0.4526174
98	0x3f167ad7	0.5878119
99	0x3f03ed92	0.5153438
100	0x3e80a1e5	0.25123516
101	0x3de32495	0.11090962
102	0x3f04167b	0.515968
103	0x3eee2038	0.46508956
104	0x3d964284	0.073369056
105	0x3f202736	0.6255983
106	0x3ee35b2e	0.44405502
107	0x3e900cee	0.28134865
108	0x3e1f845b	0.15577833
109	0x3eeabf26	0.4584896
110	0x3e961cee	0.29318947
111	0x3e841134	0.25794375
112	0x3e166a25	0.14688928
113	0x3e5d3341	0.21601583
114	0x3f07a3f2	0.52984536
115	0x3f0c2dc7	0.5475735
116	0x3f074a54	0.5284779
117	0x3efa73d6	0.489165
118	0x3ea55f18	0.32299113
119	0x3ecc3001	0.39880374
120	0x3e463d3c	0.19359297
121	0x3dfd4240	0.12366152
122	0x3e8b5475	0.27212873
123	0x3f3ab0cb	0.72926015
124	0x3f2e81ad	0.6816662
125	0x3f17102f	0.5900907
126	0x3e92c8c9	0.28668812
127	0x3ee9df89	0.45678356

bn1.bias f4 [128]
0	0xbe3144e9	-0.17311443
1	0x3ca764db	0.020433834
2	0xbe0e0dc9	-0.13872446
3	0xbe0d19f7	-0.13779436
4	0xbdab40b3	-0.0836195
5	0x3d0e5f7d	0.034759033
6	0xbd389f88	-0.045074016
7	0xbd28d185	-0.04121544
8	0x3d4a3fa1	0.049377088
9	0xba16ab4d	-0.00057475717
10	0x3ce4b4e0	0.02791828
11	0xbe1e94e4	-0.15486485
12	0x3d7f52ec	0.06233494
13	0xbe498858	-0.19680917
14	0xbdf17de5	-0.117915906
15	0xbe788c2b	-0.2427222
16	0xbe1bd6d3	-0.15218668
17	0x3d45079d	0.048102964
18	0xbd943f3d	-0.07238624
19	0xbd8c8075	-0.06860439
20	0xbd8ceaba	-0.06880708
21	0xbe09500a	-0.13409439
22	0xbd565720	-0.052329183
23	0x3d70cb99	0.058787916
24	0x3db0ea90	0.08638489
25	0xbe56bf74	-0.20971471
26	0x3d1f80f4	0.03894134
27	0xbd12f457	-0.035877552
28	0x3c9c96f4	0.019114949
29	0xbd5b6628	-0.05356422
30	0xbc2026ad	-0.009774846
31	0xbdc92bbf	-0.09822797
32	0xbe10ea8d	-0.14151974
33	0x3d73c945	0.059518117
34	0xbe3ae993	-0.18253164
35	0xbd65a064	-0.056061164
36	0xbd756931	-0.05991477
37	0xbd33405e	-0.043762557
38	0x3e20483c	0.15652555
39	0xbe3d41a4	-0.18482071
40	0x3e181eb4	0.14855462
41	0xbe347cd7	-0.17625748
42	0xbde0b5c0	-0.10972166
43	0xbbeaec9d	-0.00716932
44	0x3e076638	0.13222587
45	0xbe0b5afd	-0.13608928
46	0x3dcc466f	0.09974372
47	0xbc62cfad	-0.013843459
48	0xbc047913	-0.008085507
49	0xbe8c5095	-0.2740523
50	0x3dd583c3	0.10425522
51	0xbc6485b2	-0.013947891
52	0xbdd79f38	-0.105284154
53	0x3df4b75a	0.11949034
54	0x3e2bb960	0.16769934
55	0x3e73c772	0.23806551
56	0x3d81bae9	0.063344784
57	0x3e678622	0.22609761
58	0x3cdabc41	0.026701095
59	0xbe34d378	-0.17658794
60	0x3e88493d	0.26618376
61	0x3b74c9a9	0.0037351644
62	0x3dda0801	0.10646058
63	0xbd5c12b0	-0.05372876
64	0x3d23dcbf	0.04000544
65	0xbe272cb8	-0.16325653
66	0xbd0c570c	-0.034262702
67	0xbd69fa2e	-0.057123356
68	0x3dfd7baa	0.12377103
69	0x3ccf20bc	0.025284164
70	0x3d5619d2	0.052270718
71	0xbcc61b75	-0.024183014
72	0xbccbd472	-0.024881575
73	0x3dee6af3	0.11641493
74	0xbc8d9ff1	-0.01728818
75	0x3d7736fb	0.060355168
76	0x3d0bd911	0.034142558
77	0x3caf9078	0.021431193
78	0xbdd5068b	-0.104016386
79	0xbd8a8652	-0.06763901
80	0xbe0722f5	-0.13196929
81	0x3e82a45e	0.25516027
82	0x3e5016b8	0.20321167
83	0xbd853969	-0.06505091
84	0xbe13c7b5	-0.14431651
85	0x3c04af1b	0.008098389
86	0x3ce2e603	0.027697569
87	0x3dbb8fcb	0.09158286
88	0xbc1a6d73	-0.009425509
89	0x3da234c7	0.07920223
90	0xbd17aa55	-0.037027676
91	0xbc38e143	-0.011284175
92	0x3dc00702	0.09376337
93	0x3d0624bc	0.032749876
94	0xbe02a8c7	-0.12759696
95	0x3c1a61bd	0.009422717
96	0xbcc99fc7	-0.02461232
97	0x3cf0c87f	0.029392479
98	0xbce34da4	-0.027746983
99	0xbc82875a	-0.015933681
100	0xbd96b947	-0.073595576
101	0xbdf7678d	-0.120802976
102	0x3d40daa2	0.047083504
103	0xbe352395	-0.17689355
104	0xbeb9bdec	-0.3627771
105	0x3d2b4bae	0.04182022
106	0xbd1b954a	-0.03798417
107	0xbca4cadb	-0.02011626
108	0x3df5c0e4	0.119996816
109	0x3e13133f	0.1436281
110	0xbde3a72e	-0.11115871
111	0xbc93bfdd	-0.018035823
112	0xbe79d027	-0.2439581
113	0xbe0376e8	-0.12838328
114	0x3d59dfad	0.05319183
115	0x3d8b592d	0.06804118
116	0xbe513f8b	-0.20434396
117	0xbcb63496	-0.022241872
118	0xbd689adc	-0.05678831
119	0xbbec516b	-0.007211854
120	0xbd096efa	-0.0335531
121	0xbe0b2564	-0.13588482
122	0xbdd8c5b2	-0.105845824
123	0x3dc522c9	0.09625775
124	0xbe89f8db	-0.26947674
125	0xbcba3c93	-0.022733962
126	0x3d960162	0.073244825
127	0x3dc44931	0.09584273

bn1.running_mean f4 [128]
0	0x3e5f044d	0.21778984
1	0x3e549b72	0.20762423
2	0x3e51f2d4	0.20502788
3	0x3e49fd01	0.1972542
4	0x3e5cb849	0.21554674
5	0x3e1fc693	0.15603094
6	0x3e1cecaf	0.15324663
7	0x3cc56299	0.024094867
8	0x3d85ba17	0.065296344
9	0x3e227241	0.15863897
10	0x3d83075e	0.063978896
11	0x3eaadf49	0.33373478
12	0x3d8a8d30	0.06765211
13	0x3e57bdf4	0.21068555
14	0x3e82d994	0.25556624
15	0x3ec5fb27	0.38668177
16	0x3e9e5c9c	0.3093003
17	0x3f3d9b7d	0.7406538
18	0x3e36f341	0.17866232
19	0x3e0ecc91	0.13945223
20	0x3d709844	0.05873896
21	0x3eadb6ad	0.33928433
22	0x3eb7d231	0.3590255
23	0x3e497674	0.19674093
24	0x3e3c43ef	0.1838529
25	0x3e40d22e	0.18830177
26	0x3e680daa	0.22661462
27	0x3e08dc83	0.13365369
28	0x3ed6fea5	0.41991153
29	0x3e871c30	0.26388693
30	0x3e078636	0.13234791
31	0x3e1d3f94	0.15356284
32	0x3ebac38b	0.36477312
33	0x3e999447	0.2999594
34	0x3dc45e57	0.095883064
35	0x3cdc94e1	0.02692646
36	0x3eaf727f	0.3426704
37	0x3dd1716d	0.102267124
38	0x3f069f02	0.52586377
39	0x3e992778	0.29912925
40	0x3daff806	0.085922286
41	0x3eb7b1bc	0.35877788
42	0x3d87c194	0.06628719
43	0x3e4dee45	0.20110424
44	0x3e0f7c2b	0.1401221
45	0x3e28e50e	0.16493627
46	0x3d128650	0.03577262
47	0x3f555924	0.8333914
48	0x3e614647	0.21999465
49	0x3f2cd48e	0.6751183
50	0x3e0024a0	0.12513971
51	0x3e56b708	0.20968258
52	0x3e05514c	0.13019294
53	0x3f1aeac8	0.605145
54	0x3e97e6f5	0.29668394
55	0x3e228de5	0.15874441
56	0x3f718e42	0.94357693
57	0x3f1dbc3a	0.61615336
58	0x3dbaa429	0.09113342
59	0x3e114315	0.14185746
60	0x3f2aec40	0.6676674
61	0x3f13867a	0.5762707
62	0x3e3e317c	0.18573564
63	0x3de9372c	0.11387476
64	0x3ef24d97	0.4732482
65	0x3f232cca	0.6374022
66	0x3e55e60a	0.20888534
67	0x3e2a2ce3	0.16618685
68	0x3eace8c4	0.33771336
69	0x3dbf4ea8	0.09341174
70	0x3f49c7d1	0.7882052
71	0x3d9a0ba8	0.075217545
72	0x3da9f292	0.0829822
73	0x3d9c6381	0.07636166
74	0x3f43b597	0.7644896
75	0x3e22b6a3	0.15889983
76	0x3dda7f16	0.10668771
77	0x3ec88353	0.39162692
78	0x3f30b03b	0.69018906
79	0x3dbf2418	0.09333056
80	0x3e3c73c2	0.18403533
81	0x3e4489ef	0.19193242
82	0x3d5cac85	0.053875465
83	0x3df6c20f	0.120487325
84	0x3c3cb12a	0.011516849
85	0x3dd346b0	0.10316217
86	0x3f24df8e	0.6440362
87	0x3dd005da	0.10157366
88	0x3f5161d9	0.8178993
89	0x3d5c10db	0.053727012
90	0x3f038d8a	0.51387846
91	0x3e38387f	0.17990302
92	0x3e7807ef	0.24221776
93	0x3f33221a	0.6997391
94	0x3da4dfb6	0.08050482
95	0x3ebd0ac9	0.3692229
96	0x3d66c547	0.056340482
97	0x3eb52631	0.353807
98	0x3ed55396	0.41665334
99	0x3da7e21d	0.081974246
100	0x3d3e7e81	0.046507362
101	0x3d44ba08	0.048028976
102	0x3d8609c2	0.0654483
103	0x3e2a0d31	0.16606595
104	0x3f489f25	0.78367835
105	0x3de0c14c	0.109743685
106	0x3d1157a3	0.035483968
107	0x3d4bce57	0.049757328
108	0x3deafff1	0.11474598
109	0x3e6283cb	0.22120588
110	0x3de8abd8	0.113609016
111	0x3db003d1	0.08594478
112	0x3f1d6639	0.61484104
113	0x3e494cd8	0.1965822
114	0x3e8cdfd7	0.27514526
115	0x3e7e1f46	0.24816617
116	0x3e837f9c	0.25683296
117	0x3f1b637f	0.60698694
118	0x3e895ef8	0.26830268
119	0x3e3ad7fc	0.18246454
120	0x3d363b74	0.044490293
121	0x3a0684b3	0.0005131468
122	0x3d47245f	0.04861867
123	0x3eca6914	0.39533293
124	0x3f4d920c	0.80300975
125	0x3d5bb17d	0.053636063
126	0x3dfe9409	0.12430579
127	0x3f03e434	0.51520085

bn1.running_var f4 [128]
0	0x3dbafd68	0.09130365
1	0x3dfa82ab	0.12231954
2	0x3e50055a	0.20314541
3	0x3e31a608	0.17348492
4	0x3e0b2703	0.135891
5	0x3daecc4c	0.0853506
6	0x3db769d6	0.089557335
7	0x3bc3c3ef	0.005974285
8	0x3d136051	0.035980526
9	0x3e1288e4	0.14310032
10	0x3ce3a456	0.027788322
11	0x3e057c81	0.13035776
12	0x3d100abc	0.035166487
13	0x3e038458	0.12843454
14	0x3e8b4c8d	0.2720684
15	0x3e7b4db5	0.24541362
16	0x3e79c45a	0.24391308
17	0x3e75db53	0.24009447
18	0x3d64eb03	0.055888187
19	0x3d7b8c13	0.061412882
20	0x3d2dc399	0.042422865
21	0x3e8750e9	0.26428917
22	0x3e834df5	0.25645414
23	0x3d9d9a48	0.076954424
24	0x3d9c2b77	0.07625478
25	0x3e08e17f	0.1336727
26	0x3e27ed4f	0.1639912
27	0x3d9eb210	0.077488065
28	0x3e667a55	0.22507603
29	0x3e0ec8ac	0.13943738
30	0x3d97cc1b	0.07411977
31	0x3dfd9cff	0.1238346
32	0x3e3c2a33	0.18375473
33	0x3e4f2bce	0.20231554
34	0x3d35f23f	0.044420477
35	0x3beb9327	0.007189173
36	0x3e7ecfb8	0.24883926
37	0x3cfa00a4	0.030517884
38	0x3e4fea5f	0.20304249
39	0x3e7d448c	0.2473318
40	0x3d1752e9	0.036944304
41	0x3ea5d227	0.32386896
42	0x3d43cd91	0.047803465
43	0x3de68b99	0.11257095
44	0x3dde16bb	0.10844179
45	0x3d4c7481	0.049915794
46	0x3c81dd3a	0.01585256
47	0x3f32082a	0.6954371
48	0x3dc67cb6	0.096917555
49	0x3f126aa6	0.5719398
50	0x3db5a879	0.08870024
51	0x3e0a175a	0.1348547
52	0x3d8b7213	0.06808867
53	0x3ec74db4	0.3892647
54	0x3e0fc808	0.1404115
55	0x3db51115	0.08841149
56	0x3e896fea	0.26843196
57	0x3f3cf5a1	0.738123
58	0x3d754804	0.059883133
59	0x3dcf71cf	0.10129129
60	0x3ed80396	0.42190236
61	0x3ea2cf8f	0.3179898
62	0x3dab3623	0.08359935
63	0x3d28e694	0.04123552
64	0x3edd734e	0.43252033
65	0x3f4b53bc	0.79424644
66	0x3de691b6	0.11258261
67	0x3de616b5	0.112348
68	0x3e634572	0.2219446
69	0x3d007329	0.031359825
70	0x3f559f01	0.83445746
71	0x3d046abb	0.03232835
72	0x3cb4330e	0.021997001
73	0x3d1a64b7	0.037693705
74	0x3e84c63b	0.25932488
75	0x3debe060	0.115174055
76	0x3d54b14a	0.05192689
77	0x3e82ab89	0.25521496
78	0x3f3d0491	0.7383509
79	0x3d2dd7aa	0.042442
80	0x3debfff0	0.115234256
81	0x3e0894e2	0.13338044
82	0x3cc14afd	0.023595328
83	0x3d4d59e8	0.05013457
84	0x3b93969d	0.0045040385
85	0x3db55a45	0.08855108
86	0x3edf3037	0.43591473
87	0x3d100216	0.03515824
88	0x3e83d99e	0.25751966
89	0x3cdc4d84	0.026892431
90	0x3edff8fa	0.43744642
91	0x3db79470	0.08963859
92	0x3e1e4382	0.1545544
93	0x3e8961e6	0.26832503
94	0x3ce0f0e2	0.027458612
95	0x3e17be28	0.14818633
96	0x3cca5434	0.024698354
97	0x3e59b18a	0.21259132
98	0x3e9e2d7a	0.3089407
99	0x3ce387a4	0.02777464
100	0x3c92d412	0.017923389
101	0x3d16a84d	0.036781598
102	0x3cc52294	0.02406434
103	0x3d47a2e5	0.048739333
104	0x3f81e768	1.0148745
105	0x3d4a4e9d	0.049391378
106	0x3c311db0	0.010810301
107	0x3c600ed2	0.013675408
108	0x3d6c7092	0.057724543
109	0x3dec5554	0.115397125
110	0x3e126325	0.14295633
111	0x3d30f5b3	0.043203067
112	0x3f3d4029	0.73926026
113	0x3df2692a	0.11836465
114	0x3e20be19	0.15697517
115	0x3ddc3ff7	0.10754388
116	0x3de71166	0.11282615
117	0x3eca78af	0.395452
118	0x3e541517	0.2071117
119	0x3dfce907	0.12349134
120	0x3cc08fa0	0.023505986
121	0x3976c7c3	0.00023534805
122	0x3c473a42	0.012159886
123	0x3e4f575c	0.20248169
124	0x3f667c18	0.900331
125	0x3c878ad1	0.016545685
126	0x3d96f363	0.07370641
127	0x3ed52df0	0.4163661

bn2.weight f4 [128]
0	0x3ec5097a	0.38483793
1	0x3de73560	0.11289477
2	0x3f55ccd5	0.83515674
3	0x3f50583f	0.8138465
4	0x3e66c9dc	0.2253794
5	0x3f692f4e	0.91087806
6	0x3f486765	0.7828277
7	0x3eb0a788	0.34502816
8	0x3f141958	0.5785117
9	0x3edc3f6c	0.43017137
10	0x3f010066	0.5039123
11	0x3f01725c	0.50565124
12	0x3daf4c58	0.08559483
13	0x3d44a920	0.048012853
14	0x3ecce344	0.4001714
15	0x3ea24842	0.31695753
16	0x3f49398f	0.7860345
17	0x3f4fd520	0.8118458
18	0x3e4dd654	0.20101291
19	0x3f4c9b27	0.79924244
20	0x3edce300	0.43141937
21	0x3f2c8dd3	0.67403907
22	0x3f3ecad4	0.7452824
23	0x3f4d53af	0.80205816
24	0x3f36d734	0.71422124
25	0x3f6b43e6	0.9190048
26	0x3f58314d	0.8445023
27	0x3f5f77c8	0.87292147
28	0x3ef9f87a	0.48822385
29	0x3ea29aec	0.3175882
30	0x3f464c74	0.7746041
31	0x3f2befb5	0.6716264
32	0x3f310da1	0.6916142
33	0x3f27de19	0.6557327
34	0x3d8c9078	0.06863493
35	0x3f58a8d1	0.84632593
36	0x3e96508e	0.29358333
37	0x3f0e9ccc	0.55708003
38	0x3d294a10	0.041330397
39	0x3f09d8be	0.5384635
40	0x3e8cfdc6	0.27537364
41	0x3f517b56	0.8182882
42	0x3eaa4fae	0.33263916
43	0x3f444714	0.76670957
44	0x3f78b255	0.97147113
45	0x3ef285b8	0.47367644
46	0x3e9b8d08	0.30381036
47	0x3d297d80	0.04137945
48	0x3ee26866	0.44220275
49	0x3f11048b	0.5664756
50	0x3f47a3ba	0.779842
51	0x3f2a5f1e	0.6655139
52	0x3f397ef7	0.7245936
53	0x3ef2100a	0.47277862
54	0x3ed40de2	0.41416842
55	0x3eaa7112	0.3328939
56	0x3ed6d782	0.41961294
57	0x3f6c4673	0.92294997
58	0x3f190112	0.5976726
59	0x3c8fd3e0	0.017557085
60	0x3ced1a40	0.028943181
61	0x3ed5b4a4	0.4173938
62	0x3edf46fa	0.43608838
63	0x3f2ba68e	0.6705102
64	0x3ee3365a	0.44377404
65	0x3f53b9e3	0.82705516
66	0x3f1799f7	0.59219307
67	0x3f339d10	0.70161533
68	0x3eb3f5d6	0.35148495
69	0x3e650668	0.22365725
70	0x3ecdac2c	0.4017042
71	0x3e3e2864	0.18570095
72	0x3f7a1c97	0.97699875
73	0x3d07a620	0.033117414
74	0x3e27fc28	0.16404784
75	0x3d1b25f0	0.037877977
76	0x3bf76580	0.0075499415
77	0x3f7bf332	0.9841796
78	0x3f7e9523	0.99446315
79	0x3eabdeae	0.3356833
80	0x3f76f235	0.9646333
81	0x3e893970	0.26801634
82	0x3eaef8da	0.34174234
83	0x3f72fec6	0.94920003
84	0x3f148307	0.5801243
85	0x3efa8c98	0.4893539
86	0x3ef0311a	0.46912462
87	0x3f4df29e	0.8044833
88	0x3f3588f6	0.7091211
89	0x3f38c99e	0.72182643
90	0x3df9c438	0.12195629
91	0x3e6e8b74	0.23295385
92	0x3f76cbeb	0.96404904
93	0x3efffbc8	0.4999678
94	0x3de9d3f0	0.11417377
95	0x3e9fe39c	0.3122834
96	0x3f37be6f	0.71774954
97	0x3f7a081b	0.9766862
98	0x3e907f8e	0.28222317
99	0x3dec0300	0.1152401
100	0x3f37b62d	0.71762353
101	0x3f251143	0.64479464
102	0x3eef4180	0.4672966
103	0x3e419268	0.18903506
104	0x3e398a3c	0.18119138
105	0x3f560d01	0.8361359
106	0x3f271fa3	0.6528265
107	0x3e99b5b4	0.3002144
108	0x3ebff544	0.3749181
109	0x3f2089f4	0.627105
110	0x3f2ca632	0.67441094
111	0x3f4184f8	0.7559352
112	0x3f161dd2	0.5863925
113	0x3e5b1df4	0.21398145
114	0x3f158c73	0.58417434
115	0x3d4f98e0	0.050682902
116	0x3d7c1fb0	0.061553657
117	0x3f5b2879	0.8560863
118	0x3dd53400	0.10410309
119	0x3f070003	0.5273439
120	0x3e4bed94	0.19914848
121	0x3f3eb031	0.74487597
122	0x3d944490	0.0723964
123	0x3d171450	0.036884606
124	0x3f4cca0b	0.79995793
125	0x3e05cbf0	0.13066077
126	0x3ca755c0	0.020426631
127	0x3f533222	0.8249837

bn2.bias f4 [128]
0	0x00000000	0.0
1	0x00000000	0.0
2	0x00000000	0.0
3	0x00000000	0.0
4	0x00000000	0.0
5	0x00000000	0.0
6	0x00000000	0.0
7	0x00000000	0.0
8	0x00000000	0.0
9	0x00000000	0.0
10	0x00000000	0.0
11	0x00000000	0.0
12	0x00000000	0.0
13	0x00000000	0.0
14	0x00000000	0.0
15	0x00000000	0.0
16	0x00000000	0.0
17	0x00000000	0.0
18	0x00000000	0.0
19	0x00000000	0.0
20	0x00000000	0.0
21	0x00000000	0.0
22	0x00000000	0.0
23	0x00000000	0.0
24	0x00000000	0.0
25	0x00000000	0.0
26	0x00000000	0.0
27	0x00000000	0.0
28	0x00000000	0.0
29	0x00000000	0.0
30	0x00000000	0.0
31	0x00000000	0.0
32	0x00000000	0.0
33	0x00000000	0.0
34	0x00000000	0.0
35	0x00000000	0.0
36	0x00000000	0.0
37	0x00000000	0.0
38	0x00000000	0.0
39	0x00000000	0.0
40	0x00000000	0.0
41	0x00000000	0.0
42	0x00000000	0.0
43	0x00000000	0.0
44	0x00000000	0.0
45	0x00000000	0.0
46	0x00000000	0.0
47	0x00000000	0.0
48	0x00000000	0.0
49	0x00000000	0.0
50	0x00000000	0.0
51	0x00000000	0.0
52	0x00000000	0.0
53	0x00000000	0.0
54	0x00000000	0.0
55	0x00000000	0.0
56	0x00000000	0.0
57	0x00000000	0.0
58	0x00000000	0.0
59	0x00000000	0.0
60	0x00000000	0.0
61	0x00000000	0.0
62	0x00000000	0.0
63	0x00000000	0.0
64	0x00000000	0.0
65	0x00000000	0.0
66	0x00000000	0.0
67	0x00000000	0.0
68	0x00000000	0.0
69	0x00000000	0.0
70	0x00000000	0.0
71	0x00000000	0.0
72	0x00000000	0.0
73	0x00000000	0.0
74	0x00000000	0.0
75	0x00000000	0.0
76	0x00000000	0.0
77	0x00000000	0.0
78	0x00000000	0.0
79	0x00000000	0.0
80	0x00000000	0.0
81	0x00000000	0.0
82	0x00000000	0.0
83	0x00000000	0.0
84	0x00000000	0.0
85	0x00000000	0.0
86	0x00000000	0.0
87	0x00000000	0.0
88	0x00000000	0.0
89	0x00000000	0.0
90	0x00000000	0.0
91	0x00000000	0.0
92	0x00000000	0.0
93	0x00000000	0.0
94	0x00000000	0.0
95	0x00000000	0.0
96	0x00000000	0.0
97	0x00000000	0.0
98	0x00000000	0.0
99	0x00000000	0.0
100	0x00000000	0.0
101	0x00000000	0.0
102	0x00000000	0.0
103	0x00000000	0.0
104	0x00000000	0.0
105	0x00000000	0.0
106	0x00000000	0.0
107	0x00000000	0.0
108	0x00000000	0.0
109	0x00000000	0.0
110	0x00000000	0.0
111	0x00000000	0.0
112	0x00000000	0.0
113	0x00000000	0.0
114	0x00000000	0.0
115	0x00000000	0.0
116	0x00000000	0.0
117	0x00000000	0.0
118	0x00000000	0.0
119	0x00000000	0.0
120	0x00000000	0.0
121	0x00000000	0.0
122	0x00000000	0.0
123	0x00000000	0.0
124	0x00000000	0.0
125	0x00000000	0.0
126	0x00000000	0.0
127	0x00000000	0.0

bn2.running_mean f4 [128]
0	0x00000000	0.0
1	0x00000000	0.0
2	0x00000000	0.0
3	0x00000000	0.0
4	0x00000000	0.0
5	0x00000000	0.0
6	0x00000000	0.0
7	0x00000000	0.0
8	0x00000000	0.0
9	0x00000000	0.0
10	0x00000000	0.0
11	0x00000000	0.0
12	0x00000000	0.0
13	0x00000000	0.0
14	0x00000000	0.0
15	0x00000000	0.0
16	0x00000000	0.0
17	0x00000000	0.0
18	0x00000000	0.0
19	0x00000000	0.0
20	0x00000000	0.0
21	0x00000000	0.0
22	0x00000000	0.0
23	0x00000000	0.0
24	0x00000000	0.0
25	0x00000000	0.0
26	0x00000000	0.0
27	0x00000000	0.0
28	0x00000000	0.0
29	0x00000000	0.0
30	0x00000000	0.0
31	0x00000000	0.0
32	0x00000000	0.0
33	0x00000000	0.0
34	0x00000000	0.0
35	0x00000000	0.0
36	0x00000000	0.0
37	0x00000000	0.0
38	0x00000000	0.0
39	0x00000000	0.0
40	0x00000000	0.0
41	0x00000000	0.0
42	0x00000000	0.0
43	0x00000000	0.0
44	0x00000000	0.0
45	0x00000000	0.0
46	0x00000000	0.0
47	0x00000000	0.0
48	0x00000000	0.0
49	0x00000000	0.0
50	0x00000000	0.0
51	0x00000000	0.0
52	0x00000000	0.0
53	0x00000000	0.0
54	0x00000000	0.0
55	0x00000000	0.0
56	0x00000000	0.0
57	0x00000000	0.0
58	0x00000000	0.0
59	0x00000000	0.0
60	0x00000000	0.0
61	0x00000000	0.0
62	0x00000000	0.0
63	0x00000000	0.0
64	0x00000000	0.0
65	0x00000000	0.0
66	0x00000000	0.0
67	0x00000000	0.0
68	0x00000000	0.0
69	0x00000000	0.0
70	0x00000000	0.0
71	0x00000000	0.0
72	0x00000000	0.0
73	0x00000000	0.0
74	0x00000000	0.0
75	0x00000000	0.0
76	0x00000000	0.0
77	0x00000000	0.0
78	0x00000000	0.0
79	0x00000000	0.0
80	0x00000000	0.0
81	0x00000000	0.0
82	0x00000000	0.0
83	0x00000000	0.0
84	0x00000000	0.0
85	0x00000000	0.0
86	0x00000000	0.0
87	0x00000000	0.0
88	0x00000000	0.0
89	0x00000000	0.0
90	0x00000000	0.0
91	0x00000000	0.0
92	0x00000000	0.0
93	0x00000000	0.0
94	0x00000000	0.0
95	0x00000000	0.0
96	0x00000000	0.0
97	0x00000000	0.0
98	0x00000000	0.0
99	0x00000000	0.0
100	0x00000000	0.0
101	0x00000000	0.0
102	0x00000000	0.0
103	0x00000000	0.0
104	0x00000000	0.0
105	0x00000000	0.0
106	0x00000000	0.0
107	0x00000000	0.0
108	0x00000000	0.0
109	0x00000000	0.0
110	0x00000000	0.0
111	0x00000000	0.0
112	0x00000000	0.0
113	0x00000000	0.0
114	0x00000000	0.0
115	0x00000000	0.0
116	0x00000000	0.0
117	0x00000000	0.0
118	0x00000000	0.0
119	0x00000000	0.0
120	0x00000000	0.0
121	0x00000000	0.0
122	0x00000000	0.0
123	0x00000000	0.0
124	0x00000000	0.0
125	0x00000000	0.0
126	0x00000000	0.0
127	0x00000000	0.0

bn2.running_var f4 [128]
0	0x3f800000	1.0
1	0x3f800000	1.0
2	0x3f800000	1.0
3	0x3f800000	1.0
4	0x3f800000	1.0
5	0x3f800000	1.0
6	0x3f800000	1.0
7	0x3f800000	1.0
8	0x3f800000	1.0
9	0x3f800000	1.0
10	0x3f800000	1.0
11	0x3f800000	1.0
12	0x3f800000	1.0
13	0x3f800000	1.0
14	0x3f800000	1.0
15	0x3f800000	1.0
16	0x3f800000	1.0
17	0x3f800000	1.0
18	0x3f800000	1.0
19	0x3f800000	1.0
20	0x3f800000	1.0
21	0x3f800000	1.0
22	0x3f800000	1.0
23	0x3f800000	1.0
24	0x3f800000	1.0
25	0x3f800000	1.0
26	0x3f800000	1.0
27	0x3f800000	1.0
28	0x3f800000	1.0
29	0x3f800000	1.0
30	0x3f800000	1.0
31	0x3f800000	1.0
32	0x3f800000	1.0
33	0x3f800000	1.0
34	0x3f800000	1.0
35	0x3f800000	1.0
36	0x3f800000	1.0
37	0x3f800000	1.0
38	0x3f800000	1.0
39	0x3f800000	1.0
40	0x3f800000	1.0
41	0x3f800000	1.0
42	0x3f800000	1.0
43	0x3f800000	1.0
44	0x3f800000	1.0
45	0x3f800000	1.0
46	0x3f800000	1.0
47	0x3f800000	1.0
48	0x3f800000	1.0
49	0x3f800000	1.0
50	0x3f800000	1.0
51	0x3f800000	1.0
52	0x3f800000	1.0
53	0x3f800000	1.0
54	0x3f800000	1.0
55	0x3f800000	1.0
56	0x3f800000	1.0
57	0x3f800000	1.0
58	0x3f800000	1.0
59	0x3f800000	1.0
60	0x3f800000	1.0
61	0x3f800000	1.0
62	0x3f800000	1.0
63	0x3f800000	1.0
64	0x3f800000	1.0
65	0x3f800000	1.0
66	0x3f800000	1.0
67	0x3f800000	1.0
68	0x3f800000	1.0
69	0x3f800000	1.0
70	0x3f800000	1.0
71	0x3f800000	1.0
72	0x3f800000	1.0
73	0x3f800000	1.0
74	0x3f800000	1.0
75	0x3f800000	1.0
76	0x3f800000	1.0
77	0x3f800000	1.0
78	0x3f800000	1.0
79	0x3f800000	1.0
80	0x3f800000	1.0
81	0x3f800000	1.0
82	0x3f800000	1.0
83	0x3f800000	1.0
84	0x3f800000	1.0
85	0x3f800000	1.0
86	0x3f800000	1.0
87	0x3f800000	1.0
88	0x3f800000	1.0
89	0x3f800000	1.0
90	0x3f800000	1.0
91	0x3f800000	1.0
92	0x3f800000	1.0
93	0x3f800000	1.0
94	0x3f800000	1.0
95	0x3f800000	1.0
96	0x3f800000	1.0
97	0x3f800000	1.0
98	0x3f800000	1.0
99	0x3f800000	1.0
100	0x3f800000	1.0
101	0x3f800000	1.0
102	0x3f800000	1.0
103	0x3f800000	1.0
104	0x3f800000	1.0
105	0x3f800000	1.0
106	0x3f800000	1.0
107	0x3f800000	1.0
108	0x3f800000	1.0
109	0x3f800000	1.0
110	0x3f800000	1.0
111	0x3f800000	1.0
112	0x3f800000	1.0
113	0x3f800000	1.0
114	0x3f800000	1.0
115	0x3f800000	1.0
116	0x3f800000	1.0
117	0x3f800000	1.0
118	0x3f800000	1.0
119	0x3f800000	1.0
120	0x3f800000	1.0
121	0x3f800000	1.0
122	0x3f800000	1.0
123	0x3f800000	1.0
124	0x3f800000	1.0
125	0x3f800000	1.0
126	0x3f800000	1.0
127	0x3f800000	1.0
