trained_critic.pth (torch_old, 92390 bytes, 13 tensors)

fcs1.weight f4 [128, 33]
000000 a9 cc c8 3d 1f 08 8b 3d 73 ed a3 bc 4d 7a d9 3c
       0.09804661 0.06788658 -0.020010686 0.026547575
000010 07 73 7c 3c 62 c2 e6 bc 37 13 df bd 0c b9 79 3d
       0.015408284 -0.02816886 -0.10892337 0.06096749
000020 82 69 88 3d f1 a2 cc 3d a1 10 58 3d 70 de 27 3e
       0.06660749 0.09992016 0.052750234 0.16393447
000030 c2 b1 48 bd 7f 7a d1 bd e0 6e 8e 3e 76 2a 39 3d
       -0.048997648 -0.102284424 0.27818966 0.04520651
000040 6f ac 2a 3e 0b 5f e5 bd 92 c2 a9 bc fb d8 8c bb
       0.1666734 -0.11199769 -0.020722661 -0.004298327
000050 3f 5d 7f bb 6b 29 11 be 85 f3 fe bd b4 03 e6 3c
       -0.003896549 -0.14175956 -0.124487914 0.028077938
000060 11 7b a4 3d a5 92 b8 3d 7e b5 70 bd c6 6d 81 3c
       0.080312856 0.09012345 -0.058766834 0.015799414
000070 27 17 1c 3e 1e af 52 3d f6 e8 ef bd e2 01 34 3d
       0.15243207 0.051436536 -0.11714356 0.043947108
000080 35 66 e1 3e 2c 64 0b be 40 53 f4 3d 29 35 26 3e
       0.4402329 -0.13612431 0.11929941 0.16231216
000090 e0 32 29 be dd 69 7d 3d ad e6 6a 3d 15 d0 75 3e
       -0.16523314 0.061868537 0.057348896 0.24005158
0000a0 d1 29 19 3b b9 86 73 bd 25 8d 00 be b2 08 18 bd
       0.0023370872 -0.059454653 -0.12553842 -0.037117667
0000b0 e6 5b d8 3c cd b8 10 bd ec 22 45 3e 62 62 17 be
       0.026411008 -0.03533249 0.19251603 -0.14783624
0000c0 98 63 11 be 60 67 df bd cc 5c 58 3d 5c 0e 8b bd
       -0.14198148 -0.10908389 0.052822873 -0.06789848
0000d0 0c 05 83 bd f8 c9 a5 ba 60 99 25 bc 90 84 e2 3c
       -0.06397447 -0.0012648692 -0.010107368 0.027651101
0000e0 fa c6 ef 3c f4 40 bf bd 59 a5 00 bd 15 7e 11 be
       0.029269684 -0.09338561 -0.031407688 -0.14208253
0000f0 fd 99 a1 3d 3f b5 51 3d e0 03 cd bb 92 ce 29 bd
       0.07890699 0.05119824 -0.0062565655 -0.041456766
000100 3d 7e 82 3d 95 20 37 be 2f 43 11 3d 59 16 a5 bc
       0.06371734 -0.17883523 0.035464462 -0.020152258
000110 b2 dd d4 bd d5 7f 6c 3e 09 c1 19 bb dc f8 a2 bd
       -0.103938475 0.23095639 -0.0023461005 -0.079576224
000120 fa c8 e4 3c 24 29 32 bd 0e 2f 36 3e 1d 24 33 3d
       0.027927864 -0.043496266 0.17791387 0.043735612
000130 eb 75 0f 3e c8 20 cd 3c 35 17 8e be bd e4 4b bd
       0.14009826 0.025040045 -0.2775208 -0.04977869
000140 3b fa 00 3e 90 2a 06 3d 15 82 20 be 27 ad 1f 3e
       0.12595455 0.032755435 -0.15674622 0.15593396
000150 75 38 e6 3c c4 1a d1 bb 93 d9 86 bd d5 03 19 be
       0.028103093 -0.0063813645 -0.06584468 -0.14942868
000160 f5 c0 88 3d 65 36 88 3d 5e a1 e4 bc ad da 5a be
       0.06677429 0.06651 -0.027908977 -0.2137248
000170 a0 85 17 bd ae 43 f1 bd d6 db a6 bd 9d b8 90 3d
       -0.03699267 -0.11780487 -0.08147399 0.07066462
000180 4b bf 42 3e 80 51 9e 3c 0e 27 b2 be 0e 81 7b bd
       0.19018285 0.019325972 -0.3479542 -0.061402373
000190 dc c2 13 3e 88 23 62 3e db 13 88 be 03 6c 83 3a
       0.14429802 0.22083867 -0.2657765 0.0010026697
0001a0 6b 7a 9b 3e c5 0a 5b 3d cf da 5d bd 25 d3 f3 bd
       0.30366835 0.053477068 -0.05416375 -0.11905507
0001b0 ce 26 2e be b4 e3 23 bc c8 3e b3 3d ac 57 d2 bc
       -0.1700699 -0.010003019 0.08752209 -0.02567657
0001c0 2e b5 5f bd 74 91 a2 bc f5 28 8a 3c 01 7d 6b be
       -0.054616146 -0.019844748 0.016865233 -0.22996904
0001d0 c5 f9 3b 3e 87 87 79 bc 0e 24 80 bd c4 ce 25 3b
       0.18356998 -0.015230066 -0.06256877 0.0025300244
0001e0 c3 0a c4 3c c8 23 1f bd e8 25 99 bc c4 f8 4c bd
       0.023930913 -0.038852483 -0.018694833 -0.05004193
0001f0 60 08 5c bd 75 36 bb 3d bc 8f 2e 3d c4 9a 74 be
       -0.053718925 0.09141246 0.042617545 -0.23887163
000200 64 f3 b8 3c 0a cb dd 3b 44 d2 a6 3c 89 3d 3d 3c
       0.022576995 0.006768589 0.020363934 0.011550316
000210 74 9a 42 3d 8b 43 c3 3d 75 12 56 3d ff 43 8f be
       0.04751058 0.09534367 0.052263696 -0.27981564
000220 3b bb a9 bd c7 15 d1 be 90 7e 32 3e 99 3e ad bc
       -0.082876645 -0.40836927 0.17431092 -0.021148013
000230 bc eb 66 3d 15 95 30 bd a1 dc be bc 71 c5 85 bc
       0.056377158 -0.043110926 -0.023298563 -0.016329499
000240 e3 b1 75 bc 90 5d 12 be d0 1e e9 bd c2 bf fa bd
       -0.014996025 -0.14293504 -0.1138283 -0.12243606
000250 14 6d 23 be 10 d0 b8 bd 74 ac 16 3c 48 65 0c 3c
       -0.15959579 -0.0902406 0.0091963895 0.008569069
000260 1e c6 98 3b 71 d4 f8 3c ec 50 65 3d 52 8f d4 bc
       0.0046622893 0.030374737 0.055985376 -0.025947247
000270 39 7d bb bc 13 31 33 bd 83 46 bf 3d 3f 07 d6 3d
       -0.02288686 -0.043747973 0.09339621 0.10450601
000280 5e 1a aa bc 53 5c 9e 3d 38 c9 02 bd 8c eb a0 bc
       -0.020764526 0.07732453 -0.03193018 -0.019643568
000290 27 9b 24 bf a9 a3 0d 3d 19 75 bc bd 53 c0 da bc
       -0.64299244 0.034579907 -0.09202022 -0.026703035
0002a0 44 3c ed bd 8a 04 28 3e b0 f7 a3 3c e1 30 6b 3b
       -0.115837604 0.16407982 0.020015568 0.0035887288
0002b0 97 ef 25 bd f8 c1 34 bd 59 bf 99 bc 0b ed 1a 3c
       -0.040511694 -0.044130296 -0.018768 0.0094559295
0002c0 14 22 19 bd e4 06 ae bd 4d 41 8a be 29 39 98 3c
       -0.037386015 -0.08497408 -0.27002946 0.018581944
0002d0 f6 33 2a bd b6 36 43 3e e3 96 93 bc c0 a6 26 3e
       -0.04155346 0.1906384 -0.018016284 0.16274548
0002e0 27 b9 bd bd 45 56 99 bd 23 76 89 3d a0 51 dd 3d
       -0.09263831 -0.07487158 0.06711986 0.10806584
0002f0 4d 1d 6b 3d 28 20 e9 3d 39 bb db bd 45 d9 b5 3d
       0.05740099 0.113830864 -0.10729069 0.088793315
000300 73 d1 34 3e d6 1d 94 bc 61 35 aa 3d 21 49 27 be
       0.17658024 -0.018080633 0.083109625 -0.1633649
000310 66 36 6b 3d 32 2c 87 3d ce 0d c8 3d 9a 4c 1c bd
       0.057424925 0.066002265 0.09768258 -0.03815899
000320 6f 52 0a bd 01 81 90 be 58 1a fc 3b 14 4a 0b be
       -0.03377002 -0.28223422 0.00769357 -0.13602477
000330 52 1b 2a 3d e4 d6 48 bd 5d c6 e8 3d 4e 23 23 be
       0.04152996 -0.04903306 0.1136596 -0.15931436
000340 9c 8c 19 bd f2 8e 28 be dc 86 7d bc a6 1b 90 39
       -0.03748761 -0.1646078 -0.0154740475 0.0002748642
000350 81 ab 0d be 6a 10 e2 3c c0 39 0b 3e 13 f6 1a be
       -0.13834955 0.027595717 0.13596249 -0.15132932
000360 d1 75 dc bd b2 38 86 bd a7 7c 10 bd fe b1 77 bc
       -0.10764659 -0.065537825 -0.035275128 -0.01511812
000370 23 1b ef bd 1d 82 bc bc d3 0e 31 bd bd fa 77 3d
       -0.11675098 -0.023011262 -0.043227028 0.060541857
000380 5b 5d cd bb 08 c9 a0 3d 76 de 3d 3e 50 bc 7c bd
       -0.0062672324 0.07850844 0.18541893 -0.061703026
000390 00 22 cf bd e0 e3 1d bb e0 da 21 3f 7e ef 03 be
       -0.10113907 -0.0024092123 0.632246 -0.12884328
0003a0 c5 56 c0 3d 60 1a 2e bc fc 78 25 bd 49 88 a5 3c
       0.0939155 -0.0106264055 -0.040398583 0.020206587
0003b0 f6 ec b4 3c 4d bf ce 3c dd e3 f6 bb a6 67 9b 3c
       0.022085648 0.025237704 -0.0075344876 0.018970322
0003c0 3b 76 57 3c b9 20 1f bd b0 89 a5 3d f9 29 94 bc
       0.013150747 -0.038849566 0.080829024 -0.01808642
0003d0 a6 b7 32 3e d6 06 18 bd fb d4 b3 3d 27 24 2d be
       0.17452869 -0.037115894 0.08780857 -0.16908322
0003e0 a1 22 55 3c e8 9c fd 3c 19 72 58 bb 0c 9b a8 3c
       0.013008744 0.030958608 -0.0033026992 0.020581745
0003f0 b6 de 8e 3d cc a1 a3 3c 10 4e 33 3d 4c 52 9e bc
       0.069760725 0.019974612 0.043775618 -0.019326352

fcs1.bias f4 [128]
000000 4a 0a 89 3d 47 26 20 3d ab 42 64 3d fd 01 70 bb
       0.066914156 0.039099004 0.055727642 -0.003662228
000010 03 71 09 be ac e1 84 bd d7 1b 96 3d 8d 28 9d be
       -0.13422017 -0.06488356 0.07329529 -0.30695
000020 b6 d1 4f be 16 89 01 3e e5 aa 70 be c3 bb 22 bd
       -0.20294842 0.1264995 -0.23502691 -0.039729845
000030 e7 b3 3b 3e d7 dc d0 bd 89 8f 61 be b2 56 a5 3e
       0.18330346 -0.10198372 -0.2202741 0.32292706
000040 46 84 9a bd 39 d4 32 be a2 a6 61 be c3 d0 9e bd
       -0.075447604 -0.17463769 -0.22036222 -0.07754662
000050 19 5b 09 be 3a b2 c4 be dd 94 b3 bd 5a 59 b5 bd
       -0.13413657 -0.38417226 -0.08768628 -0.08854933
000060 51 e1 2b 3d 57 91 6c be 52 16 fa bd 41 52 28 be
       0.041962925 -0.23102318 -0.122112885 -0.16437627
000070 f0 35 bb be eb ba 2c 3d ff f8 d3 3c c2 3e 82 be
       -0.3656459 0.042170446 0.025875567 -0.25438505
000080 81 66 a5 bd cf c7 a5 bc 56 38 a5 be 1d 2f f7 bd
       -0.08076192 -0.020236878 -0.32269543 -0.12069533
000090 e4 ef 34 be ef ef 89 3d 12 e8 20 be 8e 1d 26 3d
       -0.17669636 0.06735217 -0.15713528 0.04055553
0000a0 58 b5 d8 3d 51 0f 94 3d 0a ae 82 3d 50 94 85 3d
       0.105814636 0.07229484 0.063808516 0.06522429
0000b0 8f f4 50 bd f1 91 e5 3d aa a3 a2 be be 12 02 3e
       -0.05101448 0.11209477 -0.3176549 0.12702462
0000c0 51 a7 51 3d 1b cf 37 3d 43 08 16 3e d3 f9 ad 3d
       0.051184956 0.044875246 0.14651589 0.08494916
0000d0 88 29 8c 3e bd d4 db bd f7 02 ae bb 72 88 1f 3c
       0.27375436 -0.10733936 -0.005310412 0.009737121
0000e0 0b ee 85 bd d2 a5 d8 3d 92 1a 8f bc 16 76 1f be
       -0.06539544 0.10578503 -0.017468724 -0.1557239
0000f0 be a9 78 3b fc 12 c6 3d 14 34 89 bd 75 5c a1 be
       0.003794297 0.0967159 -0.06699386 -0.31515852
000100 d7 fc f9 bd f4 70 21 be ab cf 53 bc b5 00 fd bd
       -0.122064285 -0.15765744 -0.01292793 -0.123536505
000110 75 43 53 bd 7f 28 2e be 36 24 94 be 6b 93 d1 bd
       -0.051578004 -0.17007636 -0.28933877 -0.10233196
000120 2e 82 a0 3c a9 d9 2f 3d b2 43 7d 3d a6 8d 0a be
       0.019593325 0.042932186 0.061832137 -0.13530597
000130 f6 69 06 3d c1 6e 88 be 32 30 36 bd 5f 56 1f be
       0.032815896 -0.26647 -0.044479556 -0.15560292
000140 1f 9b fb bd 23 94 4f 3d b1 9d 11 bd 04 a2 58 3d
       -0.122854464 0.050678384 -0.035550777 0.052888885
000150 44 28 7b 3d cb 9d 39 be 20 fa 83 bd d8 09 08 be
       0.061317697 -0.181266 -0.06444192 -0.13285005
000160 e6 63 1b 3d ee 1f 50 bd 5a f7 5a be dc c2 f0 3d
       0.037937067 -0.0508117 -0.2138342 0.117559165
000170 87 1c 9d be fd 0e 58 3d ed a6 17 3e 42 67 4b be
       -0.30685827 0.05274867 0.14809771 -0.19863608
000180 8b 4e 17 bd a1 8a b4 bd 23 3e 26 3e 83 84 c5 bd
       -0.03694014 -0.08815504 0.16234641 -0.09644415
000190 f5 f9 78 be 43 89 a0 bc 66 5b a0 bd af 6f 11 3c
       -0.24314101 -0.019596701 -0.07829933 0.008876725
0001a0 22 5f 77 bd 04 b8 75 be 31 55 48 be 99 e2 51 be
       -0.06039346 -0.23995978 -0.19563748 -0.20496596
0001b0 02 e9 56 be 06 7b 42 be 70 b3 0e be b6 aa 85 bd
       -0.20987323 -0.18992242 -0.13935637 -0.06526701
0001c0 7f b1 96 3d 77 3a 7f 3e a0 a9 00 be c7 50 1b bd
       0.073580734 0.24924646 -0.12564707 -0.037918832
0001d0 f8 e5 12 bd cd 51 12 3e d3 33 26 be 46 3f 93 bd
       -0.035863847 0.14289017 -0.16230707 -0.07189803
0001e0 ae 4f 7d be 7c d5 32 3e b5 a0 79 3c 45 cb f2 3d
       -0.24737427 0.1746425 0.015236069 0.11855177
0001f0 62 a1 24 bc 60 fd 6f 3c 20 78 2b 3e 32 0f 46 be
       -0.010048242 0.014647812 0.16745043 -0.19341734

fc2.weight f4 [128, 132]
000000 1f 55 df 3d 1b 5a 1b be ab b2 3d bc 13 89 62 3d
       0.109049074 -0.15171091 -0.011578242 0.055306505
000010 e0 c2 69 be ea e5 b0 3d e0 79 48 3d 6e 21 31 be
       -0.22828245 0.086376026 0.048944354 -0.17297909
000020 9c a1 9c 3d c2 68 99 bd 63 f0 b4 3d 1c ee ad 3d
       0.07648012 -0.07490684 0.08834913 0.084926814
000030 35 c9 46 bd a3 d6 99 bd d1 0e 0f 3c f2 7b bc 3c
       -0.04853173 -0.07511642 0.00873156 0.02300832
000040 ca 7a 34 3e 37 d5 de bd 0b 53 bd 3d c7 09 1d be
       0.17624965 -0.10880511 0.09244355 -0.15335761
000050 e5 b4 88 bd 7c 33 a8 bd a7 da b5 bd 12 1d e4 3c
       -0.06675128 -0.08212945 -0.08879595 0.027845893
000060 97 c8 aa 3d f6 81 aa bd 5f 6a 6a 3d a2 3a be 3d
       0.08339041 -0.08325569 0.05723035 0.09288527
000070 95 2e 51 bd 0a 92 38 bd 90 2e ca bd cd 56 78 3c
       -0.051069815 -0.04506115 -0.09872162 0.015157414
000080 ce 08 0a 3e fc a2 8d 3d 69 7e a9 bd 7b 9a 2e 3c
       0.13479921 0.069158524 -0.08276064 0.010656948
000090 c6 43 73 bd b5 f1 31 be cd 48 89 3d 21 0f 5b 3b
       -0.059390806 -0.1737736 0.06703339 0.0033425766
0000a0 08 d5 29 be 03 48 e8 3d 71 0f 31 bc 7d b6 43 b8
       -0.16585171 0.1134186 -0.010806904 -4.666158e-05
0000b0 f1 a6 5c bb ac e4 65 3d f7 55 5b 3c 94 4e e6 3d
       -0.003366884 0.05612628 0.013387195 0.11245456
0000c0 64 a1 01 be 5e 7e 27 3e 5b db af 3c c9 39 fa 3d
       -0.12659222 0.16356799 0.021466902 0.12218053
0000d0 7d b2 63 be b0 b0 9d 3d 7a 8b 93 3d 55 d8 9e be
       -0.22236057 0.07699716 0.072043374 -0.31024423
0000e0 0a 2f 12 bd 1d b1 87 bb 40 9f 70 3c eb a6 82 bd
       -0.03568939 -0.0041409866 0.014686406 -0.06379493
0000f0 e9 aa 1f bd ff 6e 0e bb e2 ec 21 be cb b8 e0 3d
       -0.038981352 -0.002173364 -0.1581302 0.109727465
000100 2f 51 b4 3d a0 f8 24 bd c8 2b 18 be 2b 00 e6 bc
       0.08804547 -0.04027617 -0.14860451 -0.028076252
000110 41 36 ae bd 3e 03 06 3c 26 2e 0b be 35 cf 46 bd
       -0.08506442 0.008179484 -0.13591823 -0.04853745
000120 26 ff 90 3d bb 66 a6 3d 37 f6 7a 3c a0 aa d0 bd
       0.07079916 0.08125063 0.015317491 -0.10188794
000130 78 06 ae 3d fb b5 0c bc 74 30 9b 3c 01 5c a7 bd
       0.084973276 -0.008588309 0.018944003 -0.08171845
000140 8f 7b 09 3c e5 bb 05 be 31 c3 c1 bd 36 a0 4b bd
       0.008391275 -0.13059957 -0.09461058 -0.049713336
000150 95 b7 42 be 2c 25 a2 3d 9b 67 d3 bd 50 f8 9e bd
       -0.19015343 0.07917246 -0.103224955 -0.077622056
000160 2b cb 88 bc 5c 45 8f be 8f f6 33 bb 0e 7d 87 bd
       -0.01669844 -0.27982605 -0.0027460193 -0.06615649
000170 f2 68 06 be 0e 0d ee bd 02 1d 96 bd fa b8 53 3d
       -0.13125971 -0.11623584 -0.073297516 0.05169008
000180 22 1d c0 bd f2 51 ad bd ad f1 b4 bc 21 61 cf bd
       -0.09380557 -0.084628955 -0.022087896 -0.10125948
000190 79 45 1d 3d 46 82 1e 3e 03 9f bc 3d a9 46 27 3d
       0.038396332 0.15479383 0.092100166 0.04083887
0001a0 40 50 0c 3e c7 8e 3e bd 02 14 a4 bd f5 2d 16 be
       0.13702488 -0.04652288 -0.08011629 -0.14665969
0001b0 7e 09 ad 3c b4 28 0a be 1c b3 3b 3e 30 48 85 3d
       0.02112269 -0.1349209 0.18330044 0.06507909
0001c0 79 c9 c2 bc 2e 92 54 3e 5a 3c 78 3d d6 c2 8a bb
       -0.02377771 0.20758888 0.06060443 -0.004234652
0001d0 f3 88 93 be be 2c 98 bd f4 4c 3f 3d e4 a3 c3 bb
       -0.2881542 -0.07430409 0.046704248 -0.005970465
0001e0 a5 38 6c bd 29 0e 39 be 3f a1 d4 ba e8 43 12 be
       -0.057671208 -0.18071808 -0.0016222371 -0.14283717
0001f0 84 cc 05 3e 66 23 7a bd a2 42 87 3d e1 ff 6f bc
       0.13066298 -0.061068915 0.06604506 -0.014648409
000200 e3 62 b5 3c 28 14 33 bd 5b d7 24 bd bf 10 e8 3d
       0.02214188 -0.043720394 -0.04024444 0.11331319
000210 00 9b c2 bd af 77 15 be d0 88 f2 3c a8 26 32 bd
       -0.0950222 -0.14596437 0.029606253 -0.043493897
000220 4f 17 5f be 19 a2 03 be 35 90 af 3d 21 2d 19 be
       -0.21786235 -0.12854804 0.08572427 -0.14958622
000230 fd b3 9d 3d 6f fd a8 3d 8f 5c bc bd dc ef 08 3d
       0.07700346 0.082514636 -0.09197342 0.033431873
000240 ae 39 a6 3d c9 ce 99 3c 8e 5d 37 bd 89 96 55 3d
       0.0811647 0.01877536 -0.044766955 0.052145515
000250 c8 40 9a 3e 71 57 44 3d 2a 34 30 3d ae bb f5 bd
       0.3012755 0.047934953 0.043018498 -0.11998688
000260 00 2d 35 bd d2 78 8f 3d 6d 7d b6 3d d8 02 19 be
       -0.04423237 0.070054665 0.08910642 -0.14942491
000270 e0 c3 49 bd 98 ec d0 bd b5 9e 3d 3c 9c de 1f 3c
       -0.049259067 -0.10201377 0.011573483 0.009757664
000280 73 65 c9 3c 86 2d 2c 3d 20 8b 1a be b1 60 15 bd
       0.024584508 0.042035602 -0.15092134 -0.036469165
000290 cb a4 8e 3d b8 f0 f2 bd 63 d3 63 be 19 5c 1f ba
       0.069650255 -0.1186232 -0.22248606 -0.0006079092
0002a0 17 33 9a 3d 2c 44 45 bc a6 42 0e 3e 9a ac 43 bd
       0.07529276 -0.012040179 0.13892612 -0.047772028
0002b0 0e d9 58 3d dd cc 8f 3d f3 25 13 bc a4 06 8e be
       0.052941374 0.070214964 -0.008981216 -0.2773944
0002c0 89 c1 78 3d cc 94 0f bd 2b 00 19 bd e9 0a a3 bd
       0.060731445 -0.035054013 -0.037353676 -0.07961065
0002d0 03 f4 99 bc bc 46 4f bd 75 c0 ee 3b e6 a9 bf bd
       -0.018793112 -0.050604567 0.0072861263 -0.093585774
0002e0 e5 08 69 3d 96 e0 23 3d 50 66 88 bd 9c 03 09 be
       0.056893248 0.040009104 -0.066601396 -0.13380283
0002f0 46 6b ae 3d 8e 4a 70 bd 9d 59 3f bd 37 16 0f bd
       0.085165545 -0.05866485 -0.04671632 -0.034933295
000300 a0 05 bd 3c a4 4b ad bd f5 59 0a bc b8 80 81 bd
       0.023073971 -0.08461693 -0.008444299 -0.06323379
000310 40 2d 31 be 95 da 01 bd 98 57 ee 3c 23 6b 51 3e
       -0.17302418 -0.031702597 0.029094502 0.20451026
000320 99 b7 7a 3c 0b 9a e0 bc 98 e5 4c 3d eb c7 df bc
       0.015302562 -0.027417203 0.050023645 -0.027317008
000330 0a 67 e6 bb 97 86 25 be 4a 1e 3d 38 e5 a1 0b 3e
       -0.007031326 -0.16164623 4.508932e-05 0.13635977
000340 5d 05 16 be 30 ca aa 3d c1 64 e7 3b d0 f4 ee 3d
       -0.14650483 0.083393455 0.0070615713 0.11667788
000350 42 83 83 bd 56 b8 7f bc fe db e5 3d 9b 31 10 3c
       -0.0642152 -0.015607914 0.11223601 0.008800889
000360 86 d2 f6 3d 07 18 22 be 2c 1b c8 3c ee 86 65 3d
       0.12051873 -0.15829478 0.024427019 0.056036882
000370 49 f2 98 bd c1 63 93 3d 1e 1e 49 bd 76 d4 ca bd
       -0.07468087 0.07196761 -0.049100988 -0.09903805
000380 43 53 10 3a 2e 12 d9 3b a3 b7 ab 3d 9b 36 84 bd
       0.0005505571 0.0066244816 0.08384635 -0.06455728
000390 31 a9 62 3d 54 f9 ce bd f7 08 03 be 89 d1 ea bd
       0.055337135 -0.10106149 -0.12796389 -0.11465747
0003a0 80 49 1c 3d b1 d3 b4 bc a8 7d 31 bd 21 77 dd 3d
       0.038156033 -0.022073599 -0.043332726 0.10813738
0003b0 de 5a 9f 3d e7 ac 07 3d 55 5a 65 3b b9 e7 ea 3d
       0.077810034 0.033123877 0.003499647 0.11469979
0003c0 20 cd 92 3d d2 b4 5e bd 5d 8f c9 3c b2 8d 12 3e
       0.07168031 -0.054371662 0.024604494 0.14311865
0003d0 01 95 1e bc 39 15 5e 3e c8 95 65 bc 6f d3 99 3d
       -0.00967908 0.21687783 -0.014012761 0.07511031
0003e0 17 be 73 3e 43 b6 19 3e 52 ce 31 bd a4 9b aa bc
       0.23802982 0.15010934 -0.043409653 -0.020826168
0003f0 bb a4 ed 3d 36 03 aa bd f9 d4 11 be 19 aa 92 3d
       0.116036855 -0.08301394 -0.14241399 0.0716135

fc2.bias f4 [128]
000000 5b b4 7d be dd ea 60 be c4 62 89 3e cf 2d 95 be
       -0.24775831 -0.21964593 0.26833165 -0.29136512
000010 bd 38 d8 3d a0 e6 90 be 49 96 83 be 40 21 5e be
       0.10557697 -0.28300953 -0.25700596 -0.21692371
000020 9a 7f 61 3e dd c7 5f be ae 3a 33 3e 56 ee 85 3e
       0.22021332 -0.21853586 0.17502853 0.26158398
000030 b6 b5 48 be a6 24 68 3e 82 0b 64 be 9c 8a 55 be
       -0.19600567 0.2267023 -0.22270015 -0.20853657
000040 be 17 4c be 81 94 8f 3e 02 f0 06 3d 1a 29 15 3e
       -0.19930932 0.28042987 0.032943733 0.1456646
000050 1a e5 89 3c 13 80 bb 3d 98 e8 7e be 12 04 83 3c
       0.016832877 0.091552876 -0.24893415 0.015993152
000060 07 c2 38 3e 88 8c e3 3d 65 83 8c be f6 e4 7d be
       0.18042766 0.111107886 -0.27443996 -0.24794373
000070 93 54 68 be c2 64 73 be 2a 47 bb bc 73 e6 72 be
       -0.22688513 -0.23768905 -0.022861082 -0.23720722
000080 7f d1 78 be 02 fe 41 be 09 ee 15 be d2 6c 61 be
       -0.24298666 -0.18944553 -0.14641584 -0.22014168
000090 5f e3 4e bc 02 d1 74 3e f1 1e 72 3e 62 1d 4d 3e
       -0.012627452 0.23907855 0.23644616 0.2003074
0000a0 93 e9 29 be 83 44 21 be ad 74 40 be 45 c3 f1 bc
       -0.16593008 -0.15748791 -0.18794508 -0.029512057
0000b0 89 63 bd 3e 76 d2 2c be f1 9b e1 3d 85 2b 81 bd
       0.36990002 -0.1687716 0.110160716 -0.06307129
0000c0 c0 ae ad 3e 12 35 29 be 34 03 85 be 9b ef 69 3e
       0.33922386 -0.16524151 -0.25979006 0.22845308
0000d0 01 fe f0 bd e5 33 2b be b1 97 4a bd 80 e7 5a 3d
       -0.117671974 -0.16719015 -0.04946107 0.05344343
0000e0 ec cf 6e bd ba 1b d4 3d 70 69 47 be e3 c2 9d 3e
       -0.05830376 0.10356851 -0.19473815 0.3081275
0000f0 cd 30 15 3e ae 95 db 3e 81 6e 2c 3e 1d 89 9e be
       0.14569397 0.42887634 0.16839029 -0.30963984
000100 80 36 59 be 86 e9 1b be 4f db 50 be 65 b0 e7 3c
       -0.21212196 -0.15225801 -0.2039616 0.028282354
000110 45 70 0d be e6 3d 57 bd aa 5e c5 bc 85 d4 46 be
       -0.13812359 -0.052549265 -0.02409299 -0.19417007
000120 f5 32 bc bd b2 94 0d 3c de 02 2e 3e af 9e e6 3d
       -0.09189407 0.008641409 0.16993281 0.11260735
000130 67 da 1f be 97 06 85 be 3b 31 a9 3d 6f 63 19 3e
       -0.15610658 -0.2598159 0.08261343 0.14979337
000140 a5 d2 1f 3e 9f f7 2f be bc c7 bb 3d 91 37 eb 3d
       0.15607698 -0.17184304 0.09168956 0.11485208
000150 11 40 1c 3e 06 54 ac be 2f 59 eb 3d fb 7e 30 3e
       0.15258814 -0.33657855 0.1149162 0.17235939
000160 fb 65 dd 3c cb 17 f0 3e a6 4b 9d 3e ae 56 29 3e
       0.027026167 0.46893153 0.30721778 0.16536972
000170 e8 3f 8b be e6 76 41 bd a4 2f d4 3d 5b ed 8c be
       -0.27197194 -0.04723253 0.10360649 -0.27524838
000180 47 7d 45 be f6 2c 82 3e 5e 51 41 be 94 92 99 3e
       -0.19286071 0.25424927 -0.18878695 0.29994643
000190 74 14 b4 be 8b 4a ae 3e 72 1d 88 be cd dd 88 be
       -0.35171854 0.34041247 -0.26584965 -0.2673172
0001a0 e7 b1 62 be d5 37 9a be 4d 57 31 be 64 c2 bf 3d
       -0.22138177 -0.3012072 -0.17318459 0.09363249
0001b0 1e 1e 9f be 67 99 67 be ff 34 1b 3e d3 c6 74 3d
       -0.31077665 -0.22617112 0.15156935 0.059759926
0001c0 6c 3c 85 3e 53 e0 8a bd 59 fd bd 3d e4 48 03 3e
       0.2602266 -0.06781068 0.09276838 0.12820774
0001d0 e1 18 5e be 65 e0 85 be 0d 5e 32 be 88 63 86 3e
       -0.21689178 -0.26147762 -0.1741869 0.2624781
0001e0 2a 4d 5f be 78 22 ba 3d 64 0b b0 3e 7f 49 18 bd
       -0.2180678 0.09088606 0.3438369 -0.037179466
0001f0 59 68 90 be cb 9b 19 3e e4 d8 c7 be 1b 91 74 be
       -0.2820461 0.15000837 -0.39032662 -0.23883478

fc3.weight f4 [1, 128]
000000 d3 08 ff bc b2 b4 15 bd bf 15 99 3d c5 f5 6e bd
       -0.031132137 -0.036549278 0.07474851 -0.058339853
000010 9d f0 17 3d 09 09 ba bd 94 8a 0a be fb 0d 72 be
       0.0370947 -0.090837546 -0.13529426 -0.23638146
000020 20 b9 cb 3d 15 57 17 be 3d 7f 8f 3d 87 ba bd 3d
       0.09947419 -0.14779313 0.07006691 0.09264093
000030 b8 b1 72 bd 19 48 59 3d 9c d6 43 bd 12 f4 43 bd
       -0.059251517 0.053047273 -0.04781209 -0.047840185
000040 f7 ff 08 be 47 02 ac 3d f2 b7 7c 3d 80 98 3c 3d
       -0.13378893 0.08398872 0.06169886 0.046043873
000050 e4 90 14 3d 38 d7 35 3d 85 f4 90 bd 2d bb 1b 3d
       0.03627099 0.0443947 -0.070778884 0.0380203
000060 a2 be 45 3d 95 31 ad 3c 72 11 44 bd 3a b2 19 bd
       0.048277505 0.021141807 -0.0478682 -0.037523486
000070 7b 5a 9c be 10 e6 35 bd 44 9f 94 3c 22 37 f8 bc
       -0.3053778 -0.044408858 0.01814235 -0.030299727
000080 bb e7 3f bd ca e5 01 be de 47 78 bd 77 53 0f bd
       -0.046851855 -0.12685314 -0.060615413 -0.034991708
000090 0a dc 02 3d 6a 23 a5 3d 1d 7a 4a 3e e9 91 99 3d
       0.031948127 0.08063395 0.19773145 0.07498533
0000a0 3c 40 e6 bd 51 3a b3 3d 51 27 7c bc 9b 6f e7 3c
       -0.112427205 0.08751357 -0.015390233 0.02825146
0000b0 cc 1f 07 3e 0d e3 8a be 6e 93 e6 3c eb 54 bf 3c
       0.13195723 -0.2712635 0.028146472 0.023355922
0000c0 8a 0a d2 3d de 70 2d bd 23 15 f4 bc 7a 27 4b 3d
       0.102559164 -0.042343967 -0.029795235 0.049598195
0000d0 6b 73 38 3d 23 f0 c0 3d ed 9c c8 3c 11 2c e8 3c
       0.045031946 0.094208024 0.02448889 0.028341325
0000e0 47 d2 54 3d a7 e1 d1 3c 3a 50 3a bd 46 01 99 3d
       0.05195835 0.025620295 -0.045486666 0.07470946
0000f0 a7 4c 4e 3d 91 fd 21 3e cc ce 6e 3d e2 84 8d bd
       0.05036607 0.15819384 0.058302686 -0.06910111
000100 4f 6b 52 bd 81 0b 6b bd e1 c9 0c be 8c 84 85 3d
       -0.05137187 -0.057384018 -0.13748886 0.06519422
000110 95 08 fa bd d3 a4 50 3d 83 95 f4 3c 72 13 8b bd
       -0.12208668 0.05093844 0.029856449 -0.06790818
000120 bc 76 f1 3c d5 86 18 3d 88 e6 8e 3c f1 1a eb 3d
       0.029475562 0.03723796 0.01744391 0.11479748
000130 78 0a 2b bd fc 68 50 bd 63 fe 1e 3d 0b 81 f6 3c
       -0.04175803 -0.05088137 0.03881682 0.03009083
000140 45 ba 05 3d b3 9a 91 bd a0 8b f7 3c 1a 54 33 3d
       0.032648344 -0.07109585 0.030217946 0.043781377
000150 2d 93 75 3d 5a 23 a0 bd 73 2c 1c 3d 83 80 5e 3d
       0.05995481 -0.07819243 0.038128328 0.054321777
000160 c2 c5 84 3c 02 67 eb 3d b8 9c 87 3d 00 e2 41 3d
       0.01620758 0.114942566 0.066216886 0.04733467
000170 6d 78 75 be f8 7a c2 3d 86 45 5b 3d 63 0c 09 bd
       -0.2397172 0.09496111 0.0535331 -0.03345908
000180 6e 4c 81 bd 6a 54 a3 3d 2e b9 3c bd e2 50 9b 3d
       -0.06313406 0.07975085 -0.04607504 0.075837865
000190 0b ee 85 be 59 bd a7 3d c4 4e 88 bd f7 d8 15 be
       -0.26158175 0.08190412 -0.06655648 -0.14633547
0001a0 16 bb 12 be be 47 bf bd 84 d3 45 bd 95 b1 f9 3c
       -0.1432918 -0.093398556 -0.04829742 0.030480186
0001b0 11 26 c1 bd 6a ce 5c bd a8 44 d7 3c 4e 8d fa 3c
       -0.09431089 -0.05390779 0.026277855 0.030584957
0001c0 49 de 5d 3d 9b 6b 13 3d 6d fe 1f 3d ef 62 6a 3d
       0.054167066 0.035991292 0.039061 0.057223257
0001d0 0f 85 10 be 40 71 85 bd 63 1c 55 bd e6 b6 9e 3d
       -0.14113258 -0.06515741 -0.052029025 0.07749729
0001e0 09 e2 a9 bd da 2c 1a 3d f0 5b ba 3d e6 0d b0 3c
       -0.08295066 0.03764043 0.09099567 0.021491002
0001f0 21 e0 23 be 68 a8 d8 3c 1e 8a d1 bd fe 64 07 bd
       -0.16003467 0.02644749 -0.10231422 -0.033055298

bn1.weight f4 [128]
000000 c3 fe 19 3e bc 93 df 3e 8d 5a ea 3e a8 ac dd 3e
       0.1503859 0.436674 0.4577221 0.4329579
000010 a0 4b e6 3e 06 e5 4d 3e 6e f8 f3 3d 86 6c 25 3e
       0.44979572 0.20106897 0.119126186 0.1615468
000020 96 9d 0a 3d 32 d1 30 3f 6c 3e 0c 3f 98 3b 2f 3f
       0.033841692 0.69069207 0.5478275 0.6845031
000030 29 8b 2d 3f 93 71 c1 3e 4c 17 de 3e be 7c 57 3e
       0.67790467 0.37781963 0.4337715 0.21043679
000040 66 f1 f0 bc ce 5b bf 3e 01 5e 84 3e bd b5 7d 3e
       -0.029411983 0.3737473 0.2585297 0.24776359
000050 4a 72 5b 3e a3 2a af 3e 3f a9 b0 3d 80 3f cc 3e
       0.21430317 0.34212217 0.08626031 0.39892197
000060 1a f2 e0 3e 4d c7 10 3c 89 93 0b 3f 37 31 80 3e
       0.4393471 0.0088365795 0.54521996 0.25037548
000070 4a d2 a2 3d 0d 9c 25 3f 74 d8 3e 3f 5e 56 a0 3e
       0.07950266 0.6469124 0.7454903 0.31315893
000080 9d b1 35 3f 13 05 7a 3e 07 2a f4 3d d2 0e 76 3e
       0.7097414 0.24415998 0.119220786 0.24029091
000090 a9 d1 37 3e fd 11 f8 3e 0e 47 bc 3e 97 42 cc 3e
       0.17951073 0.48451224 0.3677296 0.39894554
0000a0 32 4d 25 3e 36 2b b4 3e 06 92 f7 3e 62 33 dd 3e
       0.16142729 0.35189217 0.48353595 0.43203264
0000b0 99 af 15 3e f7 75 04 3f e4 3a 75 3e 3d 6c ac 3e
       0.14617766 0.517425 0.23948246 0.3367633
0000c0 54 e1 fc 3e fd 5c a6 3e 3d 23 47 3e 4b c9 3a 3f
       0.49390662 0.3249282 0.19447036 0.729634
0000d0 2d c9 29 3e 25 1f 87 3e 2c e3 cc 3e 9d 0f e2 3e
       0.16580649 0.2639095 0.40017068 0.44152537
0000e0 2f 98 17 3e 74 c0 a2 3d 99 7a ab 3e e6 57 64 3e
       0.14804147 0.07946864 0.33491972 0.22299156
0000f0 14 6a 1c 3f 97 51 cb 3e cf 30 c0 3e 4b bf 2d 3e
       0.6109936 0.39710686 0.37537238 0.16967504
000100 e9 7a 1f 3f d1 45 ba 3e f1 3e b1 3e fc 04 29 3e
       0.6229692 0.3638139 0.34618333 0.16505808
000110 4c e9 fb 3e 4e 31 ff 3d 61 83 46 3e 1f f0 15 3f
       0.4920143 0.12460576 0.19386055 0.5856952
000120 d2 e1 32 3e 66 7e 1e 3f c1 ec cb 3e 98 04 08 3e
       0.17468956 0.6191162 0.39829066 0.13283002
000130 62 95 8f 3d 69 aa c6 3e e1 24 a8 3e 79 44 d3 3e
       0.070109144 0.38801888 0.32840636 0.41263178
000140 fa ef a2 3e 9f 40 0b 3d 7a 70 77 3e af 9b aa 3e
       0.31823713 0.033997174 0.24164 0.33321902
000150 02 5e 66 3e 38 13 01 3f 50 c4 8b 3e 60 79 e3 3e
       0.22496799 0.5041995 0.27298212 0.4442854
000160 4f 79 f9 3e ac 0c 86 3e 45 9d 70 3e e7 76 7d 3e
       0.48725364 0.26181543 0.23497494 0.24752389
000170 6c 60 d9 3d a2 fd 40 3f 4f a1 a1 3e d5 a6 22 3f
       0.10614094 0.7538701 0.3156838 0.63535815
000180 9c d7 e1 3e ec 74 e5 3e ca a1 7d 3f bd 41 1a 3f
       0.4410981 0.44815767 0.99074996 0.6025656
000190 37 2f 7d 3e a1 9c 08 3d fe 83 46 3e 93 f5 be 3e
       0.24725042 0.033352498 0.19386289 0.37296733
0001a0 b2 83 4d 3d 58 7b c6 3e 91 5d 9b 3e 2d fd 82 3e
       0.050174423 0.3876598 0.30344823 0.25583783
0001b0 b9 93 d3 3d 11 a6 c9 3e ab 3e 30 3e 7d 60 06 3e
       0.1033091 0.3938451 0.17211406 0.13122745
0001c0 03 14 93 3e e5 5c 44 3c 27 90 9a 3e f2 b6 2c 3e
       0.28726205 0.011985038 0.30188105 0.16866663
0001d0 d1 8f a0 3e 45 2e c1 3e d0 0c 68 3e ea 8e a1 3e
       0.31359723 0.37730613 0.22661138 0.31554347
0001e0 8a 38 17 3e ae ba 00 3e 90 dd ba 3e b9 cd 3c 3f
       0.14767662 0.12571213 0.36497164 0.7375141
0001f0 30 90 0a 3f 59 eb 36 3e a5 83 22 3e 2f 95 da 3e
       0.5412626 0.17863216 0.15870531 0.42691943

bn1.bias f4 [128]
000000 1a 3a 36 be 1b 54 14 be 7b c0 78 3d 2b b0 96 be
       -0.17795601 -0.14485209 0.06073044 -0.2943128
000010 2b f1 42 be 03 72 59 bd 28 fd 6e be c6 88 7e bd
       -0.19037311 -0.053087246 -0.23338759 -0.062142156
000020 06 bf 71 be 58 5b 6d 3e dc f6 11 3d d5 0e d2 be
       -0.23608026 0.23179376 0.035635814 -0.4102694
000030 01 10 4f 3c 91 e9 01 be ee 22 94 be 2c 78 9e be
       0.012638093 -0.12686755 -0.289329 -0.3095106
000040 32 bb 75 be c5 f1 ab bd 63 db 13 3e 0c 2f 11 be
       -0.2399719 -0.08395723 0.14439158 -0.14178103
000050 65 40 0e bd b2 40 01 be d0 a0 83 be 52 dc 56 bd
       -0.03472938 -0.12622336 -0.25708628 -0.052456208
000060 75 37 f4 bc b6 f7 94 3e f0 af ca bd 38 c6 9a be
       -0.0298116 0.29095238 -0.09896839 -0.30229354
000070 ab 37 ad bd 0c 9f 6c be 4c 74 9b bd 4b ec 20 be
       -0.084578834 -0.23107547 -0.07590541 -0.15715139
000080 7e a8 00 be 4c ce 20 be bc d7 49 3d f7 bd 36 be
       -0.12564275 -0.15703696 0.049278006 -0.17845903
000090 cf 4c 35 3d 83 66 0f be b2 31 6c 3e 8f 3c a0 bd
       0.044262704 -0.14003949 0.23065832 -0.07824051
0000a0 64 91 b6 3e f5 de 59 be 87 59 af bd bc 1d ad bd
       0.356578 -0.21276458 -0.08561998 -0.08452937
0000b0 47 53 ca bd 48 d7 fd 3d ff 68 0a be bb 0a c2 be
       -0.09879165 0.12394577 -0.13516615 -0.37898812
0000c0 74 dc c9 bd 39 91 98 be df df c9 3e ab 6a 04 be
       -0.09856501 -0.29798296 0.39428613 -0.12931316
0000d0 0d 98 3c 3e 3f 26 d7 3a bc ad 25 be 90 3a 02 3e
       0.18417378 0.0016414596 -0.16179556 0.12717652
0000e0 2d c3 2a be 32 a9 29 be bf c6 57 3e d5 e8 56 be
       -0.16676016 -0.16568449 0.2107191 -0.20987256
0000f0 b2 2c a4 bd b8 05 f7 bd a4 f9 c3 bc da f8 20 be
       -0.080163375 -0.12061638 -0.023922749 -0.1571993
000100 e4 2c 97 bd 86 17 64 be 0c d4 1f 3e 58 80 36 bd
       -0.07381609 -0.22274598 0.15608233 -0.044555992
000110 0f f2 f0 3d 55 5c 4d 3e 94 4d 83 bd ca d6 86 bd
       0.11764919 0.20054753 -0.06411281 -0.065839365
000120 ff 9d b9 bd ca 55 2e bd 08 b9 41 be 5e a4 6b 3e
       -0.090633385 -0.042562284 -0.1891824 0.2301192
000130 bc b8 9e 3e 61 6d 26 be 87 9a c3 bd 67 41 5f be
       0.31000316 -0.16252662 -0.09550958 -0.21802293
000140 37 2b 4b be 8f c3 ce 3e 06 0c 08 be a0 3a 65 be
       -0.19840704 0.40383574 -0.13285837 -0.22385645
000150 f6 a7 47 be 18 2d 8d bd 44 a8 5d bd cb 21 1e 3e
       -0.19497666 -0.068933666 -0.05411555 0.15442578
000160 46 8c 47 bc cc 54 17 3c ae 2c a9 bd b1 1a ec bc
       -0.01217944 0.009236526 -0.08260475 -0.028821321
000170 c6 9e 2b be 9b 64 dd bd 3d e2 1e bd 34 9a cd 3c
       -0.16759786 -0.108102046 -0.038789976 0.025097944
000180 a7 60 0a be b5 eb af bb 94 50 41 bd bb 78 42 be
       -0.13513432 -0.0053686746 -0.047195986 -0.18991368
000190 2e 72 43 3c 24 46 83 be 60 6b 8b be a9 80 32 bd
       0.011929078 -0.2563945 -0.27230358 -0.04357973
0001a0 3c 72 41 be 7a 1c 18 be ea 90 2d be 4c bc ce bd
       -0.18891233 -0.14854613 -0.16949812 -0.100945085
0001b0 f4 16 23 be d2 26 a9 bc 49 0a 65 be 4a 85 24 3d
       -0.15926725 -0.020648394 -0.22367205 0.040166177
0001c0 b6 9b 66 be 80 89 c4 be c8 de 19 be fb 6c 6c 3e
       -0.22520337 -0.38386154 -0.1502639 0.23088448
0001d0 de ab 69 3d 57 aa 89 3d 32 64 73 3d ab e5 15 3e
       0.05704867 0.06721943 0.059421726 0.14638393
0001e0 e3 de b9 bb 32 98 2f 3e 89 6d 01 be 38 06 cd 3d
       -0.005672322 0.17147902 -0.1263944 0.10010952
0001f0 70 19 ba be 3e ed 9c be 10 7b b3 bd 9e af 08 3a
       -0.36347532 -0.3064975 -0.08763707 0.0005214157

bn1.running_mean f4 [128]
000000 b6 51 5b 3e 6e bb bc 3d 58 a3 28 3f 6d 8f 05 3e
       0.21417889 0.09215437 0.6587424 0.13042994
000010 72 50 bf 3d a4 9c 6d 3e c0 42 19 3f 9f 85 a0 3c
       0.093415156 0.23204285 0.5986748 0.019594966
000020 12 bf 18 3f a1 28 69 3f da 30 99 3e dc c6 47 3e
       0.5966655 0.9107762 0.29920083 0.19509453
000030 43 52 7c 3e b0 c5 ce 3e 6c af 1f 3f b3 d1 92 3f
       0.24640755 0.403852 0.6237705 1.1470245
000040 8c 17 ab 3e 06 a1 fc 3d 5b 79 e0 3e d2 68 19 3d
       0.33416402 0.123354 0.43842587 0.03745348
000050 cd 56 89 3e 4a b3 9b 3c 2d 31 93 3e 52 42 54 3e
       0.26824036 0.01900639 0.28748456 0.20728424
000060 c8 e2 2e 3f 20 81 a1 36 d3 84 48 3d 7d 38 24 3f
       0.6831479 4.813206e-06 0.048954796 0.64148694
000070 ae 02 31 3e 35 49 3a 3e ec 73 93 3e ac 55 da 3e
       0.17286178 0.18191989 0.2879938 0.42643487
000080 32 82 4f 3e 9f 2b 97 3d 5a 05 0d 3d af a0 de 37
       0.2026451 0.07381367 0.03442893 2.6539286e-05
000090 7f 8a fd 3d b4 a9 b5 3d 09 2b aa 3f e9 8b 98 3e
       0.12379932 0.08870259 1.3294383 0.29794243
0000a0 cc 5c b0 3f 62 8e 02 3f af 40 ed 3e 9e e9 17 3d
       1.3778319 0.5099851 0.46338412 0.03708803
0000b0 d0 53 98 3e e8 5f b0 3e da 46 10 3a 77 a2 99 3f
       0.29751444 0.3444817 0.0005503722 1.2002705
0000c0 1a 27 5a 3e ef e0 39 3e ef bf 6f 3f d0 17 6e 3e
       0.21303979 0.18152212 0.9365224 0.23251271
0000d0 41 09 be 3f 9d 72 a0 3d 5b bb 96 3e d4 37 15 3f
       1.4846574 0.07834361 0.29439816 0.5828831
0000e0 69 a6 34 3f b2 e1 76 3f 73 0b b5 3d 7f de a3 3e
       0.7056642 0.96438134 0.088400744 0.3200569
0000f0 4e 1b 15 3e bd 18 2e 3e 11 00 2d 3d 77 50 28 33
       0.14561197 0.17001624 0.04223639 3.918873e-08
000100 d8 b9 14 3e 19 b7 7a 3e 4f af 5b 3f ac 70 05 3c
       0.14524019 0.24483909 0.85814375 0.008144539
000110 24 68 80 3e 6f 86 e5 3d b6 6e af 3e d4 d4 db 3d
       0.25079453 0.11207282 0.34264153 0.10733953
000120 db fe 68 3e d9 bd a4 3e e5 32 b9 3e c9 a3 86 3e
       0.2275347 0.32176092 0.36171642 0.26296833
000130 b0 b5 3e 3f 64 a2 af 3d ce e7 2c 3e 3c 5b 9a 3e
       0.74495983 0.085758954 0.16885301 0.3014773
000140 7b 42 8a 3e 1f 99 6a 3f 94 71 ff 3d 67 f7 a6 3d
       0.27003846 0.91639894 0.12472835 0.08152657
000150 a2 9b a4 3d 13 b9 fe 3d 2a 4a 8e 3e fd 43 30 3e
       0.08037497 0.12437644 0.27790958 0.17213435
000160 4a 56 70 3f d2 03 04 3f 13 15 1e 3e 06 d8 02 3d
       0.93881667 0.5156833 0.15437727 0.031944297
000170 1a 00 00 00 b3 ef 21 3e 9b 14 e7 3e 7a 64 83 3d
       3.6e-44 0.15814094 0.45132908 0.06415649
000180 bc a5 c4 3d d0 b4 ce 3e 0a 1b e6 3e 0b a9 fc 3d
       0.09601924 0.40372324 0.44942504 0.1233693
000190 7b 27 42 3d d2 94 a1 3e 4a 74 a4 3e d1 2e bb 3e
       0.047400933 0.31558853 0.32119972 0.36559156
0001a0 fa d7 b5 3e eb d1 c4 38 d6 c4 60 36 ed 07 2b 3d
       0.3551634 9.3851086e-05 3.3493175e-06 0.041755605
0001b0 1e e5 ac 3d 60 18 16 3d 17 7c 37 3d ee 0e ae 3d
       0.08442138 0.03664434 0.044796076 0.08498941
0001c0 fa 16 61 3d 63 76 bd 3f 3e 67 d2 3d e2 fc 42 3f
       0.054953553 1.4801754 0.10273598 0.7616712
0001d0 96 ef 99 3e 60 52 bc 3f df 79 e0 3e c1 49 3b 3f
       0.30065602 1.4712639 0.4384298 0.73159415
0001e0 2b 06 54 3d c7 f4 3a 3f a5 fe 29 3e 59 e2 18 3f
       0.051763695 0.7302975 0.16601045 0.5972038
0001f0 7c 8e d2 3e d9 8d b5 3e bb 2b df 3e 94 a9 e0 3d
       0.41124332 0.35459784 0.4358805 0.109698445

bn1.running_var f4 [128]
000000 8b b9 4c 3e 57 de 27 3d f9 52 3c 3f f2 19 86 3d
       0.19992654 0.040983524 0.73564106 0.065479174
000010 4e f3 f7 3c 26 76 24 3e f8 08 ec 3e 65 48 6a 3b
       0.030267384 0.16060695 0.46100593 0.0035748717
000020 00 0a 3e 3f 6f 26 66 3f 2b 2d 61 3e 6c c0 b9 3d
       0.7423401 0.89902395 0.21989886 0.09069905
000030 27 be 1a 3e 47 52 e2 3e 6f 4a 2b 3f b9 f8 ac 3f
       0.151116 0.44203398 0.6691045 1.3513404
000040 33 f3 68 3e f5 9c a4 3d 31 28 51 3e 80 5f 80 3c
       0.22749023 0.0803775 0.20425488 0.015670538
000050 06 23 3d 3e 33 63 15 3c 54 dd 85 3e f1 f2 f3 3d
       0.18470392 0.009117889 0.26145422 0.11911572
000060 45 77 c9 3e ce aa ba 35 ad 38 45 3c 27 51 3a 3f
       0.39348808 1.3907791e-06 0.012037438 0.7278008
000070 a8 9c ea 3d 58 ac d7 3d 33 f3 1a 3e 66 a6 e3 3e
       0.11455661 0.10530919 0.15131836 0.4446289
000080 2d 1c d2 3d ef 78 d9 3c d3 da 77 3c 63 1e da 37
       0.1025928 0.026546923 0.015127855 2.6001775e-05
000090 58 50 79 3d 9f 1c d9 3c cd 07 b3 3e f7 8e 7f 3e
       0.060867637 0.026502905 0.3496689 0.2495688
0000a0 d7 fc cd 3f 3b 6c e2 3e 16 80 c2 3e 4a f9 12 3c
       1.6092786 0.44223198 0.37988347 0.008970568
0000b0 7e 42 c1 3e de 7d 30 3e ea e1 12 3a cc c5 94 3f
       0.37746042 0.17235515 0.0005603122 1.1622863
0000c0 c5 bd 89 3d d8 c0 b0 3d e2 f9 0e 3f b8 92 27 3e
       0.06725649 0.08630532 0.5585004 0.16364563
0000d0 ca c0 ec 3f 1c 1b 57 3d db ec 62 3e a4 e9 c5 3e
       1.8496335 0.052516088 0.22160666 0.38654816
0000e0 13 bb 41 3f 8c 93 41 3f 43 3e b2 3d 21 6e 9e 3e
       0.7567608 0.75615764 0.08703282 0.30943397
0000f0 90 8f 5b 3d cb 26 00 3e 72 39 35 3c bc 79 3c 32
       0.05360371 0.12514798 0.011061059 1.0970719e-08
000100 31 f0 97 3d 08 56 1a 3e f3 ad 80 3f b5 bf f4 3b
       0.0741886 0.15071881 1.0053085 0.0074691423
000110 3d 04 30 3e cc 0a a0 3d 5a dc 75 3e bb c9 08 3d
       0.17189117 0.07814559 0.24009839 0.03339551
000120 99 c1 15 3e a9 6b 5d 3e 3e 77 a9 3e 33 e1 77 3e
       0.14624633 0.216231 0.33098787 0.24207
000130 c6 6a 38 3f 5f be 15 3d bb 40 a8 3d 98 50 5f 3e
       0.72037923 0.036558505 0.08215471 0.21808088
000140 eb 33 24 3e f9 33 82 3f 71 c4 76 3d 29 5d 1a 3d
       0.1603543 1.0172111 0.060245935 0.0376865
000150 a9 5c 23 3d 06 0c 56 3d 85 d3 42 3e a5 89 ee 3d
       0.03988329 0.05225756 0.19026001 0.11647347
000160 af 7a bf 3e a8 14 62 3e 0a a8 c0 3d 74 74 6b 3c
       0.37398288 0.22078192 0.09407051 0.014371026
000170 04 00 00 00 d7 16 74 3d 19 99 94 3e 5f 13 a8 3c
       6e-45 0.059592094 0.29023054 0.02051705
000180 98 70 5e 3d 01 33 5b 3e 95 c6 71 3e 1b 91 6b 3d
       0.054306597 0.21406175 0.2361091 0.05751143
000190 b6 4b 9f 3c 5c c7 ef 3e 07 03 a5 3e f5 ed 2e 3e
       0.019445281 0.46831787 0.32228872 0.17082961
0001a0 ed f0 ee 3e 08 30 f7 37 f1 f8 5d 36 4d be 2f 3c
       0.46668187 2.946706e-05 3.307647e-06 0.010726524
0001b0 b7 83 66 3d 32 71 60 3c c9 dc ac 3c 06 95 53 3d
       0.056277957 0.013698863 0.021101372 0.05165579
0001c0 8e c3 ae 3c 89 45 48 40 b4 b5 a6 3d 1a 3d 42 3f
       0.021333482 3.129244 0.08140126 0.75874484
0001d0 4b bf f5 3d d7 f1 8f 3f 24 c3 ce 3e 0a 55 17 3f
       0.11999377 1.1245679 0.40383255 0.59114134
0001e0 60 61 f0 3c 49 7a 4f 3f 6b 83 a4 3d 0c 2c 83 3e
       0.029343307 0.8104597 0.080328785 0.25619543
0001f0 28 d2 41 3e ec a3 80 3e c0 9f 88 3e 82 ae 92 3d
       0.18927824 0.25125062 0.2668438 0.07162191

bn2.weight f4 [128]
000000 7a 09 c5 3e 60 35 e7 3d d5 cc 55 3f 3f 58 50 3f
       0.38483793 0.11289477 0.83515674 0.8138465
000010 dc c9 66 3e 4e 2f 69 3f 65 67 48 3f 88 a7 b0 3e
       0.2253794 0.91087806 0.7828277 0.34502816
000020 58 19 14 3f 6c 3f dc 3e 66 00 01 3f 5c 72 01 3f
       0.5785117 0.43017137 0.5039123 0.50565124
000030 58 4c af 3d 20 a9 44 3d 44 e3 cc 3e 42 48 a2 3e
       0.08559483 0.048012853 0.4001714 0.31695753
000040 8f 39 49 3f 20 d5 4f 3f 54 d6 4d 3e 27 9b 4c 3f
       0.7860345 0.8118458 0.20101291 0.79924244
000050 00 e3 dc 3e d3 8d 2c 3f d4 ca 3e 3f af 53 4d 3f
       0.43141937 0.67403907 0.7452824 0.80205816
000060 34 d7 36 3f e6 43 6b 3f 4d 31 58 3f c8 77 5f 3f
       0.71422124 0.9190048 0.8445023 0.87292147
000070 7a f8 f9 3e ec 9a a2 3e 74 4c 46 3f b5 ef 2b 3f
       0.48822385 0.3175882 0.7746041 0.6716264
000080 a1 0d 31 3f 19 de 27 3f 78 90 8c 3d d1 a8 58 3f
       0.6916142 0.6557327 0.06863493 0.84632593
000090 8e 50 96 3e cc 9c 0e 3f 10 4a 29 3d be d8 09 3f
       0.29358333 0.55708003 0.041330397 0.5384635
0000a0 c6 fd 8c 3e 56 7b 51 3f ae 4f aa 3e 14 47 44 3f
       0.27537364 0.8182882 0.33263916 0.76670957
0000b0 55 b2 78 3f b8 85 f2 3e 08 8d 9b 3e 80 7d 29 3d
       0.97147113 0.47367644 0.30381036 0.04137945
0000c0 66 68 e2 3e 8b 04 11 3f ba a3 47 3f 1e 5f 2a 3f
       0.44220275 0.5664756 0.779842 0.6655139
0000d0 f7 7e 39 3f 0a 10 f2 3e e2 0d d4 3e 12 71 aa 3e
       0.7245936 0.47277862 0.41416842 0.3328939
0000e0 82 d7 d6 3e 73 46 6c 3f 12 01 19 3f e0 d3 8f 3c
       0.41961294 0.92294997 0.5976726 0.017557085
0000f0 40 1a ed 3c a4 b4 d5 3e fa 46 df 3e 8e a6 2b 3f
       0.028943181 0.4173938 0.43608838 0.6705102
000100 5a 36 e3 3e e3 b9 53 3f f7 99 17 3f 10 9d 33 3f
       0.44377404 0.82705516 0.59219307 0.70161533
000110 d6 f5 b3 3e 68 06 65 3e 2c ac cd 3e 64 28 3e 3e
       0.35148495 0.22365725 0.4017042 0.18570095
000120 97 1c 7a 3f 20 a6 07 3d 28 fc 27 3e f0 25 1b 3d
       0.97699875 0.033117414 0.16404784 0.037877977
000130 80 65 f7 3b 32 f3 7b 3f 23 95 7e 3f ae de ab 3e
       0.0075499415 0.9841796 0.99446315 0.3356833
000140 35 f2 76 3f 70 39 89 3e da f8 ae 3e c6 fe 72 3f
       0.9646333 0.26801634 0.34174234 0.94920003
000150 07 83 14 3f 98 8c fa 3e 1a 31 f0 3e 9e f2 4d 3f
       0.5801243 0.4893539 0.46912462 0.8044833
000160 f6 88 35 3f 9e c9 38 3f 38 c4 f9 3d 74 8b 6e 3e
       0.7091211 0.72182643 0.12195629 0.23295385
000170 eb cb 76 3f c8 fb ff 3e f0 d3 e9 3d 9c e3 9f 3e
       0.96404904 0.4999678 0.11417377 0.3122834
000180 6f be 37 3f 1b 08 7a 3f 8e 7f 90 3e 00 03 ec 3d
       0.71774954 0.9766862 0.28222317 0.1152401
000190 2d b6 37 3f 43 11 25 3f 80 41 ef 3e 68 92 41 3e
       0.71762353 0.64479464 0.4672966 0.18903506
0001a0 3c 8a 39 3e 01 0d 56 3f a3 1f 27 3f b4 b5 99 3e
       0.18119138 0.8361359 0.6528265 0.3002144
0001b0 44 f5 bf 3e f4 89 20 3f 32 a6 2c 3f f8 84 41 3f
       0.3749181 0.627105 0.67441094 0.7559352
0001c0 d2 1d 16 3f f4 1d 5b 3e 73 8c 15 3f e0 98 4f 3d
       0.5863925 0.21398145 0.58417434 0.050682902
0001d0 b0 1f 7c 3d 79 28 5b 3f 00 34 d5 3d 03 00 07 3f
       0.061553657 0.8560863 0.10410309 0.5273439
0001e0 94 ed 4b 3e 31 b0 3e 3f 90 44 94 3d 50 14 17 3d
       0.19914848 0.74487597 0.0723964 0.036884606
0001f0 0b ca 4c 3f f0 cb 05 3e c0 55 a7 3c 22 32 53 3f
       0.79995793 0.13066077 0.020426631 0.8249837

bn2.bias f4 [128]
000000 00 00 00 00 00 00 00 00 00 00 00 00 00 00 00 00
       0.0 0.0 0.0 0.0
000010 00 00 00 00 00 00 00 00 00 00 00 00 00 00 00 00
       0.0 0.0 0.0 0.0
000020 00 00 00 00 00 00 00 00 00 00 00 00 00 00 00 00
       0.0 0.0 0.0 0.0
000030 00 00 00 00 00 00 00 00 00 00 00 00 00 00 00 00
       0.0 0.0 0.0 0.0
000040 00 00 00 00 00 00 00 00 00 00 00 00 00 00 00 00
       0.0 0.0 0.0 0.0
000050 00 00 00 00 00 00 00 00 00 00 00 00 00 00 00 00
       0.0 0.0 0.0 0.0
000060 00 00 00 00 00 00 00 00 00 00 00 00 00 00 00 00
       0.0 0.0 0.0 0.0
000070 00 00 00 00 00 00 00 00 00 00 00 00 00 00 00 00
       0.0 0.0 0.0 0.0
000080 00 00 00 00 00 00 00 00 00 00 00 00 00 00 00 00
       0.0 0.0 0.0 0.0
000090 00 00 00 00 00 00 00 00 00 00 00 00 00 00 00 00
       0.0 0.0 0.0 0.0
0000a0 00 00 00 00 00 00 00 00 00 00 00 00 00 00 00 00
       0.0 0.0 0.0 0.0
0000b0 00 00 00 00 00 00 00 00 00 00 00 00 00 00 00 00
       0.0 0.0 0.0 0.0
0000c0 00 00 00 00 00 00 00 00 00 00 00 00 00 00 00 00
       0.0 0.0 0.0 0.0
0000d0 00 00 00 00 00 00 00 00 00 00 00 00 00 00 00 00
       0.0 0.0 0.0 0.0
0000e0 00 00 00 00 00 00 00 00 00 00 00 00 00 00 00 00
       0.0 0.0 0.0 0.0
0000f0 00 00 00 00 00 00 00 00 00 00 00 00 00 00 00 00
       0.0 0.0 0.0 0.0
000100 00 00 00 00 00 00 00 00 00 00 00 00 00 00 00 00
       0.0 0.0 0.0 0.0
000110 00 00 00 00 00 00 00 00 00 00 00 00 00 00 00 00
       0.0 0.0 0.0 0.0
000120 00 00 00 00 00 00 00 00 00 00 00 00 00 00 00 00
       0.0 0.0 0.0 0.0
000130 00 00 00 00 00 00 00 00 00 00 00 00 00 00 00 00
       0.0 0.0 0.0 0.0
000140 00 00 00 00 00 00 00 00 00 00 00 00 00 00 00 00
       0.0 0.0 0.0 0.0
000150 00 00 00 00 00 00 00 00 00 00 00 00 00 00 00 00
       0.0 0.0 0.0 0.0
000160 00 00 00 00 00 00 00 00 00 00 00 00 00 00 00 00
       0.0 0.0 0.0 0.0
000170 00 00 00 00 00 00 00 00 00 00 00 00 00 00 00 00
       0.0 0.0 0.0 0.0
000180 00 00 00 00 00 00 00 00 00 00 00 00 00 00 00 00
       0.0 0.0 0.0 0.0
000190 00 00 00 00 00 00 00 00 00 00 00 00 00 00 00 00
       0.0 0.0 0.0 0.0
0001a0 00 00 00 00 00 00 00 00 00 00 00 00 00 00 00 00
       0.0 0.0 0.0 0.0
0001b0 00 00 00 00 00 00 00 00 00 00 00 00 00 00 00 00
       0.0 0.0 0.0 0.0
0001c0 00 00 00 00 00 00 00 00 00 00 00 00 00 00 00 00
       0.0 0.0 0.0 0.0
0001d0 00 00 00 00 00 00 00 00 00 00 00 00 00 00 00 00
       0.0 0.0 0.0 0.0
0001e0 00 00 00 00 00 00 00 00 00 00 00 00 00 00 00 00
       0.0 0.0 0.0 0.0
0001f0 00 00 00 00 00 00 00 00 00 00 00 00 00 00 00 00
       0.0 0.0 0.0 0.0

bn2.running_mean f4 [128]
000000 00 00 00 00 00 00 00 00 00 00 00 00 00 00 00 00
       0.0 0.0 0.0 0.0
000010 00 00 00 00 00 00 00 00 00 00 00 00 00 00 00 00
       0.0 0.0 0.0 0.0
000020 00 00 00 00 00 00 00 00 00 00 00 00 00 00 00 00
       0.0 0.0 0.0 0.0
000030 00 00 00 00 00 00 00 00 00 00 00 00 00 00 00 00
       0.0 0.0 0.0 0.0
000040 00 00 00 00 00 00 00 00 00 00 00 00 00 00 00 00
       0.0 0.0 0.0 0.0
000050 00 00 00 00 00 00 00 00 00 00 00 00 00 00 00 00
       0.0 0.0 0.0 0.0
000060 00 00 00 00 00 00 00 00 00 00 00 00 00 00 00 00
       0.0 0.0 0.0 0.0
000070 00 00 00 00 00 00 00 00 00 00 00 00 00 00 00 00
       0.0 0.0 0.0 0.0
000080 00 00 00 00 00 00 00 00 00 00 00 00 00 00 00 00
       0.0 0.0 0.0 0.0
000090 00 00 00 00 00 00 00 00 00 00 00 00 00 00 00 00
       0.0 0.0 0.0 0.0
0000a0 00 00 00 00 00 00 00 00 00 00 00 00 00 00 00 00
       0.0 0.0 0.0 0.0
0000b0 00 00 00 00 00 00 00 00 00 00 00 00 00 00 00 00
       0.0 0.0 0.0 0.0
0000c0 00 00 00 00 00 00 00 00 00 00 00 00 00 00 00 00
       0.0 0.0 0.0 0.0
0000d0 00 00 00 00 00 00 00 00 00 00 00 00 00 00 00 00
       0.0 0.0 0.0 0.0
0000e0 00 00 00 00 00 00 00 00 00 00 00 00 00 00 00 00
       0.0 0.0 0.0 0.0
0000f0 00 00 00 00 00 00 00 00 00 00 00 00 00 00 00 00
       0.0 0.0 0.0 0.0
000100 00 00 00 00 00 00 00 00 00 00 00 00 00 00 00 00
       0.0 0.0 0.0 0.0
000110 00 00 00 00 00 00 00 00 00 00 00 00 00 00 00 00
       0.0 0.0 0.0 0.0
000120 00 00 00 00 00 00 00 00 00 00 00 00 00 00 00 00
       0.0 0.0 0.0 0.0
000130 00 00 00 00 00 00 00 00 00 00 00 00 00 00 00 00
       0.0 0.0 0.0 0.0
000140 00 00 00 00 00 00 00 00 00 00 00 00 00 00 00 00
       0.0 0.0 0.0 0.0
000150 00 00 00 00 00 00 00 00 00 00 00 00 00 00 00 00
       0.0 0.0 0.0 0.0
000160 00 00 00 00 00 00 00 00 00 00 00 00 00 00 00 00
       0.0 0.0 0.0 0.0
000170 00 00 00 00 00 00 00 00 00 00 00 00 00 00 00 00
       0.0 0.0 0.0 0.0
000180 00 00 00 00 00 00 00 00 00 00 00 00 00 00 00 00
       0.0 0.0 0.0 0.0
000190 00 00 00 00 00 00 00 00 00 00 00 00 00 00 00 00
       0.0 0.0 0.0 0.0
0001a0 00 00 00 00 00 00 00 00 00 00 00 00 00 00 00 00
       0.0 0.0 0.0 0.0
0001b0 00 00 00 00 00 00 00 00 00 00 00 00 00 00 00 00
       0.0 0.0 0.0 0.0
0001c0 00 00 00 00 00 00 00 00 00 00 00 00 00 00 00 00
       0.0 0.0 0.0 0.0
0001d0 00 00 00 00 00 00 00 00 00 00 00 00 00 00 00 00
       0.0 0.0 0.0 0.0
0001e0 00 00 00 00 00 00 00 00 00 00 00 00 00 00 00 00
       0.0 0.0 0.0 0.0
0001f0 00 00 00 00 00 00 00 00 00 00 00 00 00 00 00 00
       0.0 0.0 0.0 0.0

bn2.running_var f4 [128]
000000 00 00 80 3f 00 00 80 3f 00 00 80 3f 00 00 80 3f
       1.0 1.0 1.0 1.0
000010 00 00 80 3f 00 00 80 3f 00 00 80 3f 00 00 80 3f
       1.0 1.0 1.0 1.0
000020 00 00 80 3f 00 00 80 3f 00 00 80 3f 00 00 80 3f
       1.0 1.0 1.0 1.0
000030 00 00 80 3f 00 00 80 3f 00 00 80 3f 00 00 80 3f
       1.0 1.0 1.0 1.0
000040 00 00 80 3f 00 00 80 3f 00 00 80 3f 00 00 80 3f
       1.0 1.0 1.0 1.0
000050 00 00 80 3f 00 00 80 3f 00 00 80 3f 00 00 80 3f
       1.0 1.0 1.0 1.0
000060 00 00 80 3f 00 00 80 3f 00 00 80 3f 00 00 80 3f
       1.0 1.0 1.0 1.0
000070 00 00 80 3f 00 00 80 3f 00 00 80 3f 00 00 80 3f
       1.0 1.0 1.0 1.0
000080 00 00 80 3f 00 00 80 3f 00 00 80 3f 00 00 80 3f
       1.0 1.0 1.0 1.0
000090 00 00 80 3f 00 00 80 3f 00 00 80 3f 00 00 80 3f
       1.0 1.0 1.0 1.0
0000a0 00 00 80 3f 00 00 80 3f 00 00 80 3f 00 00 80 3f
       1.0 1.0 1.0 1.0
0000b0 00 00 80 3f 00 00 80 3f 00 00 80 3f 00 00 80 3f
       1.0 1.0 1.0 1.0
0000c0 00 00 80 3f 00 00 80 3f 00 00 80 3f 00 00 80 3f
       1.0 1.0 1.0 1.0
0000d0 00 00 80 3f 00 00 80 3f 00 00 80 3f 00 00 80 3f
       1.0 1.0 1.0 1.0
0000e0 00 00 80 3f 00 00 80 3f 00 00 80 3f 00 00 80 3f
       1.0 1.0 1.0 1.0
0000f0 00 00 80 3f 00 00 80 3f 00 00 80 3f 00 00 80 3f
       1.0 1.0 1.0 1.0
000100 00 00 80 3f 00 00 80 3f 00 00 80 3f 00 00 80 3f
       1.0 1.0 1.0 1.0
000110 00 00 80 3f 00 00 80 3f 00 00 80 3f 00 00 80 3f
       1.0 1.0 1.0 1.0
000120 00 00 80 3f 00 00 80 3f 00 00 80 3f 00 00 80 3f
       1.0 1.0 1.0 1.0
000130 00 00 80 3f 00 00 80 3f 00 00 80 3f 00 00 80 3f
       1.0 1.0 1.0 1.0
000140 00 00 80 3f 00 00 80 3f 00 00 80 3f 00 00 80 3f
       1.0 1.0 1.0 1.0
000150 00 00 80 3f 00 00 80 3f 00 00 80 3f 00 00 80 3f
       1.0 1.0 1.0 1.0
000160 00 00 80 3f 00 00 80 3f 00 00 80 3f 00 00 80 3f
       1.0 1.0 1.0 1.0
000170 00 00 80 3f 00 00 80 3f 00 00 80 3f 00 00 80 3f
       1.0 1.0 1.0 1.0
000180 00 00 80 3f 00 00 80 3f 00 00 80 3f 00 00 80 3f
       1.0 1.0 1.0 1.0
000190 00 00 80 3f 00 00 80 3f 00 00 80 3f 00 00 80 3f
       1.0 1.0 1.0 1.0
0001a0 00 00 80 3f 00 00 80 3f 00 00 80 3f 00 00 80 3f
       1.0 1.0 1.0 1.0
0001b0 00 00 80 3f 00 00 80 3f 00 00 80 3f 00 00 80 3f
       1.0 1.0 1.0 1.0
0001c0 00 00 80 3f 00 00 80 3f 00 00 80 3f 00 00 80 3f
       1.0 1.0 1.0 1.0
0001d0 00 00 80 3f 00 00 80 3f 00 00 80 3f 00 00 80 3f
       1.0 1.0 1.0 1.0
0001e0 00 00 80 3f 00 00 80 3f 00 00 80 3f 00 00 80 3f
       1.0 1.0 1.0 1.0
0001f0 00 00 80 3f 00 00 80 3f 00 00 80 3f 00 00 80 3f
       1.0 1.0 1.0 1.0
