trained_actor.pth (torch_old, 91888 bytes, 14 tensors)

fc1.weight f4 [128, 33]
0	0xbd598622	-0.053106435
1	0xbe50fa50	-0.20407987
2	0x3e73a552	0.23793533
3	0xbdd2ca82	-0.102925315
4	0xbdf747f7	-0.12074273
5	0x3ee70be9	0.45126274
6	0x3dcbcd64	0.099512845
7	0xbcd9b929	-0.026577549
8	0x3dc0c0f6	0.094118044
9	0x3c96d87e	0.018413778
10	0x3bfbcc19	0.0076842424
11	0x3bcebc12	0.006309041
12	0x3c87a400	0.016557693
13	0x3d031df0	0.032010972
14	0x3e72e370	0.23719573
15	0xbe4d8e62	-0.20073846
16	0x3baea5d5	0.0053298273
17	0x3d4df4cc	0.050282285
18	0xbc43bab5	-0.01194637
19	0x3d3d2773	0.0461802
20	0xbb1d80ba	-0.0024033026
21	0x3d723f2c	0.059142277
22	0xbd7a579a	-0.0611187
23	0x3da4e648	0.08051735
24	0x3d32c934	0.043648914
25	0xbd1a88c8	-0.0377281
26	0xbc2d115b	-0.01056322
27	0x3db97c82	0.09056951
28	0x3e132aca	0.14371791
29	0x3d0abe56	0.033872925
30	0xbc6d82dc	-0.014496531
31	0xbd9c2bbc	-0.07625529
32	0xbeffb492	-0.49942452
33	0xbe3f1cea	-0.18663374
34	0x3c4f4d4c	0.012652706
35	0x3cf3591c	0.029705577
36	0xbe7b6df2	-0.2455366
37	0x3dcc5425	0.09976987
38	0xbe3a93c9	-0.18220438
39	0xbc78e6ac	-0.015191715
40	0x3c93780a	0.018001575
41	0xbe83e663	-0.2576171
42	0xbe833bae	-0.2563147
43	0xbdf64998	-0.12025756
44	0x3d98775d	0.07444642
45	0x3dabc87b	0.08387848
46	0x3de3f951	0.11131538
47	0xbd47ebe9	-0.048808966
48	0xbd65af9f	-0.05607569
49	0x3dc8d88d	0.09806929
50	0xbe8617ea	-0.2619012
51	0xbd576e1a	-0.052595235
52	0x3e2d6f23	0.16936927
53	0xbb6c05c8	-0.0036014188
54	0x3d885805	0.066574134
55	0x3a89a9a4	0.0010502827
56	0x3b4bb670	0.0031084083
57	0x3be54b48	0.0069974996
58	0xbd831dbc	-0.06402156
59	0xbe7c5725	-0.24642618
60	0x3e8681c8	0.2627089
61	0x3c5551f1	0.013020025
62	0x3d6cd02e	0.057815723
63	0xbe5d760a	-0.2162706
64	0x3d11fc30	0.035640895
65	0x3e8debaf	0.27718875
66	0x3d916711	0.070997365
67	0x3d3d349e	0.046192758
68	0x3d011104	0.031510368
69	0xbdd330c5	-0.103120364
70	0x3e04a7f9	0.12954701
71	0xbe1e3897	-0.15451275
72	0xbda133a2	-0.07871176
73	0x3b536e40	0.003226176
74	0xbe174cd0	-0.14775395
75	0xbde212a5	-0.110387124
76	0xbd83c87e	-0.06434725
77	0x3d95411e	0.07287811
78	0xbd07c1fe	-0.03314399
79	0xbda00e36	-0.078152105
80	0x3ebce2e3	0.3689185
81	0xbd624ee6	-0.055251025
82	0x3e4fce58	0.20293558
83	0xbe428987	-0.18997775
84	0xbe468bfc	-0.19389337
85	0xbe1f6bb6	-0.15568432
86	0x3dba17da	0.090865806
87	0xbd86137d	-0.06546686
88	0x3d5f0c66	0.054455183
89	0xbd98a0ff	-0.074525826
90	0x3ddabf15	0.10680977
91	0xbd833fac	-0.06408629
92	0x3e04cc17	0.12968479
93	0xbdc64d0b	-0.096826635
94	0xbd664050	-0.056213677
95	0xbd1daff1	-0.03849787
96	0x3d89d5fc	0.067302674
97	0x3d1d9386	0.038470767
98	0xbeb62bc4	-0.35580266
99	0x3e07f4d8	0.13276994
100	0xbd3aae82	-0.04557658
101	0xbea66e34	-0.32505953
102	0x3e2335b4	0.15938455
103	0x3c0ee253	0.008720952
104	0xbe4af80b	-0.19821183
105	0xbdde881a	-0.10865803
106	0xbbd8725c	-0.0066054296
107	0x3d88013e	0.06640862
108	0xbbd11e3a	-0.006381777
109	0x3ca5dd9b	0.020247271
110	0xbc1d32b6	-0.00959461
111	0xbca11cfb	-0.01966714
112	0xbe481a28	-0.19541228
113	0x3d9fcc4b	0.07802638
114	0x3e70fc40	0.23533726
115	0xbd46159b	-0.04836045
116	0xbb00e4de	-0.0019667665
117	0xbcc366fc	-0.023852818
118	0x3bd9589b	0.006632877
119	0x3cfb612c	0.030685984
120	0xbccb5fcc	-0.024825953
121	0xbbf99e55	-0.0076177516
122	0x3bbccc95	0.0057616928
123	0x3ca98f7e	0.020698305
124	0x3bb30470	0.0054631755
125	0x3de5cc94	0.11220661
126	0xbe9adf81	-0.30248645
127	0xbd4d7485	-0.05015995
128	0x3cd11ce8	0.025526479
129	0x3e3032ca	0.17206874
130	0x3d8a46ad	0.067517616
131	0xbdb9a063	-0.090637945
132	0x3de273f9	0.11057276
133	0xbd93d0ab	-0.07217535
134	0xbcc8735f	-0.024469076
135	0xbd49c1e8	-0.04925719
136	0x3b9d4895	0.004799912
137	0xbda50f00	-0.08059502
138	0xbccaec5c	-0.024770908
139	0xbda498c4	-0.0803695
140	0xbd5de43e	-0.054172747
141	0xbc171866	-0.009222126
142	0xbcb0c9c9	-0.021580594
143	0x3d5db160	0.054124236
144	0x3d911a5b	0.07085105
145	0x3dfbcb5f	0.12294649
146	0xbced7975	-0.02898858
147	0x3d3704cc	0.04468231
148	0x3d3197f3	0.0433578
149	0xbd7bdccd	-0.06148987
150	0xbdb6d4ab	-0.08927282
151	0xbcaaaf12	-0.020835433
152	0x3cda2565	0.02662916
153	0xbd0cb31c	-0.0343505
154	0x3b495d6b	0.0030725847
155	0xbe0f09c2	-0.13968566
156	0x3c94ff2d	0.018188084
157	0xbb439c62	-0.002984785
158	0xbe269118	-0.16266286
159	0x3df71d56	0.12066142
160	0xbbf5eba6	-0.007504898
161	0x3d9e8313	0.07739844
162	0xbe42e325	-0.19031961
163	0x3d37e4ca	0.044895925
164	0x3f7174fe	0.9431914
165	0x3d806760	0.06269717
166	0x3e996d5c	0.29966247
167	0xbd88b0e0	-0.06674361
168	0xbe6f2b3d	-0.23356338
169	0xbc46bcb2	-0.012129949
170	0x3ce7a0b6	0.028274875
171	0x3db9c8a1	0.0907147
172	0xbc85ddcc	-0.016341113
173	0xbd43aaab	-0.047770184
174	0x3cbdd71f	0.023173867
175	0xbc8795f7	-0.016551001
176	0x3da511d7	0.08060043
177	0xbd720798	-0.059089273
178	0x3dc92fb3	0.09823551
179	0x3e91391e	0.2836389
180	0x3ce6327b	0.028100243
181	0x3d28d696	0.04122027
182	0xbdcafb34	-0.099111944
183	0xbb5280a2	-0.0032120128
184	0xbd1c28fb	-0.03812502
185	0x3cafd60b	0.021464368
186	0xbd154f72	-0.036452718
187	0x3c5d805e	0.013519375
188	0x3d70cf8a	0.058791675
189	0x3d2d37c0	0.042289495
190	0xbad48aa9	-0.001621564
191	0x3b28099e	0.0025640498
192	0x3e908fd3	0.2823473
193	0xbd596ac1	-0.053080324
194	0x3d5335c2	0.05156494
195	0xbe2911e6	-0.16510734
196	0x3cda2b30	0.026631922
197	0x3e9350e3	0.2877265
198	0xbd85a307	-0.065252356
199	0xbe8fc8b3	-0.2808281
200	0x3d83ee71	0.064419635
201	0x3dd5b1d7	0.10434311
202	0xbe37632b	-0.17908923
203	0x3e059e03	0.13048558
204	0x3e0e8a0c	0.13919848
205	0x3e277b74	0.16355687
206	0x3dd1d74d	0.102461435
207	0xbd87c12a	-0.0662864
208	0xbd11226e	-0.035433225
209	0xbcf9980a	-0.030468006
210	0x3c512da5	0.01276723
211	0xbc4d0faa	-0.012515942
212	0x3e349b01	0.17637254
213	0xbdd7df33	-0.10540619
214	0x3c9fd1bc	0.019509189
215	0xbe14d949	-0.14536013
216	0x3c7b7353	0.01534732
217	0x3d8a432f	0.067510955
218	0xbd7f08d1	-0.062264267
219	0x3cc8cd38	0.024511918
220	0x3dd07969	0.10179407
221	0x3d7aa593	0.06119306
222	0xbd16cb5e	-0.03681504
223	0xbda4de4f	-0.080502145
224	0xbd48a880	-0.04898882
225	0x3dae933a	0.08524175
226	0x3dd4c384	0.10388854
227	0x3b520ba0	0.0032050386
228	0xbdf4ab46	-0.1194673
229	0x3d848ce9	0.06472189
230	0x3f3e9d49	0.7445875
231	0x3de5e402	0.1122513
232	0x3e1e2e98	0.15447462
233	0x3dd02782	0.101637855
234	0x3dc6855d	0.09693406
235	0x3dde6fff	0.10861205
236	0x3ea495a3	0.32145414
237	0xbc6b6a8c	-0.0143686645
238	0x3e230c6a	0.15922704
239	0xbd756fbc	-0.05992101
240	0xbd24daca	-0.040247716
241	0xbd0ff603	-0.035146724
242	0x3e0a9a42	0.13535407
243	0x3abb7d07	0.0014304229
244	0xbe877f25	-0.2646419
245	0x3d7c6036	0.06161519
246	0xbde91293	-0.11380496
247	0xbd6a76b9	-0.05724213
248	0x3d37a94a	0.04483918
249	0x3d868bc0	0.06569624
250	0x3da54b2d	0.08070979
251	0x3c353864	0.011060808
252	0x3dd70fa1	0.10501028
253	0xbd555b70	-0.052089155
254	0xbdf74f77	-0.120757036
255	0x3c77c11c	0.015121724

fc1.bias f4 [128]
0	0x3d8e0bd8	0.06935853
1	0xbd9d30f1	-0.076753505
2	0x3d8af926	0.067858025
3	0x3e80fda2	0.25193506
4	0xbe6bbad2	-0.23020485
5	0xbe42dca1	-0.19029476
6	0x3de19244	0.11014226
7	0xbe752ff5	-0.23944075
8	0xbe898c3f	-0.26864812
9	0xbe195eb9	-0.1497754
10	0xbd58b31e	-0.052905194
11	0xbe76853c	-0.24074262
12	0xbca48e25	-0.020087311
13	0x3e9ebd4f	0.31003806
14	0xbe32c986	-0.17459688
15	0xbe80748c	-0.25088918
16	0xbdefca23	-0.117084764
17	0x3dc77340	0.09738779
18	0xbe39fb07	-0.18162166
19	0x3d2eaa22	0.04264272
20	0xbec355bb	-0.38151345
21	0xbddf6b52	-0.109091416
22	0xbdf682bd	-0.12036655
23	0x3d138eb2	0.036024757
24	0xbda76fd2	-0.08175625
25	0xbe2c31ca	-0.16815868
26	0xbd0accd2	-0.033886738
27	0xbe4cc287	-0.19996081
28	0xbe819245	-0.25306907
29	0x3e42d074	0.19024831
30	0x3d82ddea	0.06389983
31	0xbdfa826f	-0.122319095
32	0xbe0b7de9	-0.1362225
33	0xbea46d02	-0.32114416
34	0xbeb01873	-0.34393653
35	0x3d0e60f4	0.03476043
36	0xbeb8766c	-0.3602785
37	0xbdc414d9	-0.09574289
38	0xbe47241b	-0.19447367
39	0xbe18ebde	-0.14933726
40	0x3d76f059	0.060287807
41	0x3e04536c	0.12922448
42	0xbe2eba67	-0.17063294
43	0x3d803a3b	0.062611066
44	0xbdd8950b	-0.10575303
45	0x3e975d41	0.29563335
46	0xbd22719b	-0.039659124
47	0xbc88b35d	-0.01668709
48	0x3e2d72e1	0.16938354
49	0xbe642a0d	-0.22281666
50	0x3e1f44e7	0.15553628
51	0xba973441	-0.0011535959
52	0x3bce9fad	0.006305656
53	0xbec4262f	-0.38310382
54	0xbdd13dfc	-0.10216901
55	0xbe381528	-0.1797682
56	0xbea1c79d	-0.31597605
57	0xbe62d92a	-0.22153154
58	0xbdcf290f	-0.10115253
59	0xbe87e04f	-0.2653832
60	0x3c82501c	0.01590734
61	0xbe06e18b	-0.13171975
62	0xbce7e825	-0.028308937
63	0xbe966523	-0.29374036
64	0xbe008366	-0.12550125
65	0xbe52994a	-0.20566288
66	0x3e0adc53	0.1356061
67	0xbe0ddeaa	-0.13854471
68	0xbe6e0947	-0.23245727
69	0xbe21cea9	-0.15801491
70	0xbe89e796	-0.269345
71	0xbe294739	-0.16531076
72	0x3e8df953	0.27729282
73	0xbe9b976a	-0.30388957
74	0x3db913f8	0.09037012
75	0xbe6cb312	-0.23115185
76	0x3e483af3	0.19553737
77	0xbd44fb83	-0.048091423
78	0xb8912d63	-6.922593e-05
79	0xbe91037b	-0.28322968
80	0xbea045f9	-0.31303385
81	0x3d57ea54	0.052713707
82	0x3cecdbc5	0.028913388
83	0xbdb65975	-0.08903781
84	0xbe6bbd5e	-0.23021457
85	0xbe2109c0	-0.15726376
86	0x3e1efe2c	0.15526646
87	0xbd7dea18	-0.061990827
88	0x3d58e60e	0.052953772
89	0xbd0f6912	-0.035012312
90	0xbea53706	-0.32268542
91	0x3e02639d	0.12733312
92	0xbe466f4a	-0.19378391
93	0xbe5076d4	-0.2035783
94	0xbda87642	-0.08225681
95	0xbd105d38	-0.03524515
96	0xbe1958b5	-0.14975245
97	0xbe4e1077	-0.20123468
98	0x3eab4de7	0.33457872
99	0xbe09bd9c	-0.13451236
100	0xbc98f9ee	-0.018673863
101	0xbdfbfd51	-0.12304176
102	0xbcf5550e	-0.029947784
103	0xbeb65dcd	-0.3561844
104	0xbd9ed11e	-0.0775473
105	0xbde0ce09	-0.10976798
106	0xbebdc519	-0.37064436
107	0xbe844b40	-0.2583866
108	0xbe15d553	-0.14632158
109	0xb9ac5f0c	-0.00032877212
110	0xbde6237d	-0.112372376
111	0xbd4d1fd4	-0.05007918
112	0x3f128ce0	0.5724621
113	0x3e0d2535	0.13783725
114	0x3d2aadc2	0.041669615
115	0xbe93227d	-0.2873725
116	0xbe95dc61	-0.29269698
117	0x3dd8af79	0.10580344
118	0xbd80148e	-0.062539205
119	0xbce105aa	-0.027468521
120	0xbe855f28	-0.2604916
121	0x3df8aae0	0.12141967
122	0x3d838e7e	0.064236626
123	0x3dc1bd4d	0.094599344
124	0xbdb323a4	-0.08747032
125	0x3b6e957b	0.0036405015
126	0x3eafc9ff	0.34333798
127	0xbdf015a4	-0.117228776

fc2.weight f4 [128, 128]
0	0x3e7115bd	0.23543449
1	0xbda96b41	-0.0827241
2	0x3bcfddb8	0.0063435696
3	0x3d3de728	0.046363026
4	0xbe1c8648	-0.15285599
5	0x3dda6714	0.10664192
6	0x3d9a51d5	0.075351395
7	0xbdad9375	-0.08475391
8	0xbe155c62	-0.14586022
9	0x3e546781	0.20742609
10	0xbd695a58	-0.056970924
11	0xbe9209c2	-0.2852307
12	0xbe9ad037	-0.3023698
13	0xbd723ebb	-0.059141856
14	0xbdafebd0	-0.085898995
15	0x3a895e8d	0.0010480449
16	0xbe902b7b	-0.28158173
17	0xbca2e728	-0.019885615
18	0xbd53681c	-0.05161296
19	0x3e07f4c3	0.13276963
20	0x3d4d3b31	0.050105277
21	0xbd85f03b	-0.06539961
22	0x3da48501	0.08033181
23	0xbe3081bd	-0.17236991
24	0xbe486a91	-0.19571902
25	0xbe82e322	-0.25563914
26	0xbe280509	-0.16408171
27	0x3ee72aba	0.45149785
28	0x3d4489fa	0.047983147
29	0x3e505097	0.20343243
30	0x3e277802	0.16354373
31	0xbe73715e	-0.23773715
32	0xbe166aae	-0.14689133
33	0xbc82ab1b	-0.01595073
34	0x3e05af25	0.13055094
35	0xbe9673e8	-0.29385304
36	0x3d1fc25d	0.03900372
37	0x3da3cfe8	0.07998639
38	0x3e5162e6	0.20447883
39	0x3db6f54f	0.08933508
40	0xbe8174f6	-0.25284547
41	0x3f1ee092	0.6206142
42	0x3d2057d9	0.039146278
43	0x3db8daee	0.090261325
44	0xbe6eb318	-0.23310506
45	0x3df04c0f	0.11733257
46	0x3e56d291	0.20978762
47	0xbe5e5d96	-0.21715388
48	0x3e4fa6e0	0.20278502
49	0x3e8459f5	0.25849882
50	0x3c5a96e4	0.013341639
51	0x3c38adbe	0.011271892
52	0x3d1a92ab	0.03773753
53	0x3baee0bb	0.0053368486
54	0x3e123c6f	0.14280866
55	0x3e3952c8	0.18097985
56	0xbea3607f	-0.31909558
57	0xbd7f45e2	-0.062322505
58	0x3dc1abd9	0.094566055
59	0x3e2016fc	0.15633768
60	0xbe9a2440	-0.30105782
61	0xbe9a2fe2	-0.30114657
62	0xbf279cb5	-0.6547349
63	0xbed2e0ad	-0.4118704
64	0x3e860c8e	0.26181453
65	0x3dfe30a4	0.12411621
66	0x3cbcef09	0.0230632
67	0x3d0216fb	0.031760197
68	0xbdc7ea4e	-0.09761487
69	0xbe7512cc	-0.23932952
70	0xbdac696c	-0.08418545
71	0x3eb03253	0.34413394
72	0x3d154841	0.03644586
73	0xbed68105	-0.4189531
74	0x3e991747	0.29900572
75	0xbe292217	-0.1651691
76	0xbe4f7176	-0.20258126
77	0xbed0625e	-0.40700048
78	0xbe27dada	-0.16392079
79	0xbd0090aa	-0.031387962
80	0x3ea6c64b	0.3257316
81	0xbe8ccb83	-0.27499017
82	0x3d534ca8	0.051586777
83	0x3d6be349	0.057589803
84	0xbe56cb01	-0.20975877
85	0xbe160ad4	-0.14652568
86	0xbe0c476b	-0.13699119
87	0x3d3fc28d	0.046816397
88	0xbe650486	-0.22365007
89	0x3dba0a5b	0.090840064
90	0x3e04944e	0.12947199
91	0x3e7601e1	0.24024154
92	0x3c9956d3	0.018718159
93	0x3c0d481b	0.008623148
94	0xbe04156e	-0.128988
95	0xbe1e3a95	-0.15452035
96	0x3e677705	0.22603996
97	0xbe71fbe2	-0.23631242
98	0xbe777015	-0.2416385
99	0xbe19a3dd	-0.15003915
100	0xbbe5778a	-0.0070027756
101	0xbdbd68f1	-0.092485316
102	0xbda1df4f	-0.07903921
103	0xbe1a444d	-0.15065117
104	0xbdc5e1e2	-0.09662224
105	0x3dda2a6f	0.10652625
106	0x3c82cadb	0.01596587
107	0xbe507a47	-0.20359145
108	0xbe9ae50c	-0.30252874
109	0xbd0fa63d	-0.035070647
110	0xbec89511	-0.3917623
111	0xbed60e4b	-0.4180778
112	0x3db1f5cd	0.08689461
113	0xbd208113	-0.039185595
114	0xbe865c24	-0.26242173
115	0xbc1f59bb	-0.009725983
116	0x3d4dbcca	0.05022887
117	0x3eb23b68	0.34810948
118	0x3eb75e3a	0.35814077
119	0xbe67fb7b	-0.22654526
120	0xbcc166af	-0.023608534
121	0x3da3522c	0.079746574
122	0xbd0cf112	-0.03440959
123	0xbea57b0b	-0.32320437
124	0x3d3b20b5	0.04568549
125	0xbe6f0b1e	-0.23344085
126	0xbe92cc6a	-0.2867158
127	0xbd2bcc0d	-0.041942645
128	0xbdfd4a94	-0.1236774
129	0xbdda3c59	-0.10656042
130	0xbce63716	-0.028102439
131	0x3d20862c	0.039190456
132	0xbe473e27	-0.19457303
133	0xbe016251	-0.12635161
134	0x3d83e9dd	0.0644109
135	0x3e3e8334	0.18604738
136	0x3c88c789	0.016696708
137	0xbe1f7d3e	-0.1557512
138	0xbd0299fb	-0.03188513
139	0x3d59128b	0.0529962
140	0x3e149eb2	0.14513662
141	0xbe40eafc	-0.1883964
142	0xbd6a1511	-0.057148997
143	0x3e3d89d6	0.18509611
144	0xbc8c8e0a	-0.017157573
145	0x3dc68eec	0.09695229
146	0xbe09b418	-0.13447607
147	0xba0a2ec3	-0.000527125
148	0xbd4dc1f5	-0.0502338
149	0xbd5b9a0f	-0.05361372
150	0xbd4e4cf6	-0.050366364
151	0x3d4f7caf	0.050656017
152	0x3dfbb956	0.122912094
153	0xbdc582b5	-0.09644071
154	0x3df5ce78	0.120022714
155	0xbc37a7c3	-0.011209431
156	0xbdef7091	-0.11691392
157	0xbead8321	-0.33889106
158	0xbe8bf31d	-0.27333918
159	0xbd9a20dc	-0.07525799
160	0x3dd7c039	0.105347104
161	0xbc72f0f3	-0.014827955
162	0xbe6e30b7	-0.2326077
163	0xbbb3ae6c	-0.005483439
164	0x3e1e9efc	0.15490335
165	0x3e114f59	0.14190425
166	0x3b8bd98a	0.004267876
167	0x3e328d53	0.17436723
168	0xbe1cb460	-0.15303183
169	0xbd3f5fa0	-0.046722054
170	0x3c7fffa1	0.0156249115
171	0x3d3f70b5	0.046738345
172	0x3c8bf331	0.017083736
173	0xbdf923bb	-0.12165018
174	0xbc06494b	-0.008196185
175	0x3e144af0	0.14481711
176	0xbd3796a2	-0.04482139
177	0xbdf7c7e5	-0.12098674
178	0x3de9714e	0.11398564
179	0x3e0720ec	0.13196152
180	0xbdd85fce	-0.10565148
181	0x3ea3ea0a	0.32014495
182	0xbe397481	-0.18110849
183	0x3dd62cd0	0.10457766
184	0xbd236153	-0.039887737
185	0x3c4afa93	0.012388843
186	0xb9d31a92	-0.00040264853
187	0xbddc0c97	-0.10744589
188	0x3dc52d49	0.09627778
189	0x3e82f901	0.255806
190	0xbe9abbcf	-0.30221412
191	0xbe4c750d	-0.19966526
192	0xbe482d2f	-0.19548486
193	0xbe42796a	-0.18991628
194	0xbdfcc6f5	-0.123426355
195	0xbd2044f9	-0.039128277
196	0x3d95f5fb	0.07322308
197	0xbdbf0052	-0.09326233
198	0x3daa9b7a	0.08330436
199	0x3dd7a03e	0.10528611
200	0x3d0d95d8	0.03456673
201	0x3ea8758b	0.32902178
202	0xbe284be6	-0.16435203
203	0xbd433e76	-0.04766699
204	0xbe0cd467	-0.137529
205	0x3e146941	0.14493276
206	0x3e160c53	0.14653139
207	0xbddd2cb5	-0.10799543
208	0xbbc34acf	-0.0059598456
209	0xbf047540	-0.5174141
210	0x3e0d1793	0.13778524
211	0x3e378851	0.17923094
212	0x3e57d832	0.21078566
213	0x3e4e8b14	0.20170242
214	0xbe047ef2	-0.12939051
215	0xbcefa024	-0.029251166
216	0xbeea36bd	-0.45744887
217	0xbe8e4f8e	-0.2779507
218	0x3d8d96d7	0.06913536
219	0xbde9e6a8	-0.11420947
220	0xbdcbc8dc	-0.0995042
221	0xbc1165ee	-0.0088744
222	0xbea335e8	-0.31877065
223	0xbd80bc35	-0.06285898
224	0xbe7d75d1	-0.24751975
225	0x3e8430ed	0.25818577
226	0x3e069167	0.13141404
227	0xbe07d9fc	-0.13266748
228	0x3e3ef111	0.18646647
229	0x3e63dffa	0.22253409
230	0x3e32b2d4	0.1745103
231	0x3ddb4ea5	0.1070836
232	0xbb18984d	-0.0023284138
233	0xbe97e572	-0.2966724
234	0xbd1468a5	-0.03623261
235	0x3d03441f	0.032047387
236	0x3c561a68	0.013067819
237	0xbcd70a9b	-0.026250174
238	0x3e260fd6	0.16216978
239	0x3d6c6fb8	0.05772373
240	0x3d823a4f	0.06358778
241	0x3d7ecdeb	0.062208097
242	0xbe887721	-0.26653388
243	0xbe6757a6	-0.22592029
244	0x3e338342	0.1753054
245	0xbd724e5d	-0.059156764
246	0xbe08f8ae	-0.13376114
247	0xbe8a67d8	-0.27032351
248	0x3e00c2e5	0.12574346
249	0x3dc5646c	0.096382946
250	0x3ecee2bf	0.4040737
251	0xbe38989e	-0.18026969
252	0xbc4efcbd	-0.0126335
253	0x3e173108	0.14764798
254	0x3cf10dfa	0.02942561
255	0xbe56296a	-0.20914236

fc2.bias f4 [128]
0	0x3ced89d1	0.02899638
1	0xbda6204b	-0.08111628
2	0xbde4ee52	-0.111782685
3	0xbcad8733	-0.021182632
4	0x3cfbec7c	0.030752413
5	0x3cc3d616	0.023905795
6	0xbedb17df	-0.4279165
7	0x3db33cfe	0.08751868
8	0xbec72b55	-0.38900247
9	0xbe2714e8	-0.16316569
10	0xbd0be3bc	-0.03415273
11	0xbddb8434	-0.10718575
12	0xbd915854	-0.070969254
13	0x3ced8cc5	0.028997788
14	0xbe06be37	-0.13158499
15	0x3daf2979	0.08552832
16	0xbd6da58b	-0.058019202
17	0xbe2f5d32	-0.17125395
18	0xbec77c02	-0.38961798
19	0x3ccb9e21	0.024855675
20	0xbe578e1f	-0.21050309
21	0x3c2e5c6c	0.010642152
22	0xbe00ca7c	-0.12577242
23	0x3ded4b72	0.11586656
24	0xbd0f7c6b	-0.035030764
25	0x3e9de7b6	0.30840844
26	0xbdba1f16	-0.090879604
27	0xbeaf2bc0	-0.34213066
28	0xbde46fa1	-0.11154104
29	0xbde97ccd	-0.11400757
30	0xbe82a1a7	-0.25513956
31	0xbe965b2c	-0.29366434
32	0xbdb53a9a	-0.08849068
33	0xbc6e2974	-0.01453625
34	0xbcdbdc30	-0.026838392
35	0xbe931ac5	-0.2873136
36	0xbeae3c55	-0.34030405
37	0xbd7b13db	-0.061298233
38	0xbbe52358	-0.0069927387
39	0xbe4c2166	-0.19934615
40	0xbbbb1c89	-0.0057101888
41	0x3d069ca7	0.03286424
42	0xbe7cf583	-0.2470303
43	0xbd6426f2	-0.055701204
44	0xbdefcbda	-0.117088035
45	0xbddec73b	-0.10877844
46	0x3d54de6d	0.051969934
47	0xbdb38c0a	-0.08766945
48	0xbd352348	-0.0442231
49	0xbe530789	-0.20608343
50	0xbdfaa8c7	-0.12239223
51	0x3c9a0b60	0.018804252
52	0xbe434fb7	-0.19073378
53	0xbc2adde4	-0.010428879
54	0xbe13fef2	-0.14452723
55	0xbe8b4983	-0.27204522
56	0x3e5e6148	0.21716797
57	0xbd07dbb1	-0.0331685
58	0x3da78318	0.08179301
59	0xbca996bb	-0.020701757
60	0x3c9bf48e	0.019037511
61	0x3d9a3514	0.07529655
62	0xbe3db51a	-0.18526116
63	0xbd05bbe4	-0.03264989
64	0xbe4bbc9d	-0.19896169
65	0x3d655f87	0.055999305
66	0xbe61f68c	-0.22066706
67	0xbde9f557	-0.11423748
68	0xbe9f9c03	-0.31173715
69	0xbec4cedc	-0.3843907
70	0xbd406810	-0.04697424
71	0xbd641f0f	-0.055693682
72	0xbeac31df	-0.336318
73	0xbd9518d4	-0.07280126
74	0xbe91b6bc	-0.28459728
75	0xbe294dec	-0.16533631
76	0xbd8b7cc3	-0.06810906
77	0xbe0621ad	-0.13098784
78	0xbe3968f0	-0.18106437
79	0x3d111505	0.035420436
80	0xbe81f387	-0.2538111
81	0xbe46eed1	-0.19427039
82	0xbc82e4c0	-0.015978217
83	0xbea5c7d8	-0.3237903
84	0x3d7fe6e0	0.06247604
85	0xbef22ee1	-0.4730139
86	0x3e42df80	0.19030571
87	0xbe6d6a5f	-0.23185109
88	0xbda25377	-0.07926076
89	0xbd73b44d	-0.05949812
90	0x3e26ff95	0.16308434
91	0xbd85594c	-0.06511173
92	0xbea48086	-0.32129306
93	0xbea5efe6	-0.3240959
94	0x3e1f25aa	0.15541711
95	0x3ded9c9f	0.11602139
96	0xbd83d3b5	-0.06436864
97	0xbeb4afd4	-0.35290396
98	0xbe575391	-0.21027972
99	0xbd435bf2	-0.047695108
100	0xbd9d100b	-0.076690756
101	0x3db810a7	0.08987551
102	0xbdef7853	-0.11692872
103	0xbdd54ec2	-0.104154125
104	0x3c5e51bd	0.013569293
105	0x3d98294b	0.07429751
106	0xbf01b1fe	-0.5066222
107	0xbe9d5860	-0.30731487
108	0xbee23bfe	-0.44186395
109	0x3d2eec7d	0.042706
110	0xbbba7d36	-0.005691196
111	0x3ddbddd6	0.10735671
112	0xbd5dde23	-0.054166924
113	0xbe30eed6	-0.17278609
114	0x3e1da5aa	0.15395227
115	0x3e0e5463	0.13899378
116	0xbeba3c7e	-0.36374277
117	0xbdfa66c6	-0.12226634
118	0xbc6f7fbe	-0.014617858
119	0xbda34d76	-0.07973759
120	0xbe3fcd1d	-0.18730588
121	0xbd5d0cff	-0.053967472
122	0x3c8bab49	0.017049449
123	0xbe484bee	-0.19560215
124	0xbec89b6c	-0.39181077
125	0xbd3bf7d3	-0.04589064
126	0xbdcbbac3	-0.09947731
127	0x3e528150	0.20557141

fc3.weight f4 [4, 128]
0	0x3d97f4dd	0.07419751
1	0xbe2ae159	-0.16687526
2	0x3d5b7b29	0.05358425
3	0x3dfa8462	0.12232281
4	0x3e06910b	0.13141267
5	0xbbf819e5	-0.0075714462
6	0xbebc5dca	-0.36790305
7	0xbe8f0526	-0.27933615
8	0xbc73f240	-0.0148893
9	0x3c187722	0.009305747
10	0xbde8ed7c	-0.113734215
11	0xbc28c78c	-0.010301482
12	0xbe047147	-0.12933837
13	0x3c9ef018	0.019401595
14	0xbdf571da	-0.11984606
15	0x3dea0d2e	0.11428295
16	0x3e9139bf	0.2836437
17	0x3e8ee9c8	0.27912736
18	0x3f04f3f4	0.5193474
19	0xbe7e54bf	-0.24837016
20	0x3e37efb6	0.17962536
21	0xbd399d76	-0.045316182
22	0x3e205c02	0.15660098
23	0xbdcf999c	-0.101367205
24	0xbbdc1a6f	-0.0067170183
25	0xbd328ea4	-0.043593064
26	0x3e1079df	0.1410899
27	0xbde5312d	-0.1119102
28	0xbe870a66	-0.2637512
29	0x3d08f32f	0.033435043
30	0xbea8b882	-0.32953268
31	0xbe380f9a	-0.17974702
32	0xbdf1d620	-0.11808419
33	0x3d6e3ad6	0.05816158
34	0xbdf5a0e2	-0.119935766
35	0x3e32dbc8	0.17466652
36	0x3cf7f619	0.030268716
37	0x3d7cfdb5	0.06176539
38	0x3d7eb61b	0.062185388
39	0x3dc7cbd0	0.09755671
40	0x3e8126af	0.25224826
41	0x3e0220d1	0.12707831
42	0x3e3f7fb8	0.18701065
43	0x3e7244e7	0.23659097
44	0x3e5fc112	0.21850994
45	0x3e394b20	0.18095064
46	0x3d176a3f	0.03696656
47	0x3d53821d	0.051637758
48	0xbdc8ecac	-0.098107666
49	0xbe806823	-0.2507945
50	0x3d55367b	0.05205391
51	0x3d7b06c7	0.06128576
52	0x3e2617e9	0.16220059
53	0x3e8e3136	0.2777192
54	0xbe0e287f	-0.13882636
55	0x3d56759d	0.05235826
56	0x3e16e2be	0.14734933
57	0x3e411880	0.18857002
58	0x3da91ae6	0.082570836
59	0xbdf12b72	-0.11775865
60	0x3e83d9ff	0.25752255
61	0xbe33b618	-0.17549932
62	0xbdeb9d00	-0.11504555
63	0x3d8dc05b	0.069214545
64	0xbe5a33df	-0.2130885
65	0x3da2ddf7	0.07952493
66	0xbea7eb36	-0.3279664
67	0xbd755f9d	-0.059905637
68	0xbd9f60ef	-0.077821605
69	0xbea08003	-0.31347665
70	0x3db5a7e2	0.08869912
71	0xbe2c50e8	-0.16827738
72	0xbe348ca0	-0.17631769
73	0xbe7a3478	-0.24434078
74	0x3d1b729f	0.037951108
75	0xbdae6574	-0.085154444
76	0xbcab500c	-0.020912193
77	0xbdb67704	-0.08909419
78	0xbce373ac	-0.027765118
79	0xbe4e5e12	-0.20153072
80	0x3d778f80	0.060439587
81	0x3dc91905	0.09819225
82	0x3bb01a09	0.0053741974
83	0xbeb54909	-0.35407284
84	0x3c7f39a8	0.015577711
85	0x3d0568cd	0.03257065
86	0xbe17a04a	-0.14807239
87	0xbdf86857	-0.12129276
88	0xbdd23d4c	-0.10265598
89	0x3e069d94	0.13146049
90	0x3e55c5ee	0.20876285
91	0xbe8c30d1	-0.27380994
92	0x3efb97e7	0.4913933
93	0xbe643a41	-0.22287847
94	0xbdb17929	-0.086656876
95	0xbd930f67	-0.07180672
96	0x3db5b416	0.08872239
97	0x3e119029	0.14215149
98	0xbdc5a5c7	-0.0965076
99	0xbe13b504	-0.1442452
100	0x3e2c7133	0.16840057
101	0xbe228632	-0.15871504
102	0x3c917768	0.017757133
103	0xbeef7f01	-0.46776584
104	0x3d6f1375	0.058368165
105	0x3dc6ef67	0.09713631
106	0xbe545bad	-0.20738097
107	0xbe17ee6b	-0.14837043
108	0x3da35940	0.079760075
109	0x3dc363d0	0.09540522
110	0x3dc60fdc	0.09670994
111	0x3e0cf612	0.13765743
112	0xbe163e32	-0.14672163
113	0xbb10ed57	-0.0022114122
114	0xbd125571	-0.035726015
115	0x3d1d064e	0.03833609
116	0xbe7857b8	-0.24252212
117	0xbceac8d3	-0.028660214
118	0x3c47c961	0.012194009
119	0x3e02e177	0.1278132
120	0x3d2eb90a	0.042656936
121	0xbe58d113	-0.21173505
122	0x3d940a50	0.072285295
123	0x3d45a775	0.048255403
124	0x3e2f827c	0.1713962
125	0xbd972b16	-0.07381265
126	0x3e83946e	0.2569918
127	0x3e550711	0.20803477
128	0xbf099c54	-0.5375416
129	0x3e4a9050	0.19781613
130	0xbd8d04e0	-0.068856955
131	0xbda516db	-0.08061
132	0xbe2cec9d	-0.16887136
133	0xbdbb5220	-0.091465235
134	0xbe1cb58e	-0.15303633
135	0xbe06b546	-0.13155088
136	0xbdf26dab	-0.11837324
137	0xbe563f65	-0.2092262
138	0xbe81faa9	-0.2538655
139	0xbce42fac	-0.027854763
140	0xbe1e8925	-0.15482004
141	0xbe1ff3e8	-0.15620387
142	0xbe3a6f38	-0.18206489
143	0x3e8d3adf	0.27583978
144	0xbb6b669f	-0.0035919321
145	0xbe35cb51	-0.1775334
146	0x3e43407e	0.1906757
147	0xbe62cad4	-0.22147685
148	0xbea97317	-0.3309562
149	0xbea6e550	-0.32596827
150	0x3e57bb93	0.21067648
151	0x3da94e4c	0.08266887
152	0x3e6e9227	0.2329794
153	0x3d36b846	0.04460933
154	0x3e3dc244	0.18531138
155	0xbea61205	-0.32435623
156	0x3e1999fa	0.15000144
157	0x3ce0e640	0.027453542
158	0x3e5404c1	0.20704938
159	0xbddfb660	-0.10923457
160	0xbe79104b	-0.24322622
161	0x3ea9c1f5	0.3315579
162	0x3d2c3a97	0.042048063
163	0xbd8ad414	-0.06778732
164	0xbd44a6f8	-0.048010796
165	0xbce6ed16	-0.028189223
166	0x3bcba872	0.0062151486
167	0x3e7636b4	0.24044305
168	0xbdba73f1	-0.09104145
169	0x3e1b495a	0.151647
170	0x3ecd8a1a	0.40144426
171	0x3eaf41da	0.34229928
172	0x3e4ed647	0.20198928
173	0xbea22ce9	-0.3167489
174	0x3e8f1cdf	0.27951714
175	0xbe5eeed1	-0.21770789
176	0x3e6dcaf4	0.23221952
177	0x3e206fc8	0.15667641
178	0xbd8c68f1	-0.068559535
179	0x3dfa300d	0.12216196
180	0x3baf13d1	0.0053429385
181	0xbe7173b3	-0.23579292
182	0x3e15cfab	0.1463
183	0x3d997957	0.07493847
184	0x3dbb1b08	0.09136015
185	0x3dde10f4	0.10843077
186	0x3e0a22bf	0.13489817
187	0xbe8f8160	-0.28028393
188	0x3dfb8f65	0.1228321
189	0x3e990ff6	0.2989499
190	0xbe955e29	-0.291734
191	0xbdaa373c	-0.08311316
192	0xbc7715aa	-0.015080849
193	0x3db79bfb	0.08965298
194	0xbcd19026	-0.02558143
195	0xbe6eb6e9	-0.23311962
196	0x3e0149da	0.12625828
197	0xbeaf4824	-0.34234726
198	0xbdc2942b	-0.09500917
199	0x3d1f0887	0.03882649
200	0x3f1584ce	0.5840577
201	0xbe2be6d5	-0.16787274
202	0x3cc76fcd	0.024345303
203	0x3f022b7c	0.508476
204	0xbd564a18	-0.052316755
205	0xbd2018cf	-0.03908616
206	0xbce80d73	-0.028326726
207	0xbe2a3f75	-0.1662577
208	0xbc38ee7e	-0.01128733
209	0x3e07a9d4	0.13248378
210	0xbe72cb39	-0.23710336
211	0x3e01df26	0.1268278
212	0x3dd26f6c	0.10275158
213	0x3e172048	0.14758408
214	0xbdefd0a7	-0.11709719
215	0x3e240b3a	0.16019908
216	0x3e079357	0.132398
217	0x3c88ba94	0.01669053
218	0x3e14af8d	0.14520092
219	0x3dd1b19d	0.10238955
220	0xbcc596ea	-0.024119813
221	0x3e343653	0.17598848
222	0x3d926f6b	0.071501575
223	0x3dd93496	0.10605733
224	0xbe47c6f6	-0.19509491
225	0x3f24ebbd	0.6442221
226	0xbe808e9e	-0.25108808
227	0xbdae0fd4	-0.08499113
228	0x3e51eac8	0.20499718
229	0x3cfe1d0e	0.031019714
230	0xbe4b3be4	-0.19847065
231	0x3e61adc5	0.22038944
232	0xbd119d0c	-0.035550162
233	0xbe336833	-0.17520218
234	0xbdc684f7	-0.0969333
235	0xbe390b8c	-0.18070811
236	0x3d80575c	0.062666625
237	0xbdcfeccf	-0.101525895
238	0x3c406a4b	0.011744092
239	0x3dec5c0a	0.115409926
240	0x3f2bfd46	0.6718334
241	0xbe7618b3	-0.2403286
242	0xbe83264c	-0.25615156
243	0x3e159e43	0.14611153
244	0xbe05d564	-0.13069683
245	0xbe00877c	-0.12551683
246	0x3e831642	0.2560292
247	0x3f32bcbe	0.6981925
248	0x3d965065	0.07339553
249	0xbdd0e350	-0.101996064
250	0xbc1e5015	-0.009662648
251	0x3e835180	0.25648117
252	0xbeb1db7e	-0.34737772
253	0xbe9441ab	-0.2895635
254	0xbc4a7a63	-0.012358281
255	0xbe338434	-0.175309

fc3.bias f4 [4]
0	0x3d94f13f	0.072725765
1	0x3dda467a	0.106579736
2	0x3d80212e	0.062563285
3	0xbd0fe9c8	-0.03513506

bn1.weight f4 [128]
0	0x3f1e4f1f	0.6183948
1	0x3f050c34	0.51971745
2	0x3f01abd6	0.50652826
3	0x3f662d58	0.8991294
4	0x3f61a2e8	0.881392
5	0x3ea165cf	0.31522986
6	0x3f66ab20	0.90104866
7	0x3ebe0826	0.37115592
8	0x3f4ac44a	0.79205763
9	0x3f04c39a	0.51860964
10	0x3f4b7f1d	0.79490834
11	0x3eea56a0	0.45769215
12	0x3f6c7ea5	0.92380744
13	0x3f014f1f	0.50511354
14	0x3eb2c333	0.3491455
15	0x3f3296d3	0.6976139
16	0x3f2d4e28	0.6769738
17	0x3f3f34f7	0.7469019
18	0x3f8117e8	1.0085421
19	0x3f2d5a16	0.67715585
20	0x3ebeb9b7	0.37251064
21	0x3f33b27b	0.70194215
22	0x3f34e46a	0.7066103
23	0x3f4931f0	0.78591824
24	0x3f2daa9e	0.67838466
25	0x3f0a0208	0.5390935
26	0x3f4bf5b9	0.7967182
27	0x3f2a01e6	0.66409147
28	0x3f601954	0.8753865
29	0x3f529f4f	0.82274336
30	0x3ef8e173	0.48609504
31	0x3efd7056	0.49499768
32	0x3f116c87	0.56806225
33	0x3eed8d78	0.46396995
34	0x3f2094fe	0.62727344
35	0x3eb129db	0.34602246
36	0x3f6aabc1	0.91668326
37	0x3e99f4e4	0.3006965
38	0x3f474756	0.77843225
39	0x3f63865f	0.8887691
40	0x3f25abda	0.6471535
41	0xbef5daab	-0.48018393
42	0x3efb8b5f	0.4912977
43	0x3ee1b7b8	0.4408548
44	0x3f017e29	0.5058313
45	0x3f803ff2	1.0019515
46	0x3f74b9c5	0.9559596
47	0x3f08dc5f	0.5346126
48	0x3ee8cf55	0.45470682
49	0x3f0a8516	0.54109323
50	0x3f00e1eb	0.50344723
51	0x3f50647d	0.8140333
52	0x3f10371f	0.5633411
53	0x3f58deb3	0.8471481
54	0x3f22a474	0.63532186
55	0x3e75012d	0.2392623
56	0x3f1a15a8	0.60189295
57	0x3f119f6e	0.56883895
58	0x3f2839d0	0.65713215
59	0x3f162f5c	0.58666015
60	0x3f0b67fd	0.5445555
61	0x3ec07ca3	0.3759509
62	0x3f0b3ddb	0.5439126
63	0x3f2bbef3	0.6708824
64	0x3f7b1294	0.9807522
65	0x3f4046dd	0.7510813
66	0x3eb42149	0.35181645
67	0x3f640a8f	0.8907861
68	0x3f4be349	0.79643685
69	0x3ef5f043	0.48034868
70	0x3eff8a7f	0.49910352
71	0x3f664e5c	0.89963317
72	0x3f072b3e	0.5280036
73	0x3ea15c2f	0.31515643
74	0x3f0f5209	0.5598455
75	0x3f105f0b	0.56395024
76	0x3f5fd29f	0.8743076
77	0x3f43bb6c	0.7645786
78	0x3f4141b7	0.754909
79	0x3f1214d6	0.57063043
80	0x3f1ed6ff	0.6204681
81	0x3f4143c8	0.7549405
82	0x3f3086b2	0.6895553
83	0x3f39f1b7	0.7263445
84	0x3f068e7c	0.52561164
85	0x3ec4bf77	0.38427326
86	0x3f5d57fc	0.8646238
87	0x3fc07109	1.5034496
88	0x3f40e98d	0.7535637
89	0x3f002c3a	0.50067484
90	0x3ef14591	0.47123387
91	0x3f0cd53d	0.55012876
92	0x3f145004	0.57934594
93	0x3f056ff4	0.5212395
94	0x3f2a04cd	0.66413575
95	0x3f438513	0.7637493
96	0x3f0df943	0.5545847
97	0x3ecd43a1	0.4009066
98	0x3f2bd865	0.67127067
99	0x3f7969cc	0.9742706
100	0x3f655719	0.89586025
101	0x3ef89df4	0.4855801
102	0x3f5fb419	0.8738418
103	0x3ecfde3f	0.40599248
104	0x3f9101a4	1.1328626
105	0x3f1a5c60	0.60297203
106	0x3ec06b66	0.37581939
107	0x3f537788	0.82604265
108	0x3f2f6046	0.68506277
109	0x3f1cb598	0.6121459
110	0x3f07c034	0.53027654
111	0x3f5bd00d	0.85864335
112	0x3f10a2d1	0.5649844
113	0x3f81e1ee	1.0147073
114	0x3f559311	0.8342753
115	0x3f18efc0	0.5974083
116	0x3effdde9	0.49973992
117	0x3eddaab4	0.432943
118	0x3f6ac4bf	0.9170646
119	0x3f2a2a1d	0.6647051
120	0x3f1c501b	0.6105973
121	0x3f412e36	0.7546114
122	0x3f62c71b	0.8858506
123	0x3f4be06e	0.7963933
124	0x3ef93418	0.48672557
125	0x3ee68f92	0.4503141
126	0x3f0b8489	0.5449911
127	0x3f4b2aea	0.79362357

bn1.bias f4 [128]
0	0xbde1f2e3	-0.11032655
1	0xbdf60916	-0.12013452
2	0xbe40e6ab	-0.18837993
3	0x3d9f9a3a	0.07793088
4	0x3e50b65b	0.20382063
5	0xbb129530	-0.0022366755
6	0x3d210e04	0.039320007
7	0x3e019bc0	0.1265707
8	0x3e0e67d7	0.139068
9	0x3df56c15	0.11983506
10	0xbd671854	-0.056419685
11	0x3d6e7c0a	0.05822376
12	0x3eacb851	0.33734372
13	0x3d8c1744	0.06840375
14	0x3b818101	0.003952146
15	0xbe583ea2	-0.21117643
16	0x3cf5bdc5	0.029997716
17	0x3e3323a2	0.17494062
18	0x3de6dbef	0.11272418
19	0xbd1d166f	-0.038351472
20	0xbd85056d	-0.064951755
21	0x3dbc0728	0.091810524
22	0x3e34ff12	0.17675427
23	0xbd72238c	-0.05911593
24	0x3dfcd4bd	0.12345264
25	0xbdb2f440	-0.08737993
26	0xbea97684	-0.33098233
27	0xbe5b5eca	-0.21422878
28	0x3c898c01	0.016790392
29	0x3c4e695d	0.012598363
30	0xbe5cb9ef	-0.21555303
31	0x3e4508c3	0.19241624
32	0x3e9bfef1	0.30467942
33	0x3d268123	0.040650498
34	0x3e4c5879	0.19955625
35	0x3aa19ddd	0.0012330372
36	0x3e5b5a42	0.2142115
37	0xbd17e4ff	-0.037083622
38	0x3e742ad5	0.23844464
39	0xbd963a37	-0.07335322
40	0x3f0012a2	0.5002843
41	0xbf1203d5	-0.570371
42	0x3e13b6e9	0.14425243
43	0xbcf5af2f	-0.02999076
44	0x3e6026cb	0.21889798
45	0x3edec6a7	0.43510935
46	0xbc383b5d	-0.011244622
47	0xbd78ff56	-0.060790382
48	0xbe765656	-0.24056372
49	0xbc4f7333	-0.012661743
50	0xbe330658	-0.17482889
51	0x3e92d929	0.28681305
52	0x3ca6b945	0.020352015
53	0x3d88c6c0	0.066785336
54	0x3e688f62	0.22710946
55	0xbea48b58	-0.3213756
56	0x3ae2043b	0.0017243692
57	0x3e3ed156	0.18634543
58	0xbd37b55f	-0.044850703
59	0x3df0a117	0.117494754
60	0x3cc6d089	0.02426936
61	0x3e7d4173	0.24731998
62	0x3e7d640b	0.24745195
63	0x3e74e514	0.23915511
64	0x3dafd5bc	0.085856885
65	0x3e5f1711	0.21786143
66	0x3cf49db9	0.029860364
67	0xbdb11f85	-0.0864859
68	0xbdb14596	-0.086558506
69	0x3d4c8e4d	0.049940396
70	0xbc57e8a9	-0.013178029
71	0xbd3cebb3	-0.046123218
72	0x3e854298	0.2602737
73	0x3d024c11	0.031810824
74	0xbd318f68	-0.043349653
75	0xbe286f82	-0.16448787
76	0xbdceeeca	-0.10104139
77	0x3e11e1d9	0.1424631
78	0x3c92216d	0.017838204
79	0xbcda7485	-0.026666889
80	0x3d72d2e4	0.059283152
81	0x3dfe52bc	0.12418124
82	0x3e0e79fa	0.13913718
83	0x3e35bf22	0.17748693
84	0x3e446fc3	0.19183259
85	0xbe029cb3	-0.12755089
86	0x3eeebb43	0.46627244
87	0xbe0007be	-0.12502953
88	0x3cf98097	0.030456824
89	0x3e1a1160	0.1504569
90	0xbba09164	-0.0049001444
91	0x3ebb60f6	0.36597413
92	0x3eb90d62	0.36143023
93	0xbd44ec8f	-0.048077162
94	0x3e8379cc	0.2567886
95	0x3e3a58bf	0.18197916
96	0x3e077993	0.1322997
97	0x3de8aa4c	0.113606066
98	0xbd0db87b	-0.034599762
99	0xbd007981	-0.031365875
100	0x3d06065d	0.032720912
101	0xbdd3ce05	-0.103420295
102	0x3da2fdf9	0.07958598
103	0xbc398503	-0.011323216
104	0x3f121bbc	0.5707357
105	0x3cf83564	0.030298896
106	0x3b063fd6	0.0020484827
107	0xbc6fb4f7	-0.014630548
108	0xbd2d5402	-0.042316444
109	0x3e0d7ebf	0.13817881
110	0x3de81786	0.11332612
111	0x3ea0f4a9	0.3143666
112	0x3d2e15c8	0.04250124
113	0xbdfdf1ea	-0.12399657
114	0xbd4ee7bc	-0.050513968
115	0x3d12fc33	0.035885047
116	0xbf0e6dcd	-0.5563629
117	0xbe9b452c	-0.3032621
118	0xbd26f09b	-0.040756803
119	0x3e056ed3	0.13030557
120	0x3dbb08f6	0.091325685
121	0x3d4998f4	0.049218133
122	0xbd64f45b	-0.055897098
123	0x3e82a2ee	0.2551493
124	0xbe49c187	-0.19702731
125	0xbe94d203	-0.29066476
126	0x3e97426e	0.2954287
127	0x3db6367a	0.08897109

bn1.running_mean f4 [128]
0	0x3e10574d	0.14095803
1	0x3e91e807	0.28497335
2	0x3d26375d	0.040580142
3	0x3f574f37	0.8410525
4	0x3e2b08f9	0.16702642
5	0x3a5e1e3f	0.0008473135
6	0x3f03eeb5	0.51536113
7	0x3dc978ca	0.09837492
8	0x3dbc3998	0.09190673
9	0x3d7c2564	0.061559096
10	0x3ee3f48f	0.4452252
11	0x3d4087ad	0.04700439
12	0x3e462562	0.19350198
13	0x3f64365c	0.89145446
14	0x3e8725be	0.26395983
15	0x2894eb1a	1.653326e-14
16	0x3e457791	0.19283892
17	0x3f301a26	0.687899
18	0x3e1cb340	0.15302753
19	0x3f6c618f	0.9233636
20	0x39d98ba7	0.00041493514
21	0x3e807ae9	0.25093773
22	0x3e5350d5	0.20636304
23	0x3f5e517f	0.86843103
24	0x3e16de42	0.14733222
25	0x3e0df92a	0.1386458
26	0x3f28fbfe	0.6600951
27	0x3f532db4	0.8249161
28	0x3d68a34c	0.056796357
29	0x3eb45b4f	0.35225913
30	0x3d4f09e3	0.050546538
31	0x3e43e6d6	0.19131026
32	0x3e44ab13	0.19205885
33	0x3e74a008	0.23889172
34	0x3d914f35	0.07095186
35	0x3f105a3b	0.5638768
36	0x3d2b3707	0.041800525
37	0x392db8f5	0.00016567468
38	0x3eebd028	0.46057248
39	0x3e18a636	0.14907154
40	0x3eaa5004	0.33264172
41	0x3f8b2e02	1.0873415
42	0x3eee491b	0.4654015
43	0x3eedd694	0.46452773
44	0x3e869bcc	0.2629074
45	0x3f5891cd	0.84597474
46	0x3e1fee87	0.15618335
47	0x3ee29980	0.44257736
48	0x3eb7dbc3	0.35909852
49	0x365535f8	3.1770887e-06
50	0x3ef53cd5	0.47897974
51	0x3ed5e91a	0.41779405
52	0x3e8e0093	0.27734813
53	0x3e810e12	0.25206047
54	0x3e39cf6b	0.1814553
55	0x3f28c3c2	0.659237
56	0x0e2fd0a8	2.167088e-30
57	0x3da8fa4b	0.082508646
58	0x3e5f3e47	0.218011
59	0x3f046e93	0.5173122
60	0x3f76a8d2	0.9635135
61	0x3ea2a6e4	0.31767952
62	0x3e8a9893	0.2706953
63	0x3d1e8ff8	0.038711518
64	0x3e407176	0.18793282
65	0x3e2c1f66	0.16808853
66	0x3f313599	0.6922241
67	0x3d424303	0.04742719
68	0x3d4c04e0	0.049809337
69	0x3ef899e1	0.485549
70	0x3f1b21fa	0.6059872
71	0x3e3741b5	0.17896159
72	0x3ff941e7	1.9473237
73	0x3709841d	8.196596e-06
74	0x3db09c3d	0.0862355
75	0x3e9292d3	0.28627643
76	0x3f717271	0.9431525
77	0x3f489f70	0.7836828
78	0x3f0c9cd3	0.54926795
79	0x3e00475b	0.1252722
80	0x3ed37c97	0.41305992
81	0x3dcf287f	0.10115146
82	0x3f1552e7	0.58329624
83	0x3e5a526d	0.21320505
84	0x3dad9670	0.08475959
85	0x3ead286b	0.338199
86	0x3f61c853	0.88196295
87	0x3e96cb49	0.2945197
88	0x3e03df93	0.12878256
89	0x3f2344d8	0.6377692
90	0x3e16863f	0.14699648
91	0x3edb7c7c	0.42868412
92	0x3e7184e4	0.2358585
93	0x3a8c3b1c	0.0010698768
94	0x3ea6acb2	0.3255363
95	0x3f4dd522	0.8040334
96	0x3e81ab79	0.25326136
97	0x3da46f8c	0.080290884
98	0x3f052937	0.52016014
99	0x3d924e17	0.07143801
100	0x3ecb0815	0.39654604
101	0x3e456e5a	0.19280377
102	0x3eecc019	0.4624031
103	0x00000004	6e-45
104	0x3e8e41de	0.27784628
105	0x3de61c84	0.11235908
106	0x34caa9ba	3.7748924e-07
107	0x3dd022c4	0.10162881
108	0x3e073c1f	0.13206528
109	0x3ec1f44e	0.37881702
110	0x3eba64f0	0.36405134
111	0x3f3ef2fc	0.74589515
112	0x3fe363dd	1.7764851
113	0x3eba941f	0.36441132
114	0x3ddac449	0.1068197
115	0x3d83cdc0	0.06435728
116	0x36007903	1.9143924e-06
117	0x3ebd78c5	0.37006202
118	0x3eafb85f	0.3432035
119	0x3e343a78	0.17600429
120	0x3e0064a5	0.12538393
121	0x3fd34a05	1.6506964
122	0x3dd542ef	0.10413157
123	0x3e903699	0.28166655
124	0x3e8f7a7d	0.2802314
125	0x3db2a751	0.08723319
126	0x3f56decb	0.83933705
127	0x3e4e89cd	0.20169754

bn1.running_var f4 [128]
0	0x3d3b8fa1	0.045791272
1	0x3e40dd97	0.1883453
2	0x3c997c0c	0.018735908
3	0x3d8038f1	0.06260861
4	0x3e0ce2bf	0.13758372
5	0x3ae1aac0	0.0017217025
6	0x3e82722e	0.25477737
7	0x3d5cbb0b	0.053889316
8	0x3d6829b0	0.05668038
9	0x3d0a5ca6	0.033779763
10	0x3e8c9009	0.2745364
11	0x3c867c5a	0.016416717
12	0x3e2055bc	0.15657705
13	0x3ea6b82e	0.32562393
14	0x3e255549	0.16145815
15	0x26a60fc2	1.1522835e-15
16	0x3dd4b98b	0.10386952
17	0x3f1ee7e1	0.6207257
18	0x3dbff5f6	0.09373085
19	0x3faf7722	1.3708231
20	0x39a21bc7	0.00030919744
21	0x3e2b9dd7	0.1675943
22	0x3e0878d4	0.13327342
23	0x3fa76f60	1.3080864
24	0x3d6d23f1	0.057895605
25	0x3dc98c83	0.098412536
26	0x3ec84b3e	0.39119905
27	0x3ee86ee7	0.45397112
28	0x3c97bf85	0.01852394
29	0x3e451474	0.19246083
30	0x3ca82ad6	0.020528238
31	0x3e1bf15e	0.15228793
32	0x3dfa60cb	0.12225493
33	0x3e27aedf	0.16375302
34	0x3cea93d3	0.028634941
35	0x3f351d8e	0.7074822
36	0x3cb0d372	0.0215852
37	0x3858a93f	5.1656036e-05
38	0x3e8bc8b2	0.27301556
39	0x3d9e6d44	0.077356845
40	0x3dc67a1b	0.096912585
41	0x3fa7bf6b	1.3105291
42	0x3ebc3edf	0.36766717
43	0x3efe3147	0.4964697
44	0x3e8cc882	0.27496725
45	0x3dafc174	0.0858182
46	0x3d81a452	0.0633017
47	0x3e973359	0.29531363
48	0x3e8855c9	0.2662795
49	0x35a2ca83	1.2128879e-06
50	0x3ed396f3	0.41326103
51	0x3e9e6f68	0.3094437
52	0x3e2a3f77	0.16625772
53	0x3e31ed67	0.17375718
54	0x3e112645	0.14174755
55	0x3f30c491	0.69049937
56	0x0d1a81d5	4.7611193e-31
57	0x3d188858	0.037239403
58	0x3e0e038c	0.1386854
59	0x3ef50803	0.47857675
60	0x3f8c5f5e	1.0966604
61	0x3e93221f	0.2873697
62	0x3e23bd3f	0.1599016
63	0x3cc281df	0.023743568
64	0x3d9ceca3	0.07662322
65	0x3e09b19e	0.13446662
66	0x3f21e864	0.63245225
67	0x3ca61c6c	0.020277224
68	0x3cab7e26	0.020934176
69	0x3ec4ba73	0.384235
70	0x3f1514a9	0.5823465
71	0x3e00b2ca	0.12568203
72	0x3e215576	0.15755257
73	0x374ae8d4	1.2094348e-05
74	0x3cfb33e4	0.030664392
75	0x3e6d04d2	0.2314637
76	0x3ededa4d	0.43525925
77	0x3f55273a	0.8326298
78	0x3e9d4f4f	0.3072457
79	0x3d94af0e	0.072599515
80	0x3ed11f52	0.40844208
81	0x3d611568	0.054952055
82	0x3f064b50	0.5245867
83	0x3e8257d3	0.2545763
84	0x3d69bd95	0.057065565
85	0x3ebc673d	0.36797515
86	0x3f887e65	1.0663573
87	0x3e46dea6	0.19420871
88	0x3da22afd	0.079183556
89	0x3eacc300	0.33742523
90	0x3db49684	0.08817771
91	0x3e76cbbf	0.2410116
92	0x3e290daa	0.16509119
93	0x39f1f16c	0.00046146975
94	0x3e40e9bc	0.18839163
95	0x3ed489b7	0.41511318
96	0x3e0291a8	0.12750876
97	0x3d81ed5d	0.063441016
98	0x3ee90df8	0.4551847
99	0x3ce0f211	0.027459176
100	0x3e381b46	0.17979154
101	0x3ddeb9e3	0.10875299
102	0x3e8fb5be	0.28068346
103	0x00000004	6e-45
104	0x3e570ebf	0.21001719
105	0x3d42a458	0.04752001
106	0x3463aa09	2.1202881e-07
107	0x3d97835e	0.07398103
108	0x3de33337	0.11093753
109	0x3ea65eec	0.32494295
110	0x3e7c571a	0.24642602
111	0x3f54376b	0.8289706
112	0x3f33d438	0.70245695
113	0x3e6041e6	0.21900138
114	0x3d2c7c7d	0.04211091
115	0x3cc266e7	0.023730708
116	0x33d1dff3	9.773057e-08
117	0x3eb42660	0.35185528
118	0x3dfbb3a9	0.12290127
119	0x3e184f81	0.14874078
120	0x3d5ed097	0.054398146
121	0x3f755faa	0.95849097
122	0x3d098242	0.03357149
123	0x3e8ee788	0.2791102
124	0x3e1a9799	0.15096892
125	0x3d8cf67e	0.06882952
126	0x3ee0c423	0.4389964
127	0x3e3e3308	0.18574154

bn2.weight f4 [128]
0	0x3f5373b0	0.825984
1	0x3f17cd1b	0.5929734
2	0x3ec3bf1e	0.38231748
3	0x3e20dc2c	0.15708989
4	0x3d028400	0.031864166
5	0x3e07d5d0	0.13265157
6	0x3f7b7809	0.98230034
7	0x3f114e38	0.5675998
8	0x3f4000aa	0.75001013
9	0x3f2e39bf	0.68056864
10	0x3f09b0e8	0.5378556
11	0x3f513649	0.8172346
12	0x3f3f7d39	0.7480045
13	0x3d24b4e0	0.04021156
14	0x3f3930fb	0.72340363
15	0x3ebb7602	0.3661347
16	0x3e91f7a2	0.2850924
17	0x3f110e97	0.5666289
18	0x3f755ee4	0.95847917
19	0x3e3e5350	0.18586469
20	0x3ebc9c48	0.36837983
21	0x3f6d02a3	0.9258215
22	0x3deb6180	0.11493206
23	0x3f504608	0.8135686
24	0x3f017998	0.5057616
25	0x3e6f5da8	0.23375571
26	0x3f49fca5	0.7890113
27	0x3f1cab29	0.6119867
28	0x3ee60186	0.44923037
29	0x3f73d35e	0.95244396
30	0x3e443218	0.19159734
31	0x3db6a3a8	0.08917934
32	0x3ec99182	0.39368826
33	0x3ecdf742	0.40227705
34	0x3f0b5cdb	0.5443856
35	0x3f4963d3	0.78667945
36	0x3f7df8c5	0.9920772
37	0x3e6de380	0.23231316
38	0x3f27c0b2	0.65528405
39	0x3f6b6266	0.9194702
40	0x3f054039	0.5205112
41	0x3e4b6190	0.19861436
42	0x3f4a9718	0.791368
43	0x3ea2402c	0.31689584
44	0x3f1497b2	0.5804397
45	0x3f0f8373	0.5605995
46	0x3e8b7a20	0.2724161
47	0x3e96191c	0.29316032
48	0x3f385a53	0.72012824
49	0x3e889948	0.26679444
50	0x3f66a472	0.90094674
51	0x3f19bb69	0.6005159
52	0x3eacddb0	0.33762884
53	0x3ee5d0b6	0.44885796
54	0x3d963f70	0.073363185
55	0x3f5a4e14	0.8527539
56	0x3eabe6b8	0.33574462
57	0x3f7bbb7c	0.98332953
58	0x3f1e31a4	0.61794496
59	0x3eee03b0	0.46487188
60	0x3ea881d2	0.32911545
61	0x3f51d5a0	0.8196659
62	0x3e7c16c0	0.24618053
63	0x3f2dba0a	0.67862
64	0x3e827ad8	0.25484347
65	0x3eff4cca	0.49863273
66	0x3e762a80	0.2403965
67	0x3f0b037d	0.543022
68	0x3f354ffc	0.7082517
69	0x3ec2ab0a	0.38021117
70	0x3ed63134	0.41834414
71	0x3f43db30	0.7650633
72	0x3e6a4c50	0.22880673
73	0x3dd7dd38	0.10540241
74	0x3ea2e814	0.31817687
75	0x3f0b42b0	0.5439863
76	0x3f2e8d92	0.6818477
77	0x3f68f449	0.9099775
78	0x3d440b20	0.047862172
79	0x3da5bed0	0.08093035
80	0x3f205b07	0.62638897
81	0x3d8658c0	0.065598965
82	0x3f29d30b	0.6633765
83	0x3ed5fd4e	0.4179482
84	0x3f2e8fd6	0.68188226
85	0x3f5242a4	0.82132936
86	0x3e75e570	0.24013305
87	0x3f04cf70	0.51879025
88	0x3f47283a	0.77795756
89	0x3e65d87c	0.22445863
90	0x3f649389	0.8928762
91	0x3f38d026	0.7219261
92	0x3f4892f1	0.78349215
93	0x3ede7c02	0.43453985
94	0x3eebdaf4	0.46065485
95	0x3f6b056a	0.91805136
96	0x3f25b278	0.64725447
97	0x3e231650	0.1592648
98	0x3dd50b18	0.104025066
99	0x3e9e9a30	0.3097701
100	0x3f35901d	0.70923024
101	0x3d10dce0	0.035366893
102	0x3f6816fb	0.90660065
103	0x3f1ea2d5	0.6196721
104	0x3dc33e70	0.095333934
105	0x3c7e8980	0.015535712
106	0x3f6568c2	0.8961297
107	0x3ea1485e	0.31500524
108	0x3e9bbc12	0.30416924
109	0x3e8c55b6	0.27409142
110	0x3dc3f760	0.095686674
111	0x3f2caa5b	0.6744744
112	0x3f09d873	0.538459
113	0x3eb92be8	0.3616631
114	0x3f28dc9b	0.6596162
115	0x3e9ba80c	0.30401647
116	0x3f2d099e	0.675928
117	0x3db18380	0.0866766
118	0x3e38ea2c	0.1805808
119	0x3e62d0e0	0.22149992
120	0x3f3eb634	0.7449677
121	0x3f50cf48	0.81566286
122	0x3e798048	0.24365342
123	0x3e698528	0.22804701
124	0x3f5fda1b	0.8744218
125	0x3ec5097a	0.38483793
126	0x3de73560	0.11289477
127	0x3f55ccd5	0.83515674

bn2.bias f4 [128]
0	0x00000000	0.0
1	0x00000000	0.0
2	0x00000000	0.0
3	0x00000000	0.0
4	0x00000000	0.0
5	0x00000000	0.0
6	0x00000000	0.0
7	0x00000000	0.0
8	0x00000000	0.0
9	0x00000000	0.0
10	0x00000000	0.0
11	0x00000000	0.0
12	0x00000000	0.0
13	0x00000000	0.0
14	0x00000000	0.0
15	0x00000000	0.0
16	0x00000000	0.0
17	0x00000000	0.0
18	0x00000000	0.0
19	0x00000000	0.0
20	0x00000000	0.0
21	0x00000000	0.0
22	0x00000000	0.0
23	0x00000000	0.0
24	0x00000000	0.0
25	0x00000000	0.0
26	0x00000000	0.0
27	0x00000000	0.0
28	0x00000000	0.0
29	0x00000000	0.0
30	0x00000000	0.0
31	0x00000000	0.0
32	0x00000000	0.0
33	0x00000000	0.0
34	0x00000000	0.0
35	0x00000000	0.0
36	0x00000000	0.0
37	0x00000000	0.0
38	0x00000000	0.0
39	0x00000000	0.0
40	0x00000000	0.0
41	0x00000000	0.0
42	0x00000000	0.0
43	0x00000000	0.0
44	0x00000000	0.0
45	0x00000000	0.0
46	0x00000000	0.0
47	0x00000000	0.0
48	0x00000000	0.0
49	0x00000000	0.0
50	0x00000000	0.0
51	0x00000000	0.0
52	0x00000000	0.0
53	0x00000000	0.0
54	0x00000000	0.0
55	0x00000000	0.0
56	0x00000000	0.0
57	0x00000000	0.0
58	0x00000000	0.0
59	0x00000000	0.0
60	0x00000000	0.0
61	0x00000000	0.0
62	0x00000000	0.0
63	0x00000000	0.0
64	0x00000000	0.0
65	0x00000000	0.0
66	0x00000000	0.0
67	0x00000000	0.0
68	0x00000000	0.0
69	0x00000000	0.0
70	0x00000000	0.0
71	0x00000000	0.0
72	0x00000000	0.0
73	0x00000000	0.0
74	0x00000000	0.0
75	0x00000000	0.0
76	0x00000000	0.0
77	0x00000000	0.0
78	0x00000000	0.0
79	0x00000000	0.0
80	0x00000000	0.0
81	0x00000000	0.0
82	0x00000000	0.0
83	0x00000000	0.0
84	0x00000000	0.0
85	0x00000000	0.0
86	0x00000000	0.0
87	0x00000000	0.0
88	0x00000000	0.0
89	0x00000000	0.0
90	0x00000000	0.0
91	0x00000000	0.0
92	0x00000000	0.0
93	0x00000000	0.0
94	0x00000000	0.0
95	0x00000000	0.0
96	0x00000000	0.0
97	0x00000000	0.0
98	0x00000000	0.0
99	0x00000000	0.0
100	0x00000000	0.0
101	0x00000000	0.0
102	0x00000000	0.0
103	0x00000000	0.0
104	0x00000000	0.0
105	0x00000000	0.0
106	0x00000000	0.0
107	0x00000000	0.0
108	0x00000000	0.0
109	0x00000000	0.0
110	0x00000000	0.0
111	0x00000000	0.0
112	0x00000000	0.0
113	0x00000000	0.0
114	0x00000000	0.0
115	0x00000000	0.0
116	0x00000000	0.0
117	0x00000000	0.0
118	0x00000000	0.0
119	0x00000000	0.0
120	0x00000000	0.0
121	0x00000000	0.0
122	0x00000000	0.0
123	0x00000000	0.0
124	0x00000000	0.0
125	0x00000000	0.0
126	0x00000000	0.0
127	0x00000000	0.0

bn2.running_mean f4 [128]
0	0x00000000	0.0
1	0x00000000	0.0
2	0x00000000	0.0
3	0x00000000	0.0
4	0x00000000	0.0
5	0x00000000	0.0
6	0x00000000	0.0
7	0x00000000	0.0
8	0x00000000	0.0
9	0x00000000	0.0
10	0x00000000	0.0
11	0x00000000	0.0
12	0x00000000	0.0
13	0x00000000	0.0
14	0x00000000	0.0
15	0x00000000	0.0
16	0x00000000	0.0
17	0x00000000	0.0
18	0x00000000	0.0
19	0x00000000	0.0
20	0x00000000	0.0
21	0x00000000	0.0
22	0x00000000	0.0
23	0x00000000	0.0
24	0x00000000	0.0
25	0x00000000	0.0
26	0x00000000	0.0
27	0x00000000	0.0
28	0x00000000	0.0
29	0x00000000	0.0
30	0x00000000	0.0
31	0x00000000	0.0
32	0x00000000	0.0
33	0x00000000	0.0
34	0x00000000	0.0
35	0x00000000	0.0
36	0x00000000	0.0
37	0x00000000	0.0
38	0x00000000	0.0
39	0x00000000	0.0
40	0x00000000	0.0
41	0x00000000	0.0
42	0x00000000	0.0
43	0x00000000	0.0
44	0x00000000	0.0
45	0x00000000	0.0
46	0x00000000	0.0
47	0x00000000	0.0
48	0x00000000	0.0
49	0x00000000	0.0
50	0x00000000	0.0
51	0x00000000	0.0
52	0x00000000	0.0
53	0x00000000	0.0
54	0x00000000	0.0
55	0x00000000	0.0
56	0x00000000	0.0
57	0x00000000	0.0
58	0x00000000	0.0
59	0x00000000	0.0
60	0x00000000	0.0
61	0x00000000	0.0
62	0x00000000	0.0
63	0x00000000	0.0
64	0x00000000	0.0
65	0x00000000	0.0
66	0x00000000	0.0
67	0x00000000	0.0
68	0x00000000	0.0
69	0x00000000	0.0
70	0x00000000	0.0
71	0x00000000	0.0
72	0x00000000	0.0
73	0x00000000	0.0
74	0x00000000	0.0
75	0x00000000	0.0
76	0x00000000	0.0
77	0x00000000	0.0
78	0x00000000	0.0
79	0x00000000	0.0
80	0x00000000	0.0
81	0x00000000	0.0
82	0x00000000	0.0
83	0x00000000	0.0
84	0x00000000	0.0
85	0x00000000	0.0
86	0x00000000	0.0
87	0x00000000	0.0
88	0x00000000	0.0
89	0x00000000	0.0
90	0x00000000	0.0
91	0x00000000	0.0
92	0x00000000	0.0
93	0x00000000	0.0
94	0x00000000	0.0
95	0x00000000	0.0
96	0x00000000	0.0
97	0x00000000	0.0
98	0x00000000	0.0
99	0x00000000	0.0
100	0x00000000	0.0
101	0x00000000	0.0
102	0x00000000	0.0
103	0x00000000	0.0
104	0x00000000	0.0
105	0x00000000	0.0
106	0x00000000	0.0
107	0x00000000	0.0
108	0x00000000	0.0
109	0x00000000	0.0
110	0x00000000	0.0
111	0x00000000	0.0
112	0x00000000	0.0
113	0x00000000	0.0
114	0x00000000	0.0
115	0x00000000	0.0
116	0x00000000	0.0
117	0x00000000	0.0
118	0x00000000	0.0
119	0x00000000	0.0
120	0x00000000	0.0
121	0x00000000	0.0
122	0x00000000	0.0
123	0x00000000	0.0
124	0x00000000	0.0
125	0x00000000	0.0
126	0x00000000	0.0
127	0x00000000	0.0

bn2.running_var f4 [128]
0	0x3f800000	1.0
1	0x3f800000	1.0
2	0x3f800000	1.0
3	0x3f800000	1.0
4	0x3f800000	1.0
5	0x3f800000	1.0
6	0x3f800000	1.0
7	0x3f800000	1.0
8	0x3f800000	1.0
9	0x3f800000	1.0
10	0x3f800000	1.0
11	0x3f800000	1.0
12	0x3f800000	1.0
13	0x3f800000	1.0
14	0x3f800000	1.0
15	0x3f800000	1.0
16	0x3f800000	1.0
17	0x3f800000	1.0
18	0x3f800000	1.0
19	0x3f800000	1.0
20	0x3f800000	1.0
21	0x3f800000	1.0
22	0x3f800000	1.0
23	0x3f800000	1.0
24	0x3f800000	1.0
25	0x3f800000	1.0
26	0x3f800000	1.0
27	0x3f800000	1.0
28	0x3f800000	1.0
29	0x3f800000	1.0
30	0x3f800000	1.0
31	0x3f800000	1.0
32	0x3f800000	1.0
33	0x3f800000	1.0
34	0x3f800000	1.0
35	0x3f800000	1.0
36	0x3f800000	1.0
37	0x3f800000	1.0
38	0x3f800000	1.0
39	0x3f800000	1.0
40	0x3f800000	1.0
41	0x3f800000	1.0
42	0x3f800000	1.0
43	0x3f800000	1.0
44	0x3f800000	1.0
45	0x3f800000	1.0
46	0x3f800000	1.0
47	0x3f800000	1.0
48	0x3f800000	1.0
49	0x3f800000	1.0
50	0x3f800000	1.0
51	0x3f800000	1.0
52	0x3f800000	1.0
53	0x3f800000	1.0
54	0x3f800000	1.0
55	0x3f800000	1.0
56	0x3f800000	1.0
57	0x3f800000	1.0
58	0x3f800000	1.0
59	0x3f800000	1.0
60	0x3f800000	1.0
61	0x3f800000	1.0
62	0x3f800000	1.0
63	0x3f800000	1.0
64	0x3f800000	1.0
65	0x3f800000	1.0
66	0x3f800000	1.0
67	0x3f800000	1.0
68	0x3f800000	1.0
69	0x3f800000	1.0
70	0x3f800000	1.0
71	0x3f800000	1.0
72	0x3f800000	1.0
73	0x3f800000	1.0
74	0x3f800000	1.0
75	0x3f800000	1.0
76	0x3f800000	1.0
77	0x3f800000	1.0
78	0x3f800000	1.0
79	0x3f800000	1.0
80	0x3f800000	1.0
81	0x3f800000	1.0
82	0x3f800000	1.0
83	0x3f800000	1.0
84	0x3f800000	1.0
85	0x3f800000	1.0
86	0x3f800000	1.0
87	0x3f800000	1.0
88	0x3f800000	1.0
89	0x3f800000	1.0
90	0x3f800000	1.0
91	0x3f800000	1.0
92	0x3f800000	1.0
93	0x3f800000	1.0
94	0x3f800000	1.0
95	0x3f800000	1.0
96	0x3f800000	1.0
97	0x3f800000	1.0
98	0x3f800000	1.0
99	0x3f800000	1.0
100	0x3f800000	1.0
101	0x3f800000	1.0
102	0x3f800000	1.0
103	0x3f800000	1.0
104	0x3f800000	1.0
105	0x3f800000	1.0
106	0x3f800000	1.0
107	0x3f800000	1.0
108	0x3f800000	1.0
109	0x3f800000	1.0
110	0x3f800000	1.0
111	0x3f800000	1.0
112	0x3f800000	1.0
113	0x3f800000	1.0
114	0x3f800000	1.0
115	0x3f800000	1.0
116	0x3f800000	1.0
117	0x3f800000	1.0
118	0x3f800000	1.0
119	0x3f800000	1.0
120	0x3f800000	1.0
121	0x3f800000	1.0
122	0x3f800000	1.0
123	0x3f800000	1.0
124	0x3f800000	1.0
125	0x3f800000	1.0
126	0x3f800000	1.0
127	0x3f800000	1.0
